Backgammon2/exported_networks/nn_best_model.pt (torch_old, 718120 bytes, 5 tensors)

0.weight f4 [250, 464]
000000 0b 56 2d bd e8 cd 74 bc 26 e3 bb 3c dc 87 50 3c
       -0.042318385 -0.01494167 0.022935461 0.012727704
000010 0e 4d cd 3c ae b0 8b 3c b5 a9 0f 3d 18 5f b1 bb
       0.025061157 0.01705202 0.035073955 -0.0054129474
000020 44 7a 2b bc dc 03 6d bc 48 14 45 bc ea 65 f6 3c
       -0.010466162 -0.014466252 -0.012028761 0.030077893
000030 58 bb ea bb 80 98 c9 bb 0d 4b 31 bd ca 58 03 bd
       -0.0071634464 -0.0061522126 -0.043284465 -0.032067098
000040 f1 e1 a9 3b 73 4a d4 bc 6a 70 de 3c aa 19 85 3c
       0.005184405 -0.025914406 0.027153213 0.01624759
000050 f1 62 10 3d d1 08 85 3b ef 3e 55 3c 91 68 fc bc
       0.035250608 0.004059889 0.013015493 -0.03081158
000060 27 c8 1b 3c 20 1e 25 bd cc 2c 0b bd 42 f5 e0 bb
       0.009508169 -0.040311933 -0.03397827 -0.0068651745
000070 5e 4c aa bb 4e c6 8c b9 e1 cb 10 3d 5b a1 11 bd
       -0.005197092 -0.0002685063 0.035350684 -0.03555427
000080 e0 4e 3e bd 6e 7a 1f bd 66 46 de bc 99 0a 7d b9
       -0.04646194 -0.038935117 -0.027133178 -0.00024131908
000090 89 a5 ff 3a 86 46 f6 ba 9d df 85 bc 52 43 b3 3c
       0.0019504289 -0.0018789328 -0.016341979 0.021882687
0000a0 49 23 31 bb a5 c3 37 bd 03 3d 24 bd 0d 5d ef bb
       -0.0027029088 -0.044864316 -0.040097248 -0.0073047937
0000b0 6d 0d 45 3c 24 07 69 3c 9f dd 19 3d c8 f1 74 3c
       0.012027127 0.014222894 0.03756487 0.014950223
0000c0 c6 ee 92 bc 17 8e de bc 14 d7 b7 3c e9 82 30 3d
       -0.017936122 -0.027167363 0.022441424 0.043093596
0000d0 cc 42 31 bd cd 8c 93 bb bb f1 25 bc af 6f 35 3d
       -0.043276593 -0.0045028687 -0.010128434 0.044295963
0000e0 5e c3 29 bd 1c 1f 0c bd 00 fb 3b bc 5e 16 29 bd
       -0.041446082 -0.034209356 -0.011473417 -0.041281097
0000f0 79 96 79 3c 2f 38 33 3d 7c ef 5e bc 1d 89 0c bd
       0.015233629 0.043754753 -0.013606902 -0.03431045
000100 74 28 10 3d 9b a9 34 bd e0 87 c7 bc d4 ab 3c bd
       0.03519483 -0.04410706 -0.024356782 -0.046062306
000110 52 59 21 bd bc cd fa 3c 8b 4c f2 3c 4e 5d 14 bd
       -0.039391823 0.03061568 0.029577514 -0.036221795
000120 7b d0 ec bc c0 97 0f bd 20 7b eb 3c 66 ba 2a 3d
       -0.028908005 -0.03505683 0.028745234 0.04168167
000130 36 77 0c 3c fc e5 03 bd 34 7c 3e 3c 46 7d ab 3c
       0.008573344 -0.032201752 0.011626292 0.020933758
000140 df 63 16 3c 1b 69 ce bb 30 1b a2 3b e0 71 c1 bc
       0.009179085 -0.0062991506 0.0049470887 -0.02361387
000150 44 7a 21 3d d5 a2 dc 3c ce f7 0e 3d 6a 14 19 bc
       0.039423242 0.026933113 0.034904294 -0.009343246
000160 36 1e 66 bc a0 5f 74 bc ed 15 2c bd e9 98 b6 3c
       -0.014045289 -0.014915377 -0.042013098 0.02228971
000170 0d 2b 64 bc dd 36 8c 3a ab d8 18 3d 51 7c 31 3d
       -0.01392628 0.0010697503 0.037316006 0.043331448
000180 7f 61 a1 bc b7 e3 86 bc 53 6c e3 bc 3b 35 87 3c
       -0.01969981 -0.016466005 -0.027761614 0.016504874
000190 68 05 17 bd 29 a1 38 3d c4 e3 39 3d c1 9b 8c b9
       -0.03687039 0.04507557 0.04538323 -0.00026818927
0001a0 50 19 e8 bb f8 e7 03 3d 89 16 3b bb 03 c9 f4 bb
       -0.0070830956 0.032203645 -0.0028547368 -0.0074702515
0001b0 01 87 36 3d b6 60 8a 3c a8 82 af bb 00 ea e7 39
       0.044562344 0.016891818 -0.0053561516 0.00044234097
0001c0 5d 09 f5 3c a0 b4 05 bd dd eb 13 3d a9 07 25 bd
       0.029911691 -0.03264296 0.03611361 -0.04029051
0001d0 20 6f 28 bd 7a 2d 18 bd df ff 09 3d 34 42 f7 3c
       -0.041121602 -0.037152745 0.033691283 0.030182935
0001e0 d6 0b f5 3c 2c ae 6e 3c 68 d3 cc bb 48 48 5c 3c
       0.02991287 0.014567893 -0.0062507875 0.013444968
0001f0 bb 2d 09 3d 30 89 06 bd 20 92 99 3a be af 91 3c
       0.033490878 -0.032845676 0.0011716522 0.017783996
000200 5b 61 10 3d 99 25 05 bd 5a c0 5c 3c 85 80 c8 3b
       0.035249095 -0.03250656 0.013473595 0.0061188363
000210 17 9f 99 3c 75 5e 96 bb 14 92 06 ba 50 18 e6 3c
       0.018752618 -0.004588897 -0.00051334617 0.028087765
000220 e6 fd da bb 33 fd 6d bc 24 6c 3f bc 93 27 0d bd
       -0.006683099 -0.014525699 -0.011683498 -0.03446157
000230 df 60 37 bd 37 3f 83 bc c9 55 2b 3d a8 b4 f9 3b
       -0.044770118 -0.016021354 0.041829858 0.007620413
000240 cd cf 09 bb 61 4d 25 bc bb 03 84 3b fb c9 d7 bb
       -0.00210284 -0.010089249 0.004028765 -0.0065853572
000250 4e 88 19 3d 1a f6 ed bc fe e4 11 3d 75 d5 33 3d
       0.037483506 -0.029048014 0.035618775 0.04390474
000260 43 f2 f5 bc 81 0d f2 bc 16 82 ac 3c 3e 29 ac 3c
       -0.030022746 -0.029547455 0.021058124 0.02101576
000270 24 73 2a bd 4e 20 bf 3c 15 52 05 bd b1 c3 b6 bc
       -0.041613713 0.023330834 -0.032548983 -0.02231011
000280 7c 05 97 3c 04 a5 1b 3d 0a a8 ea 3c c2 c4 82 bc
       0.018435232 0.037999168 0.02864458 -0.015962962
000290 98 1f d5 ba 60 1a 7f bc 00 4b 2a 3d c0 4f 3d 3c
       -0.0016260026 -0.015570253 0.04157543 0.011554658
0002a0 fa 02 e1 3c 50 d6 03 3c 40 84 3c 3a 5a 5e dd 3c
       0.02746724 0.008046702 0.00071913376 0.02702253
0002b0 eb 66 27 3d 07 35 10 bd 9f 15 1a 3d d8 a3 ff bc
       0.040869635 -0.03520682 0.037618276 -0.031206056
0002c0 42 85 25 3d 33 a5 0d bc 55 f8 1a 3d 52 9b 02 3d
       0.040410288 -0.008645344 0.037834484 0.031886406
0002d0 ef 40 b2 3c 69 85 f7 3b 3d 76 e4 bb 11 74 23 bd
       0.021759478 0.0075537455 -0.006972103 -0.03990561
0002e0 10 cb 0c bd 38 36 b1 bc 69 ff 1a 3d 96 7f f9 3c
       -0.034373343 -0.021632299 0.037841234 0.030456346
0002f0 7f b8 08 bd 04 f7 4e bc 45 7c 1f bd 03 63 e4 bc
       -0.033379074 -0.012632135 -0.038936872 -0.027879244
000300 cf 20 1e 3d eb 64 3b 3d 0f 9f 02 bd 74 00 15 3d
       0.038605507 0.04575054 -0.03188997 0.036377385
000310 6f fa 24 3d 63 42 d9 3c ad 93 15 3d 61 f7 06 3d
       0.040277895 0.026520913 0.036517788 0.032950763
000320 2b 82 83 bc 68 1c 98 bc cb d6 b0 bc 37 f5 18 3d
       -0.01605328 -0.018568233 -0.021586796 0.03734323
000330 13 21 3d 3d 56 9c e5 3c 67 ce ad bc 45 a9 1d 3d
       0.04617412 0.028028648 -0.021216584 0.038491506
000340 ad da 92 3c f0 86 6e 3c e8 c1 47 3c 55 bb 18 3d
       0.017926538 0.014558539 0.012192227 0.03728803
000350 17 18 95 bc c3 21 45 bc 45 1d 30 3d 8d d0 ab bc
       -0.018199963 -0.012031975 0.042996664 -0.020973468
000360 97 29 9d bc ad dc 0f bb 90 4c 89 bb 80 d4 00 3a
       -0.01918487 -0.0021951601 -0.004190035 0.00049144775
000370 a0 d4 a8 bc 82 d4 33 bd 6b fc 05 bd 0c 60 76 3c
       -0.0206092 -0.043903835 -0.032711428 0.015037548
000380 31 8f c7 bc 07 7f e6 bc 5f 5a 15 3d b1 60 30 3d
       -0.024360271 -0.028136743 0.036463138 0.043060962
000390 99 15 25 3d 25 df 04 3d a4 e4 78 bc 1e 05 cf 3c
       0.0403038 0.03243937 -0.015191231 0.025270995
0003a0 3f c8 2a 3d 78 33 e2 3b ce 95 ea 3c 46 86 11 bd
       0.041694876 0.006903108 0.028635886 -0.035528444
0003b0 cb 29 e6 bc db 82 15 3d bb 53 00 3d b2 6c bc 3c
       -0.0280961 0.036501747 0.03132985 0.023001049
0003c0 bd e7 16 3c 2a f0 80 bc 54 a6 10 3d f0 01 70 bb
       0.009210524 -0.01573952 0.035314873 -0.0036622249
0003d0 f8 2d 25 bc 30 5b 2c bc 66 f7 84 3c 36 ef ba 3c
       -0.010081761 -0.010519788 0.01623125 0.022819143
0003e0 e6 e9 32 bd 69 50 20 3d d6 2e 38 bd d9 08 18 bd
       -0.043680094 0.039139185 -0.04496654 -0.037117813
0003f0 a0 a6 39 3c 91 ec ab bc 96 e0 23 bd 36 a6 34 bd
       0.01133123 -0.020986827 -0.040009104 -0.044103824

0.bias f4 [250]
000000 ee 9c cb bc b2 d7 17 3c f2 ba 2e 3d 45 01 7e bc
       -0.024855103 0.009267734 0.042658754 -0.015503232
000010 2c 5b 39 3d 03 da 2d 3b 6d 74 1e bd cb 01 21 bd
       0.045252964 0.002652765 -0.03868525 -0.03930835
000020 eb fd 56 bb e2 04 d4 bc 9b e0 a8 3b 2f e2 42 3c
       -0.0032805155 -0.025881235 0.005153728 0.011894747
000030 d7 a8 cc bc 09 76 1b bd 69 a4 ab bc 26 ea cf bc
       -0.024982853 -0.037954364 -0.02095242 -0.025380205
000040 68 e4 19 b9 89 e0 ab 3c 41 00 25 3d db af c9 bc
       -0.00014676305 0.02098109 0.040283445 -0.024619987
000050 b1 ba 1a 3d ae f1 1f bd af b3 85 3c 6e 82 5f bb
       0.0377757 -0.039048843 0.016321031 -0.0034104842
000060 fc 50 17 3d ec a8 b8 bc ca f8 5e 3c 5d 64 95 bb
       0.036942467 -0.022541486 0.013609121 -0.0045590834
000070 a1 9c 35 3d 1b b6 1f 3c 1a 56 e2 3c d7 68 15 3d
       0.044338826 0.009748007 0.027628947 0.036476936
000080 bf fc 1c bc 87 20 ef 3c 8f 42 32 3c aa ef ce bc
       -0.009581744 0.029190315 0.010880127 -0.025260765
000090 6a d8 90 3b 2d f6 51 bc e3 34 a3 ba ed 9d 00 3b
       0.00442033 -0.012815041 -0.0012451675 0.001962538
0000a0 51 7e 8e bb 03 f1 36 3d 2a a3 83 3c d6 31 12 3d
       -0.004348554 0.04466344 0.016069014 0.03569206
0000b0 34 10 bd bc c7 02 23 3d 3b 26 8f bc 7b 01 9b 3c
       -0.023079015 0.03979757 -0.017474284 0.018921604
0000c0 be 29 cf bc 55 a6 cc 3c ba ca c2 bc 86 c8 13 bd
       -0.025288459 0.024981657 -0.023778308 -0.036079906
0000d0 af d7 e1 bc 15 89 a6 3c 86 d2 bb 3c cc 27 23 bd
       -0.027568666 0.020329038 0.022927534 -0.039832875
0000e0 af 2c 87 bc c1 f1 30 bd ef f1 69 bc 47 c0 31 bd
       -0.016500799 -0.043199304 -0.014278873 -0.04339626
0000f0 9c 34 92 bb 4b f3 db 3c 8f 6e 1e 3c 90 91 4e 3c
       -0.004461838 0.02684941 0.009669914 0.012607947
000100 2e 77 b6 bc 16 8e 00 bd 2f af 85 bc 71 81 3f 3d
       -0.022273626 -0.031385504 -0.016318886 0.046754304
000110 25 e5 72 3c 8a 95 c5 bc 80 22 59 3c 64 68 27 bd
       0.01482514 -0.024119157 0.013252854 -0.04087104
000120 c7 ab a4 bc 2d 94 02 bd b2 c6 f0 bc d7 a6 29 3d
       -0.020101441 -0.031879593 -0.02939162 0.041418876
000130 4d cb 15 3d cf 7f 21 3d 82 2b 3f 3c 2a f6 23 bd
       0.036570836 0.03942853 0.011668088 -0.040029682
000140 ed f3 4e bc 85 fb 08 bd ed 74 a5 3c fe a0 2b bd
       -0.012631399 -0.033442993 0.020197356 -0.04190158
000150 ed da 18 3b da b0 09 3d 55 eb 86 3b b6 33 3c 3d
       0.002332385 0.033615924 0.0041174092 0.045947753
000160 59 81 8c ba 46 6d d8 bc b9 28 0c 3d 12 bf c9 3c
       -0.0010719701 -0.026419293 0.034218524 0.024627242
000170 69 f5 61 3c 57 f6 14 bd a0 69 d1 3c 82 85 09 3d
       0.0137914205 -0.03636774 0.025563061 0.03357459
000180 bd 9f 90 3c 67 db 16 bc 52 54 29 bd e8 1d 3b 3d
       0.017654294 -0.009207583 -0.04134018 0.045682818
000190 3b 66 be 3c 32 51 dc 3c 74 5c 1d bc a5 60 3e bd
       0.023242107 0.026894186 -0.009604562 -0.046478886
0001a0 2b c4 f5 3b c9 99 13 bd aa 69 bf 3c 6f 07 d9 ba
       0.0075001917 -0.036035333 0.023365814 -0.0016558002
0001b0 92 ae c0 bc c3 f2 e4 bc d5 6e fc 3c 05 31 28 bb
       -0.023520742 -0.027947789 0.030814568 -0.0025663984
0001c0 ab 5d 0e 3c e0 bc 83 bb 95 9f 24 bc 81 02 21 bd
       0.008689324 -0.0040203184 -0.010047813 -0.03930903
0001d0 1e 39 b8 bc 72 47 1d 3d fd ab d0 3b 3d 50 29 3c
       -0.022488173 0.038398214 0.006368159 0.010334072
0001e0 13 b2 25 3d 44 97 12 3d b0 89 84 3c 76 19 f1 3c
       0.040453028 0.03578879 0.016178936 0.029431086
0001f0 f8 ad 8e bb 36 0a 9e bb c8 c5 94 3b 84 5c f9 3c
       -0.004354235 -0.0048229946 0.004540179 0.030439623
000200 4c 9a 71 3c b1 c5 3a 3d eb e5 47 3c 21 2a 0c 3d
       0.01474626 0.04559869 0.012200813 0.034219865
000210 8b 5f 38 3d d1 72 20 3d ca 06 19 bd 60 89 07 bc
       0.045012992 0.039171997 -0.03735999 -0.008272499
000220 20 27 c6 ba b3 e7 b1 3a 31 21 6d 3c 63 bc 33 3d
       -0.0015117861 0.001357308 0.0144732455 0.04388083
000230 0b 14 0d bd 02 a2 45 3c c3 d9 69 bc d8 59 4d bb
       -0.034442943 0.012062551 -0.01427311 -0.0031334069
000240 19 32 e2 3b a3 42 71 bb 59 06 01 bd 5b ce 11 3d
       0.0069029448 -0.00368134 -0.031500194 0.035597187
000250 d3 db 3b 3d 03 1e 19 3d 62 fb 8d bc bd 52 1e 3d
       0.045863938 0.037382137 -0.017331783 0.038653124
000260 c4 59 32 bd 8b 73 04 3c 62 9a eb bb 3b b5 7f 3b
       -0.04354264 0.008084188 -0.0071900347 0.0039017934
000270 86 e2 b2 bc c0 42 34 bd 6d 41 15 bc 80 32 3e 3b
       -0.02183653 -0.04400897 -0.009109837 0.00290218
000280 df d4 d1 bc 2f 08 9f 3c f4 0d f1 3b 08 bc b4 bc
       -0.0256142 0.019413082 0.0073563997 -0.022062317
000290 8b 05 9a 3c d9 9f 9c 3c 06 4b d1 bc 4c 0f 48 3c
       0.018801471 0.01911919 -0.02554847 0.012210678
0002a0 02 c7 39 3c f1 d9 9e bc 00 22 19 3d 87 42 ea bb
       0.011338951 -0.019391032 0.03738594 -0.007149044
0002b0 45 d0 05 3d 43 58 bd bc 80 ba 1b bd 6a 21 8e bc
       0.032669324 -0.023113376 -0.038019657 -0.017349917
0002c0 a9 4a d8 bb 2d 0d 34 3c 40 e9 10 bd e4 ce 8b 3b
       -0.006600697 0.0109894695 -0.035378695 0.0042666066
0002d0 a4 f8 2f bd 9e b5 01 bd 80 73 17 bd 20 95 92 bc
       -0.04296173 -0.031667344 -0.036975384 -0.017893374
0002e0 11 34 00 3c bf bb 38 bd 63 f0 ee bb ee 46 b7 3c
       0.007824914 -0.045100924 -0.00729184 0.02237269
0002f0 bf 6e df bb f9 80 1f bb 95 43 2f bd a3 e1 fd bc
       -0.006818622 -0.0024338348 -0.04278906 -0.030991381
000300 4b cb b2 3c 3c f9 77 3c 5b af bc bc c2 f8 d4 3c
       0.021825453 0.015135106 -0.023032835 0.025997523
000310 7b 07 05 3c 64 58 00 3d c1 84 d0 bc ea 8b 20 bd
       0.008119459 0.031334296 -0.025453927 -0.039195932
000320 3d 75 09 bd 32 31 22 bd 16 41 e2 3c 69 ca e1 bc
       -0.033559073 -0.039597698 0.027618926 -0.027562337
000330 81 d3 38 3d 80 2f 37 3d 42 96 00 bd 1a 11 00 3d
       0.04512358 0.044723034 -0.031393297 0.03126631
000340 6e ce b2 bc 2a 1c 3b 3d f3 ed 13 bd 0b 06 16 3d
       -0.021826949 0.045681156 -0.036115598 0.036626857
000350 45 2e 02 bd 81 0b 8b bc fe ae 46 bb 7e 55 cf bb
       -0.031782407 -0.016973259 -0.0030316706 -0.00632733
000360 b7 ef f9 bc 91 7c 43 3c ca 64 d4 3c 82 a3 23 3d
       -0.030509813 0.011931554 0.025926966 0.039950855
000370 50 06 9c 3c 6a 9e ed bb 5f fa 12 bd f3 83 7c bc
       0.019045979 -0.0072515504 -0.035883304 -0.0154123185
000380 3d bf b5 bc 8d a4 18 bc bb 86 45 bb 88 5d 0e 3d
       -0.022185916 -0.009316576 -0.003014012 0.034757167
000390 51 60 69 3c 99 9b 9e bc 73 d8 23 bd 99 86 16 bd
       0.014244155 -0.019361304 -0.040001344 -0.036749456
0003a0 c2 03 38 bd d0 8d 26 bd a3 6d 2c bc 8a b7 c7 b9
       -0.04492546 -0.040662587 -0.010524186 -0.00038092985
0003b0 60 73 d1 bc ea 59 2d 3b 53 db 2c 3c fe 51 c4 bb
       -0.02556771 0.0026451298 0.010550338 -0.0059912195
0003c0 d2 28 5f bc 44 87 ee 3c 6e 01 b1 3c 63 88 33 3d
       -0.013620572 0.029117234 0.021607127 0.04383124
0003d0 9f 54 9c 3c bb 6a 35 3d 8d de 31 bd ab cd b8 3c
       0.01908332 0.04429124 -0.04342513 0.022559008
0003e0 dd a3 2c 3d 13 ce a7 bc
       0.04214846 -0.020484006

1.weight f4 [250, 250]
000000 e3 a4 a1 3c 27 ea e2 ba ee 5a 8d 3c 44 91 1c bc
       0.019731944 -0.0017312214 0.017255273 -0.009556118
000010 58 8a db 3c cd c6 47 bc b3 35 e6 bc 59 8d ea bc
       0.026799366 -0.012193394 -0.028101778 -0.028631853
000020 15 75 3a 3c bc 11 61 3c 3b ac 08 bd d6 3b 4d bc
       0.011380454 0.013737138 -0.033367377 -0.012526473
000030 3d dd 49 3c 4c de 19 3d b5 94 89 3c 29 e2 79 3d
       0.012320814 0.037565514 0.016794542 0.0610067
000040 f3 bd 7f 3d 35 b3 4e 3c 7f b1 90 bc ac 9f 2d 3d
       0.06243701 0.0126159685 -0.017662762 0.042388603
000050 ac f6 27 bc 0f d5 2d bc fa 03 84 3c 25 ca 68 bd
       -0.010251682 -0.010609879 0.016115177 -0.056833405
000060 0e 84 d2 bc 70 16 76 3d 0c 31 32 bd 59 76 eb 3c
       -0.025697734 0.06007999 -0.043503806 0.028742956
000070 00 99 61 3d 50 22 0b 3c c0 e5 fd 3c 12 a3 ae 3c
       0.055077553 0.008492067 0.030993342 0.021317992
000080 48 c2 7d bd e4 3b cc 3a 49 8a 44 bd a1 7e 6e 3c
       -0.06195286 0.0015581814 -0.04798344 0.014556558
000090 84 8e fd 3c e8 1c 03 bb 49 d3 97 3b a5 32 00 bb
       0.030951746 -0.0020006243 0.0046333415 -0.0019561436
0000a0 53 fd 58 bd 29 5a ae 3c 2c 0f 9b 3c 10 ec a9 bb
       -0.052975964 0.021283226 0.018928133 -0.0051856115
0000b0 b9 c0 7d 3d 37 bf 2c 3c f5 0e 69 3d 0b bc 12 3d
       0.061951373 0.010543636 0.05689903 0.035823863
0000c0 94 cd 2a bd 1d 03 84 3c 58 bf b2 3c 4c cd 46 3c
       -0.04169996 0.016114766 0.021819755 0.0121339075
0000d0 56 dc 97 bc 6e c6 ea 3c 9d 98 57 bd 40 5c 0a bd
       -0.018537682 0.028659072 -0.052635778 -0.033779383
0000e0 e3 f1 ff bc 5e 32 68 3d 7d ce ba bc af ff 28 bc
       -0.03124327 0.05668866 -0.02280354 -0.010314866
0000f0 5e 08 14 bd 71 4e 6f bb ce a0 5a 3d 91 d0 77 3d
       -0.036140792 -0.003651526 0.05337601 0.06050164
000100 af 36 51 3d e4 e8 11 3d 5f 3c 55 3d 34 f7 4b bd
       0.05107754 0.035622492 0.052059527 -0.0497963
000110 15 d3 54 bd fc 3f 6f bc 67 2d cc 3a 13 5d 5f 3a
       -0.051959116 -0.014602657 0.0015577496 0.0008520644
000120 ed a0 3b 3d 90 57 11 3c 54 37 de 3b b1 19 17 3d
       0.045807768 0.008870974 0.006781498 0.036889736
000130 41 e1 18 3d 5e 18 b8 bc a0 ff 7a 3d f8 f7 82 3c
       0.037324194 -0.022472557 0.06127894 0.015987381
000140 6b 1f 4b bd 35 ab 54 bd 61 40 53 3d 40 52 ef 3b
       -0.04959051 -0.05192109 0.05157507 0.007303506
000150 6c 9f c8 3b 1f 04 20 3d 94 04 33 bd 0a 2c 4d bc
       0.00612252 0.03906643 -0.043705538 -0.012522707
000160 94 1e 63 3a b0 26 b1 3c 68 4f 6c bd 6e 8a 21 3d
       0.0008663919 0.021624893 -0.057692915 0.039438657
000170 16 48 bc 3b f6 43 8e bc 5b cf f5 bc 6a e0 49 3d
       0.005745898 -0.01736639 -0.030006101 0.049286284
000180 59 2c fc 3c 17 7a 36 3d ed f6 7c bd ef b3 0b 3c
       0.030782865 0.044550028 -0.061758924 0.008526786
000190 f1 b5 10 bb 02 1a 19 3c ba ad 58 3c ab eb ee 3c
       -0.0022081102 0.00934458 0.013225013 0.02916511
0001a0 52 ae 99 3c 60 f0 33 bd 54 22 6c 3d 56 94 8a 3b
       0.01875988 -0.04393041 0.057649925 0.004229109
0001b0 ff 4c 3f 3d be 56 9d bc 18 91 ba bc 09 a2 8c 3c
       0.04670429 -0.019206401 -0.022774264 0.017167108
0001c0 1d 66 1e 3c e2 b6 db 3c 5d a8 20 bd 75 fd 53 3d
       0.0096679 0.026820604 -0.039223064 0.051755387
0001d0 61 db 1b bd 38 c8 7e 3c 20 4f 6e bc 2f b0 af 3c
       -0.038051013 0.015550666 -0.014545232 0.021446316
0001e0 a8 97 07 3d eb 32 27 bc 51 b9 00 3c 75 ca 23 bd
       0.033103615 -0.010205011 0.007856683 -0.039988
0001f0 95 a8 17 bc 2f 26 44 3d 47 61 03 3c 54 f9 62 3d
       -0.009256502 0.047887977 0.008018798 0.05541356
000200 b7 f8 05 3c ab b3 8a 3b 31 0a ac bc 8e 17 56 3d
       0.008176974 0.004232844 -0.021000953 0.052268557
000210 fa 43 fe 3c a7 b9 4c bd 90 7f 7a 3d 3f de f1 bc
       0.031038273 -0.04998174 0.06115681 -0.02952492
000220 0c 53 93 3c d5 96 b9 3c 75 63 37 3d de e0 e6 bc
       0.017983936 0.02265493 0.044772584 -0.028183397
000230 9e 34 5f 3c 2a 6a 82 bc 93 01 e5 3c 9d 17 39 bd
       0.013623385 -0.015919764 0.027954852 -0.045188535
000240 0a fa 15 3d 54 6e 2e 3d 41 01 b8 bb 76 03 5a 3d
       0.03661541 0.042585686 -0.005615384 0.053225957
000250 52 ea 29 bd 0e c0 6c bd b7 6c 6a 3d 23 c1 80 3d
       -0.04148323 -0.057800345 0.057232585 0.06286838
000260 b6 e8 0f bd 54 a7 4c 3d 63 ca 1f bd b0 4b 87 bb
       -0.03513404 0.049964264 -0.03901137 -0.0041288957
000270 62 ea d5 3c 23 e6 a5 3c 5a f6 65 3d 88 a1 06 bc
       0.026112739 0.02025134 0.056143142 -0.008217223
000280 0f c4 55 3d ae 06 55 3d 14 4f 68 bd ed d4 9b 3c
       0.05218893 0.052008323 -0.05671604 0.01902243
000290 bb bb 75 3d fb d3 8f 3c 2a 4b e0 3a 64 ef 5d 3d
       0.059993487 0.017557135 0.0017112244 0.05418338
0002a0 1f c4 18 bc 34 a8 93 3a 82 4a 70 bd 81 c2 31 3d
       -0.009324103 0.0011265338 -0.058664806 0.043398384
0002b0 da 01 15 3d 07 0b 18 bd d2 e2 03 3c 60 bc 3c 3d
       0.03637872 -0.03711989 0.008049684 0.046078086
0002c0 40 6a 66 3d 19 e2 dc bb 2b 6e 33 3b 94 f0 4a 3d
       0.05625367 -0.00674082 0.0027378898 0.04954584
0002d0 ae 7f 06 3d 69 b6 a5 3b fd 14 57 bd 71 83 55 bb
       0.03283661 0.0050571454 -0.05251025 -0.0032579566
0002e0 8d e1 8c bc 4c 47 47 bd da 93 e9 bc 13 71 2a 3c
       -0.017197395 -0.04865198 -0.028512884 0.010402936
0002f0 79 9a 9c 3c df c9 8e 3c 8e a1 25 3d 01 87 a1 3b
       0.019116627 0.017430244 0.040437274 0.004929424
000300 42 ee f8 bc b3 ca 89 bc 21 6c 1b bb bf 59 12 3c
       -0.030387048 -0.016820287 -0.0023715573 0.00893253
000310 c8 78 eb 3c 35 bc b5 3c 78 16 6a bb ec 88 c7 bc
       0.028744116 0.02218447 -0.0035718959 -0.024357282
000320 98 52 28 3d 57 a4 54 3d c7 7a 53 3c 3a fa 65 3d
       0.041094393 0.05191454 0.01290769 0.056146838
000330 73 6c 62 bd fe 2e f2 3a cb a8 54 bc c2 b5 bc 3b
       -0.055279206 0.001847714 -0.0129796965 0.005758972
000340 3d 8c ff 3c c8 a3 e1 bc 57 5c 22 3d 46 0e 09 3d
       0.0311948 -0.027543917 0.039638843 0.033460878
000350 7e 72 db bc 1a 5c 76 3d 8d 22 75 bd 87 db 55 bd
       -0.026787993 0.06014643 -0.059847403 -0.05221131
000360 a2 50 ad 3c 97 18 40 bd ba 7c 83 3c 1c 46 bc bc
       0.021156613 -0.04689845 0.016050685 -0.02298265
000370 f6 45 2c bc b1 c9 54 3d 92 c5 a1 bc e5 78 b3 bc
       -0.010514727 0.05195016 -0.01974753 -0.021908233
000380 d1 d2 2a 3d 03 98 ae 3c 7f 03 44 3d dc 7c 34 3d
       0.041704956 0.02131272 0.047854897 0.044064388
000390 27 5c 27 bd 30 0d 0e bd 61 1b a7 3c 9b 32 74 3d
       -0.040859368 -0.034680545 0.020398797 0.059618574
0003a0 7f bf 8e 3c f2 ef ee 3c d0 8a 47 3c 53 39 5a 3d
       0.017425297 0.02916715 0.012179092 0.053277325
0003b0 b9 5a 43 3d bb 03 51 bc a5 19 24 3d 60 04 21 bd
       0.04769394 -0.012757237 0.04006352 -0.039310813
0003c0 3e 6f 51 bd c5 7f 35 bd 5b 55 43 bd 94 2b 6d 3d
       -0.05113148 -0.044311304 -0.047688823 0.057902887
0003d0 1f 7b ae bb cd fb 12 3c 06 4c 44 3d 9b 6c d4 bc
       -0.005324736 0.008971167 0.047924064 -0.025930693
0003e0 e9 e0 5c bd a2 50 4e 3d 29 1b 87 3c b0 a8 2c bd
       -0.05392543 0.050369866 0.016492443 -0.04215306
0003f0 65 fa ac bc 78 10 21 3d d5 47 e9 bc db 6c 31 3d
       -0.021115491 0.039322346 -0.028476635 0.043316703

1.bias f4 [250]
000000 96 e5 a1 3c e5 59 c9 bc ef fb 82 bd 1c 78 77 3d
       0.019762795 -0.024578998 -0.06395709 0.06041728
000010 94 64 76 3c 22 1a 1a bc 68 42 70 3d b1 33 42 3d
       0.015038628 -0.009405645 0.05865708 0.047412578
000020 cf 24 4e bd 31 52 3d bd 4f 4e c6 bb b0 87 68 3d
       -0.050328072 -0.046220962 -0.0060518156 0.056770027
000030 bc c2 a8 ba b8 cd c7 3c 2d 72 fa 3c 77 83 96 ba
       -0.0012875418 0.024390087 0.030572021 -0.0011483271
000040 8c 70 40 bd 1b 57 c0 3b ed a4 24 bd d9 e2 f0 3c
       -0.046982333 0.005869759 -0.040196348 0.029405044
000050 48 ef 96 bb 7d ff 00 3d cf f7 0b 3d 59 94 1c 3d
       -0.0046061613 0.031493653 0.034171876 0.038227413
000060 de 5c 78 bd 1d 9f bf bc 1f 21 50 bc 15 90 da bc
       -0.06063544 -0.0233913 -0.012703209 -0.026680032
000070 bb 46 46 bd bf aa b2 3b 4d e4 db bc 37 6e 9a bc
       -0.048407298 0.0054524834 -0.02684226 -0.018851383
000080 67 23 f0 bb 7c 3f 7c 3b ff 9a 03 3a e1 f3 a1 bc
       -0.007328439 0.0038489988 0.00050203496 -0.01976961
000090 53 0f f3 3b cc 31 c9 3a a1 29 49 bd 12 a4 5e bd
       0.0074175983 0.0015349924 -0.049111966 -0.05435569
0000a0 02 53 6a 3d 1a 01 07 3d 32 e5 ed bc 77 11 f7 bc
       0.05720807 0.032960035 -0.029039953 -0.030159695
0000b0 35 35 bc 3c b5 b3 33 3c b8 ce ad 3c f6 2f 33 3b
       0.02297459 0.010968138 0.021216735 0.002734182
0000c0 fa 86 47 bd 79 c4 74 bd 29 1e 5f 3d ba 1b 5f 3d
       -0.048712708 -0.059757683 0.054472122 0.0544698
0000d0 7a f2 42 bc aa 4b 82 3d 11 02 66 3d c6 69 35 3d
       -0.011898631 0.06362088 0.056154314 0.044290327
0000e0 27 9f ef 3c d1 bd 77 3c 55 f0 b1 bc a0 10 af bc
       0.029250694 0.015120939 -0.021721045 -0.021370232
0000f0 dd 47 69 bd 5e e3 bf ba a4 91 47 3d a1 f4 c9 3c
       -0.0569533 -0.0014639904 0.048722878 0.024652781
000100 df c0 ce 3b 35 db de bc 52 f3 4c 3d be 8c 80 bd
       0.006309613 -0.027204135 0.050036736 -0.062768444
000110 8b b8 01 bd 5d cf 4f bd 20 b7 38 3d 25 7d d7 3c
       -0.031670135 -0.050734866 0.045096517 0.02630479
000120 84 4b 21 3c 29 ee 7c 3c bc 5c 21 bd 44 d0 67 bd
       0.0098446645 0.015437641 -0.03939508 -0.056595102
000130 d8 9d a4 bb 88 0d 80 3c ee 8f a1 bb 85 bd a4 bc
       -0.0050236993 0.015631452 -0.004930488 -0.020109901
000140 c5 e9 a1 3c 18 30 31 3d 02 31 8d 3b d9 a1 a0 3c
       0.01976479 0.043258756 0.0043088207 0.019608425
000150 90 b1 65 bd ff 74 17 3c b9 4e 28 3d 9d 4b 50 bd
       -0.05607754 0.009244203 0.0410907 -0.05085336
000160 45 2b 84 3c 56 fa ba 3c 56 89 c5 bc ea eb 40 bd
       0.016133914 0.022824448 -0.024113338 -0.047099985
000170 64 0c 54 3d 0c 1e 50 bd 9f 44 f1 bc 95 bd 49 3b
       0.05176963 -0.050809905 -0.029451666 0.0030783166
000180 b4 da 17 bc 23 c5 f4 3c 49 0f 2a 3d d0 68 25 bd
       -0.0092684515 0.029879158 0.041518483 -0.04038316
000190 73 1d 0a bb 55 89 f8 bc 40 a7 92 bc e1 7a 3e bc
       -0.0021074682 -0.030338923 -0.017902017 -0.011625976
0001a0 8e 49 42 bd c9 d9 16 bb 91 08 b5 3c fd f3 03 bd
       -0.04743343 -0.0023017994 0.022098811 -0.032215107
0001b0 6c 72 42 3d fa 76 9e 3c a4 04 b0 3c 77 b1 32 3c
       0.047472402 0.019343842 0.021486588 0.010906569
0001c0 97 50 bb bc ab 23 5b bd 8d f9 12 3d 5f e7 70 bd
       -0.022865577 -0.053500813 0.03588252 -0.058814403
0001d0 a5 d8 23 bd 05 f6 0c 3d 97 7b b8 bc 74 c6 b9 ba
       -0.04000153 0.03441431 -0.02251987 -0.0014173524
0001e0 22 41 65 3d 29 d6 3c 3d 97 f3 d2 bc b5 e0 7a bc
       0.05597032 0.046102677 -0.025750918 -0.015312363
0001f0 82 34 1a bd 9d b9 58 bd 14 17 a0 3c 1f c5 24 bd
       -0.03764773 -0.05291139 0.019542255 -0.04022705
000200 5f 36 42 bd d3 54 50 bc 56 16 2a 3d 79 3f 41 bd
       -0.047415134 -0.012715536 0.041525207 -0.047179673
000210 d0 79 18 bd 92 e9 27 bd 09 60 29 bd e2 5a 52 bd
       -0.037225544 -0.040994234 -0.041351352 -0.051356204
000220 b1 d4 3f 3d 75 61 4e bd c2 2a 09 3d 89 c7 1d 3d
       0.046833698 -0.05038591 0.033488043 0.03852037
000230 12 4e 73 3c 54 e6 0c bd 9a c0 3a 3d a6 66 1d bd
       0.014850156 -0.034399346 0.045593835 -0.03842797
000240 62 35 e1 ba 9c 25 25 bc 69 dd 4c bc a2 3b 44 bd
       -0.0017182047 -0.010079768 -0.01250396 -0.047908433
000250 05 6d 09 bd bc 65 87 3a ac 9c 7f bb 0e 92 d3 bb
       -0.033551235 0.0010330002 -0.0039003296 -0.00645662
000260 1e ea ef bb fb de 3e bd 12 e1 77 bd 47 54 cc bb
       -0.00732161 -0.04659937 -0.06051738 -0.0062356326
000270 a8 61 5f 3c 5b ac 10 3c 4c a3 aa bb 28 16 23 3d
       0.013634123 0.008830155 -0.005207455 0.03981605
000280 7a bf 63 bd d4 e6 e6 bc 3e b9 ea 3b 86 26 1e bd
       -0.05560253 -0.02818624 0.007163196 -0.038610958
000290 11 34 52 3d ba b1 16 bd 61 1b 18 bd e5 71 3b bc
       0.051319186 -0.036790587 -0.037135486 -0.011440729
0002a0 db 3e 3c bd 86 1e 13 ba 3d d7 7b bd 3a ad 6c 3d
       -0.04595838 -0.00056121533 -0.061484564 0.05778239
0002b0 7d 8e da 3c e3 b0 fe bc cd 94 d6 3b f7 e1 7b 3d
       0.026679272 -0.031090206 0.0065485 0.061494794
0002c0 65 1f 22 3d df e1 9b 3c 0e e7 09 bc 35 75 fc 3c
       0.03958072 0.019028602 -0.008416904 0.030817607
0002d0 df d0 4f bc 3a a4 9b bc c5 c7 5a 3d 32 77 23 3c
       -0.012684076 -0.018999208 0.05341317 0.009977149
0002e0 4c a1 62 3d 44 6c ab bb 4c 78 df 3c a1 be 3a bd
       0.055329606 -0.005231412 0.027279042 -0.045591954
0002f0 cb db 4f bd 39 f0 d9 bb 03 d0 8f 3c 65 bd f4 bb
       -0.05074672 -0.006650951 0.017555242 -0.0074688667
000300 bb af 34 bd f0 ad 44 bc 50 f3 33 bc 65 5a 64 bd
       -0.044112902 -0.012004361 -0.010983303 -0.05575027
000310 6b 38 25 bd 79 70 37 bd 8d f0 81 3d 2f d8 00 3d
       -0.040337007 -0.044784997 0.063447095 0.03145617
000320 38 e1 47 bd f0 6f e7 bc 63 e4 8b bb 9a 1d 44 3c
       -0.04879877 -0.028251618 -0.004269169 0.011969948
000330 49 1e 5f bd 31 46 d8 bc 1d 15 a2 3c d8 8c 03 3d
       -0.05447224 -0.026400657 0.019785458 0.03211674
000340 33 a0 3d 3d d3 0a db 39 57 e7 42 bc d7 9c fe bc
       0.046295356 0.00041779 -0.011895976 -0.031080646
000350 10 c0 d1 3b b8 fa 0f 3d 86 3f 02 bd 4b dc 70 bc
       0.0064010695 0.035151213 -0.031798862 -0.014700959
000360 2e 59 48 bb b8 87 63 3d 5f 31 41 3d 00 46 36 bd
       -0.0030570733 0.055549353 0.047166225 -0.04450035
000370 1f 3a 28 bd 69 d3 38 bd a0 ea b2 bc a6 96 25 bd
       -0.041071054 -0.04512349 -0.021840394 -0.040426873
000380 01 71 c9 bc a0 af cf 3c 82 04 37 bd 04 02 3e bd
       -0.024590017 0.0253523 -0.044682033 -0.04638864
000390 ee 56 23 3d c8 e1 f9 3c 29 25 bd 3c 7b 20 c7 3c
       0.039877824 0.030503169 0.023089008 0.02430748
0003a0 44 8c 5f bd 77 a0 82 3c 2e 14 30 bc 64 dd 47 bd
       -0.054577127 0.015945656 -0.010746999 -0.04879512
0003b0 13 82 06 3d 20 67 57 3d c3 ed 46 bd 4e ba 67 bd
       0.032838892 0.052588582 -0.04856659 -0.05657416
0003c0 f7 5e 22 bd 52 c0 14 bd 9d 07 1a 3b 9a b1 4f bc
       -0.039641347 -0.036316223 0.0023503073 -0.012676621
0003d0 bf fb 49 bd ee 99 68 3d c7 8f 31 bd 02 6d ba 39
       -0.04931235 0.056787424 -0.043350007 0.00035557902
0003e0 40 d1 4e 3d fc 4d 2f 3d
       0.050492525 0.04279898

2.weight f4 [1, 250]
000000 16 44 5f 3b de 71 72 3d 2c c7 2c 3d d3 52 de 3c
       0.0034067682 0.059190623 0.042182133 0.027139103
000010 69 1a a3 3d 5c 65 82 3d 1e c4 89 bd 70 87 83 3d
       0.07964022 0.06366989 -0.067268595 0.06422317
000020 54 22 35 bd 22 b6 48 3d 05 b7 37 3d 3f 31 f4 bc
       -0.04422219 0.04900182 0.044852275 -0.029808639
000030 d2 58 68 bc 7c eb 62 3d a5 7d 43 bd e3 7b 1d bd
       -0.014181333 0.055400357 -0.047727246 -0.038448226
000040 b4 ff c5 3b 71 1d 8b bd 40 bc a1 bc 3c c6 5c bd
       0.006042445 -0.06792725 -0.019743085 -0.05389999
000050 67 12 19 bc 62 84 db bc 61 4a de bc bf 1f 8f bb
       -0.009342766 -0.026796523 -0.027135076 -0.004367798
000060 cd ce c1 3d 61 c2 f8 3c 34 5f 63 39 b8 23 66 bd
       0.09463272 0.030366125 0.00021683873 -0.056186408
000070 94 23 e0 3c 1c d4 86 3d c0 91 df bc a1 7a ac bc
       0.027360715 0.065834254 -0.027291179 -0.021054568
000080 54 19 39 bd 75 b8 df bc 82 33 99 3c cc 02 40 3d
       -0.04519017 -0.027309636 0.018701319 0.046877667
000090 b1 65 86 bb e3 ff a9 bb 68 44 55 3d 86 ea 57 3d
       -0.004101478 -0.005187975 0.05206719 0.052713893
0000a0 d9 36 8b bd f8 b9 e1 bc 58 5e 46 3d c7 d3 d2 3c
       -0.06797571 -0.027554497 0.048429817 0.025735749
0000b0 7c 88 03 3d 5c 6e a7 3d 74 bd d8 bd fc a8 f2 3c
       0.032112584 0.08175346 -0.1058301 0.029621594
0000c0 fb 74 9f 3d 3a 7b 4a bb 2f 5a a3 bd e1 d1 41 3d
       0.07785984 -0.0030896203 -0.079761855 0.047319297
0000d0 94 62 3a bc 5c c2 02 bd 74 e4 53 bd 54 fe a6 3c
       -0.011376042 -0.031923637 -0.05173154 0.020384945
0000e0 31 4d 3e 3d 9c c6 94 bd 26 e4 4d 3b cc 22 2b 3d
       0.046460334 -0.07264444 0.0031416505 0.04178123
0000f0 a9 80 81 bc 4c ec 8a bd bf 4e 67 bd 69 48 4b bd
       -0.01580842 -0.06783351 -0.056471583 -0.049629603
000100 31 09 37 3d 3c 5f 79 b9 65 76 08 bd c7 eb 87 bb
       0.0446865 -0.00023781968 -0.033316035 -0.00414798
000110 a3 c6 48 3d 17 4b 66 3d d3 b6 82 3c 76 cd d4 3c
       0.04901756 0.056223955 0.015956318 0.025976878
000120 1d 3e 5e 3c 6a 7b 56 3d 86 95 dc 3d 9b ff 45 3d
       0.013564614 0.05236379 0.10770707 0.048339467
000130 dc b6 2d bd 5b 53 1c 3d e3 06 9c 3d d8 a6 f4 ba
       -0.042410716 0.03816543 0.07618501 -0.0018665446
000140 fc 02 40 3d 73 fc 4c bc dc 36 11 bd 9b 9d 11 3b
       0.046877846 -0.01251136 -0.03545271 0.0022219184
000150 6b ff 27 bc f5 c7 0a bd 95 e4 96 3c b5 87 ff 3c
       -0.0102537675 -0.0338821 0.018419543 0.03119264
000160 62 86 30 3d 5d e0 f0 bc 2c b9 45 bd 42 9a 86 bd
       0.043096907 -0.02940386 -0.048272297 -0.06572391
000170 60 59 34 3d 06 91 2c 3d e9 ec 8d 3c 84 3e 19 bb
       0.044030547 0.042130493 0.017324882 -0.002338321
000180 31 20 6a 3d 4c 4c 85 3d fc 0c c4 3d e1 08 31 3c
       0.057159606 0.06508693 0.09572789 0.01080534
000190 79 b3 8c bd f5 27 ad bc 91 28 84 bd 4f 7e a2 bc
       -0.06870169 -0.021137217 -0.0645305 -0.01983562
0001a0 9e ab 77 bd 11 f7 22 bd bd b9 1c 3d 64 19 39 bd
       -0.0604664 -0.039786402 0.03826307 -0.04519023
0001b0 a7 f2 85 bc 20 fc 78 bd 8c a8 91 bd 6a 5c ba bc
       -0.016351057 -0.06078732 -0.07112226 -0.022749145
0001c0 24 f9 9e 3c b6 ae 0a 3d 8c a2 7d bd 43 5e c3 3c
       0.019405909 0.033858024 -0.061922595 0.023848658
0001d0 bf b7 94 bd be eb 6d bd 83 2c aa 3c 87 ab 82 3d
       -0.07261609 -0.05808615 0.020773178 0.063803725
0001e0 69 b7 28 bc 46 78 16 3d 8c f9 e3 3a c2 70 a2 3d
       -0.010297635 0.036735795 0.0017393096 0.07931663
0001f0 93 e2 49 3d 6f 7d 97 bc c3 6c aa bc 2b 2d b3 3b
       0.049288344 -0.018492429 -0.020803815 0.005468031
000200 86 da 3b bd 42 2d a4 bb 95 2f 75 3d 88 b1 a7 3d
       -0.045862697 -0.005010278 0.05985983 0.08188158
000210 b0 0d c0 bc f7 e2 0c bd 76 5b 0b bd 38 e6 3c bd
       -0.023444027 -0.034396138 -0.03402277 -0.04611799
000220 18 d4 a8 bc 2f 8e 95 3d 21 f1 87 3c af 81 d9 3a
       -0.020608947 0.0730251 0.016594471 0.0016594435
000230 da 78 87 bd 38 d6 7e 3d 06 30 2d 3d ee 86 98 3c
       -0.066148475 0.062216014 0.042282127 0.018619027
000240 72 f4 09 3d 60 f0 c4 bc c9 ac c0 bc 3e 2d 41 3d
       0.033680387 -0.024040401 -0.02351989 0.047162287
000250 55 ed 69 bc 44 5c ce 3b 13 db 84 bd dd 9c 77 3c
       -0.014277776 0.00629762 -0.064870976 0.015113083
000260 74 fe 97 3d a5 d3 39 3d 52 d3 80 bd cd 51 38 3d
       0.0742158 0.045367856 -0.06290306 0.044999886
000270 3c cf f9 bc 32 e5 0e bd a4 5d 44 bc 24 c9 81 3d
       -0.030494325 -0.034886546 -0.011985216 0.06337193
000280 aa 2e 08 3d f7 d4 98 3d b2 05 dc 3c 24 49 11 bd
       0.033247627 0.07462495 0.026858184 -0.035470143
000290 37 7a be bc 72 1e 97 3d 52 d0 87 bd 51 6b 80 3d
       -0.023251636 0.07378854 -0.06631531 0.06270469
0002a0 b8 2d 9c bd 5b 8b 93 3d f8 39 98 3d f1 c9 40 bd
       -0.07625908 0.07204314 0.07432932 -0.047067586
0002b0 04 25 22 3d 3b 0d 83 bd fd 2a 0b 3d 52 91 29 3d
       0.039586082 -0.06399008 0.033976544 0.041398354
0002c0 a9 1f 4e 3d b7 d5 a0 bd db e4 98 bd c8 4b 49 3d
       0.050323162 -0.07853263 -0.07465526 0.049144536
0002d0 14 cd 36 3d 21 76 eb bb 68 be 6d bd 4c 59 9c 3d
       0.04462917 -0.007185713 -0.058042914 0.076342195
0002e0 c0 c1 92 3d f6 a2 dd 3a bb 2a 71 3d 8d f7 94 bc
       0.07165861 0.0016909528 0.05887864 -0.018184448
0002f0 d1 3e c9 3c 50 f4 67 bd 89 a1 3c bd 40 47 dc 3b
       0.024566086 -0.05662948 -0.04605249 0.006722361
000300 98 36 aa bd 05 6f 92 bd 4a 0b 2c ba 6a 00 ab bb
       -0.08311194 -0.071500815 -0.00065629615 -0.005218555
000310 07 6a 01 3b 92 bb 8d bc 67 a7 be bc 71 42 96 bd
       0.0019747035 -0.017301355 -0.023273183 -0.073368914
000320 b4 39 09 3c e2 37 4a 3d 5f 31 26 bd f2 b0 9a 3d
       0.008375574 0.0493697 -0.040574428 0.07553281
000330 0c 3e ca bd 4f 9c 69 3c 06 5d 8e bc 31 42 b4 bc
       -0.09875116 0.014258458 -0.017378341 -0.022004219
000340 e8 48 9c 3d c2 b9 9e bc d6 73 ac 3c c6 34 d5 3c
       0.07631093 -0.019375686 0.021051329 0.02602614
000350 2d a7 40 bd 1e 3c 2f 3d 29 bf 0e bd f2 6e da 3c
       -0.04703443 0.04278194 -0.034850273 0.026664231
000360 f7 a3 b1 3d f5 8d b8 bd 89 c7 50 bd fa 27 f1 bb
       0.08673852 -0.09011451 -0.05097154 -0.007359502
000370 f1 2a 66 3d f5 e0 95 bc 72 fb 3d 3d eb ad 36 bd
       0.056193296 -0.018295744 0.046382375 -0.044599455
000380 42 85 12 bb ce af 4b 3d a3 1b ad bc 71 6e 29 3c
       -0.002235726 0.049728207 -0.021131342 0.010341273
000390 db 48 39 3d 00 f0 82 bd 25 df 48 3d 4a 46 88 bc
       0.045235496 -0.063934326 0.049040932 -0.016635079
0003a0 3a 12 2c 3d 71 e6 35 bc db 9b 81 3d c8 dd 70 bc
       0.04200957 -0.011102305 0.06328555 -0.014701314
0003b0 45 79 b4 bd 5e ac 3a bd 4e a0 a3 ba 54 5d 19 bc
       -0.08812193 -0.04557454 -0.0012483688 -0.00936063
0003c0 36 4b ef 3c ed d4 a1 3d 6b 43 8c bd 11 4b 6f bd
       0.029210668 0.079019405 -0.068487965 -0.0584212
0003d0 9b 2d 39 3c cc 0d 8f bd 29 c6 c0 3c 07 c3 05 bd
       0.011302377 -0.069850534 0.02353199 -0.032656696
0003e0 f8 e3 b3 3c 4c fe 06 3b
       0.02195929 0.002059835
