Backgammon2/exported_networks/nn_best_model.pt (torch_old, 718120 bytes, 5 tensors)

0.weight f4 [250, 464]
00000000: 0b56 2dbd e8cd 74bc 26e3 bb3c dc87 503c
00000010: 0e4d cd3c aeb0 8b3c b5a9 0f3d 185f b1bb
00000020: 447a 2bbc dc03 6dbc 4814 45bc ea65 f63c
00000030: 58bb eabb 8098 c9bb 0d4b 31bd ca58 03bd
00000040: d291 cc3b c888 cdbc 17ba e23c ba8b 893c
00000050: 0288 123d 2908 8e3b 1cba 583c b5e6 fabc
00000060: 12bc 1e3c faab 24bd caf4 0abd 5046 e0bb
00000070: b0d9 a9bb 802d 8ab9 89d4 103d 5ba1 11bd
00000080: 7964 3cbd b618 1fbd fa33 debc 8767 72b9
00000090: 6dd4 043b b321 e7ba 4651 85bc f1b1 b33c
000000a0: d6d5 30bb 16cf 37bd 1c30 24bd 4033 efbb
000000b0: a032 453c 2407 693c 9fdd 193d c8f1 743c
000000c0: a43e 8cbc e32c dabc 5a0d ba3c 2736 313d
000000d0: 5d39 31bd c4f1 92bb 10e2 25bc fb89 353d
000000e0: 18b6 29bd 2a08 0cbd c0b2 3bbc 8a14 29bd
000000f0: e898 793c 9138 333d 7cef 5ebc 1d89 0cbd
00000100: 57f0 123d c62c 34bd 8d30 c6bc 9e13 3cbd
00000110: 2e06 21bd a7a7 fb3c fe25 f33c 2d17 14bd
00000120: 0b7d ecbc 0290 0fbd fe7d eb3c 4dbd 2a3d
00000130: 1877 0c3c fce5 03bd 347c 3e3c 467d ab3c
00000140: 4aaa 213c 9c64 bbbb 5e0e b43b 11c7 bdbc
00000150: 2908 233d 2c2b df3c a7e8 0f3d 2438 16bc
00000160: a84c 64bc e489 73bc f811 2cbd d29a b63c
00000170: 9c29 64bc 2006 8c3a abd8 183d 517c 313d
00000180: 05b7 9abc 7085 84bc 67e0 e1bc 32d9 883c
00000190: 10db 16bd 87cb 383d e713 3a3d 00ea 7db9
000001a0: 3091 e8bb cbd4 033d b0e5 3bbb 10d5 f4bb
000001b0: 0187 363d b660 8a3c a882 afbb 00ea e739
000001c0: 52a1 f53c 7460 05bd 115e 143d d487 24bd
000001d0: b224 28bd 0ee9 17bd d322 0a3d da60 f73c
000001e0: d60b f53c 2cae 6e3c 68d3 ccbb 4848 5c3c
000001f0: bb2d 093d 3089 06bd 2092 993a beaf 913c
00000200: 826e 143d b4ff 00bd b6dc 6c3c ae5d de3b
00000210: 2a4e 9a3c 483e 94bb 80a5 ebb9 0e77 e63c
00000220: f0ff d9bb 78bc 6dbc dc48 3fbc 2e24 0dbd
00000230: df60 37bd 373f 83bc c955 2b3d a8b4 f93b
00000240: 85f8 99ba 6441 18bc bd17 9b3b 4365 cabb
00000250: 3396 1a3d 987a ecbc c90a 123d a1e5 333d
00000260: 9fe3 f5bc 9e0d f2bc 1682 ac3c 3e29 ac3c
00000270: 2473 2abd 4e20 bf3c 1552 05bd b1c3 b6bc
00000280: b6bf 9c3c 7439 1e3d fa02 ec3c f8d4 81bc
00000290: 40d3 cbba ac75 7ebc 054c 2a3d c04f 3d3c
000002a0: fa02 e13c 50d6 033c 4084 3c3a 5a5e dd3c
000002b0: eb66 273d 0735 10bd 9f15 1a3d d8a3 ffbc
000002c0: c512 263d 8008 0cbc 3129 1b3d a1cb 023d
000002d0: 9e5d b23c 48d6 f73b b04c e4bb e671 23bd
000002e0: 10cb 0cbd 3836 b1bc 69ff 1a3d 967f f93c
000002f0: 7fb8 08bd 04f7 4ebc 457c 1fbd 0363 e4bc
00000300: 2f2d 1f3d 9369 3c3d d021 02bd 0135 153d
00000310: 471d 253d ca42 d93c ad93 153d 61f7 063d
00000320: 2b82 83bc 681c 98bc cbd6 b0bc 37f5 183d
00000330: 1321 3d3d 569c e53c 67ce adbc 45a9 1d3d
00000340: cfc3 963c 5e7d 723c 48f0 4b3c f4e5 193d
00000350: 92d5 92bc d0d9 43bc 0f3f 303d 1ba7 abbc
00000360: d80f 9dbc 50cc 0fbb 904c 89bb 80d4 003a
00000370: a0d4 a8bc 82d4 33bd 6bfc 05bd 0c60 763c
00000380: 79e4 c5bc 1b68 e6bc 5f5a 153d b160 303d
00000390: 9915 253d 25df 043d a4e4 78bc 1e05 cf3c
000003a0: 3fc8 2a3d 7833 e23b ce95 ea3c 4686 11bd
000003b0: cb29 e6bc db82 153d bb53 003d b26c bc3c
000003c0: c15e 183c de87 80bc ebaa 103d 70e6 6fbb
000003d0: f82d 25bc 305b 2cbc 66f7 843c 36ef ba3c
000003e0: e6e9 32bd 6950 203d d62e 38bd d908 18bd
000003f0: a0a6 393c 91ec abbc 96e0 23bd 36a6 34bd
-0.042318385 -0.01494167 0.022935461 0.012727704 0.025061157 0.01705202 0.035073955 -0.0054129474
-0.010466162 -0.014466252 -0.012028761 0.030077893 -0.0071634464 -0.0061522126 -0.043284465 -0.032067098
0.006242969 -0.025089636 0.027676625 0.01679026 0.03577424 0.004334469 0.013227966 -0.030627588
0.009688394 -0.040203072 -0.033924855 -0.0068443194 -0.005183421 -0.0002635531 0.03535894 -0.03555427
-0.045994256 -0.038841926 -0.027124394 -0.00023117485 0.0020268217 -0.0017633945 -0.016274106 0.021935435
-0.0026982925 -0.044875227 -0.040084943 -0.0072998106 0.012035996 0.014222894 0.03756487 0.014950223
-0.017119713 -0.026632732 0.022711445 0.043264534 -0.043267597 -0.004484387 -0.010124698 0.04432104
-0.041433424 -0.034187473 -0.011456192 -0.041279353 0.01523421 0.043755118 -0.013606902 -0.03431045
0.035873737 -0.04398801 -0.024193073 -0.045917146 -0.039312534 0.030719591 0.029681202 -0.036154915
-0.028868219 -0.035049446 0.028746601 0.041684438 0.008573316 -0.032201752 0.011626292 0.020933758
0.00986726 -0.0057187807 0.0054948768 -0.023166211 0.039802704 0.027242266 0.035133984 -0.009168658
-0.013934292 -0.014864419 -0.042009324 0.022290621 -0.013925936 0.0010682978 0.037316006 0.043331448
-0.018886099 -0.01617691 -0.027572824 0.01670513 -0.036830008 0.045115974 0.045429137 -0.00024215132
-0.007097386 0.032185357 -0.002867084 -0.007471688 0.044562344 0.016891818 -0.0053561516 0.00044234097
0.02998415 -0.032562688 0.03622252 -0.0401686 -0.04105062 -0.037087493 0.033724617 0.03019755
0.02991287 0.014567893 -0.0062507875 0.013444968 0.033490878 -0.032845676 0.0011716522 0.017783996
0.0362382 -0.031493858 0.014456918 0.00678607 0.0188361 -0.004524026 -0.00044946 0.028132942
-0.0066528246 -0.0145102665 -0.011675086 -0.03445833 -0.044770118 -0.016021354 0.041829858 0.007620413
-0.0011747038 -0.009292934 0.0047330544 -0.006176622 0.037740897 -0.028867051 0.035654817 0.043920163
-0.030015765 -0.029547509 0.021058124 0.02101576 -0.041613713 0.023330834 -0.032548983 -0.02231011
0.019134384 0.03862901 0.028810013 -0.015848622 -0.0015550628 -0.015530985 0.041576404 0.011554658
0.02746724 0.008046702 0.00071913376 0.02702253 0.040869635 -0.03520682 0.037618276 -0.031206056
0.040545244 -0.008546948 0.03788108 0.031932477 0.021773156 0.007563386 -0.0069671497 -0.039903544
-0.034373343 -0.021632299 0.037841234 0.030456346 -0.033379074 -0.012632135 -0.038936872 -0.027879244
0.03886145 0.04599912 -0.031770527 0.0364275 0.040311124 0.026521105 0.036517788 0.032950763
-0.01605328 -0.018568233 -0.021586796 0.03734323 0.04617412 0.028028648 -0.021216584 0.038491506
0.018403916 0.014800398 0.012447424 0.037572816 -0.017924104 -0.011953786 0.043028887 -0.020953706
-0.019172594 -0.0021941848 -0.004190035 0.00049144775 -0.0206092 -0.043903835 -0.032711428 0.015037548
-0.024156796 -0.028125813 0.036463138 0.043060962 0.0403038 0.03243937 -0.015191231 0.025270995
0.041694876 0.006903108 0.028635886 -0.035528444 -0.0280961 0.036501747 0.03132985 0.023001049
0.009299935 -0.015689787 0.03531925 -0.0036605857 -0.010081761 -0.010519788 0.01623125 0.022819143
-0.043680094 0.039139185 -0.04496654 -0.037117813 0.01133123 -0.020986827 -0.040009104 -0.044103824

0.bias f4 [250]
00000000: a71f cebc 64cc 193c beb0 2e3d ca54 7dbc
00000010: 3d2b 3a3d 788b 5c3b d3de 1cbd 0381 1ebd
00000020: 6857 35bb 9490 cfbc 126f c23b d3f9 5e3c
00000030: 9e95 c9bc a613 1cbd b029 a1bc 13dd d7bc
00000040: f36f b539 6be5 b43c 421e 213d 3000 c6bc
00000050: 827e 213d cbb6 1fbd 34b7 833c c87f 85bb
00000060: b352 113d 05b1 aebc 2baa 393c c013 8dbb
00000070: 37e7 333d 7eb3 2b3c 95a7 e63c b4c6 183d
00000080: 78d5 25bc dcf1 e93c 1c46 2d3c 2c8d cabc
00000090: 8ead 923b 7cee 69bc 24de 29bb 7878 fa3a
000000a0: a555 94bb 9361 323d 9fed 833c 9d4c 153d
000000b0: 33d3 c1bc 9a4c 1f3d 9283 8dbc 89a4 9a3c
000000c0: cc85 cebc b3d4 c63c a311 c1bc 7dbe 13bd
000000d0: b33b cfbc 0db4 ae3c c702 b63c a7d0 1fbd
000000e0: d0f1 88bc 3103 30bd f913 6bbc 6d96 2fbd
000000f0: 9a61 61bb dc39 dc3c 89b8 123c 1373 5b3c
00000100: 5b62 b1bc 33a1 fdbc b813 88bc e0d3 3c3d
00000110: 3b3b 7b3c f09e c5bc 23b4 423c 3458 26bd
00000120: ea81 abbc 7136 06bd 3039 f8bc 4731 2c3d
00000130: af3f 0e3d a9c5 213d b250 233c e2ba 27bd
00000140: cca8 51bc bb5c 0abd baba ac3c 8bae 28bd
00000150: 63ef 1e3b 60e3 083d d8ce 873b 654f 3b3d
00000160: c426 19ba da8a dbbc 20b9 0d3d 73a5 d63c
00000170: 50b4 763c d414 16bd 90b9 d43c f5f8 063d
00000180: a6ba 883c c4d1 21bc f848 2bbd 9682 3a3d
00000190: e216 bc3c 5c5c d73c 6b2f 07bc b355 3cbd
000001a0: 5cb5 d13b 27dc 0fbd 9e1d c33c 7f62 23bb
000001b0: 89b0 b3bc a494 e5bc cfda f23c 6a04 3cbb
000001c0: 705b 153c 711a 78bb 80b1 1cbc 6213 1dbd
000001d0: 16a7 b8bc 6cdb 1e3d 8180 cd3b 2411 313c
000001e0: dac9 273d 74c4 143d 3035 8b3c a100 f63c
000001f0: fba2 b1bb 9074 a6bb 4a96 953b 1a8f ee3c
00000200: 5fdf 7f3c 0877 373d 4e77 333c e7ce 093d
00000210: c10b 3b3d 3a54 233d f931 17bd e45f 24bc
00000220: 22f0 11bb 8d5c b53a 56fb 5e3c 770a 393d
00000230: d771 06bd dbe6 3e3c aef8 5bbc cd9e 43bb
00000240: d092 e33b a6d2 4dbb e353 02bd c655 103d
00000250: 0c42 3b3d b704 193d 32c9 8bbc 44ac 203d
00000260: 610f 36bd f496 013c 20be 04bc 1d67 9c3b
00000270: 0e5c b7bc f9b2 33bd 02f7 05bc 60b1 253b
00000280: 93bc cfbc 919b 9b3c 1f61 063c 7854 b8bc
00000290: 0aa4 a23c a2c2 a23c 2f6d cfbc 1456 543c
000002a0: 3fec 483c 8fe7 a3bc ca13 193d f1d8 efbb
000002b0: 80d1 073d e3bd c2bc 7c78 1abd 38b8 8cbc
000002c0: 5174 f7bb ade9 2b3c 6cfc 11bd 116e 703b
000002d0: 190b 31bd 1ae1 00bd 1547 1cbd adce 9dbc
000002e0: 118f f23b 3159 3bbd a6e7 07bc a69e be3c
000002f0: 7e11 f5bb 072c 43bb 3143 30bd c631 fabc
00000300: 1062 b03c 111a 813c bac3 c3bc 7b24 db3c
00000310: 61ba f53b 3b9a 073d 3fe0 d1bc d185 1dbd
00000320: 273e 08bd 5b2c 1fbd 32a9 dd3c 133f ddbc
00000330: 8dae 303d 503b 363d 6b83 febc 7d34 fe3c
00000340: f705 b9bc 9fe7 3d3d c618 13bd 76ee 163d
00000350: 0e9c 00bd cfd7 94bc 9e39 05bb ff44 c0bb
00000360: 23a6 fabc c7be 423c a5ea d43c 72df 1f3d
00000370: c4fa 963c 029d dcbb 985d 17bd 0ad5 80bc
00000380: c8f3 b2bc 49a2 1dbc 64a7 00bb ad92 113d
00000390: 80cf 7e3c 061b 9abc cb93 24bd 17b1 14bd
000003a0: 9011 36bd de25 25bd d9be 29bc ee29 78b8
000003b0: 604b ddbc a408 033b 4f78 183c 635d d7bb
000003c0: a8e6 6fbc 36bf e93c a590 af3c 335b 323d
000003d0: 0cc1 a23c 3f63 343d 61e4 36bd 1304 ba3c
000003e0: eb7c 313d 1388 b8bc
-0.025161577 0.009387109 0.042649023 -0.01546211 0.04545139 0.0033652466 -0.03829844 -0.038697254
-0.0027670506 -0.025337495 0.005933651 0.013609367 -0.024607476 -0.038104676 -0.019673198 -0.026350534
0.0003460642 0.022082051 0.039335497 -0.024170011 0.039427288 -0.038992684 0.016078569 -0.0040740706
0.03547926 -0.021324644 0.011332075 -0.004305333 0.043921676 0.010479806 0.028156081 0.037298873
-0.010121696 0.02855771 0.010575797 -0.02472552 0.0044762557 -0.0142780505 -0.002591976 0.0019109389
-0.004526811 0.043550085 0.016104518 0.036450017 -0.023660278 0.038891412 -0.017274652 0.018877285
-0.025210284 0.024271345 -0.02356798 -0.036070336 -0.025297021 0.02132609 0.022218121 -0.039017346
-0.016716868 -0.042971794 -0.014348024 -0.042868067 -0.003439045 0.026883058 0.008955129 0.013394135
-0.021653345 -0.030960655 -0.016610965 0.046100497 0.015333946 -0.024123639 0.011883768 -0.04061146
-0.020935971 -0.032766763 -0.030300707 0.042039182 0.034728702 0.039495144 0.00996797 -0.04094971
-0.012796592 -0.03377984 0.021085132 -0.041182082 0.0024251572 0.033419967 0.0041445307 0.045730013
-0.00058422633 -0.026799608 0.034600377 0.02620194 0.015057638 -0.036640957 0.02596739 0.032952268
0.016690563 -0.009876672 -0.041817635 0.045534693 0.02296013 0.026289158 -0.008251051 -0.045980167
0.0063997936 -0.035122063 0.023817834 -0.0024930534 -0.021934764 -0.028024979 0.029645352 -0.0028689154
0.009116039 -0.0037857557 -0.009563804 -0.038348563 -0.02254061 0.038783476 0.0062714224 0.010807309
0.040963985 0.036320165 0.016993135 0.030029597 -0.00542104 -0.0050798133 0.004565035 0.02912097
0.015617221 0.04479125 0.010953737 0.033644583 0.045665506 0.039875247 -0.036912892 -0.010032628
-0.0022268374 0.0013836786 0.013609728 0.045175996 -0.03282341 0.01165172 -0.013425989 -0.0029849291
0.0069449916 -0.0031406074 -0.03181828 0.03523805 0.045717284 0.037358012 -0.01706371 0.039226785
-0.04444826 0.007909525 -0.00810197 0.0047730342 -0.022382762 -0.043871854 -0.008176567 0.0025282726
-0.025358474 0.018995078 0.008201866 -0.022501215 0.01985361 0.019868199 -0.025320617 0.012959976
0.012263357 -0.020007877 0.037372388 -0.0073195626 0.03315878 -0.023772186 -0.03771256 -0.017177686
-0.007551708 0.010492724 -0.03564112 0.0036686698 -0.043223474 -0.031464674 -0.038153727 -0.01926359
0.0074023088 -0.045739356 -0.008294975 0.023269009 -0.007478892 -0.002978088 -0.04303283 -0.030541312
0.021531135 0.0157595 -0.02389704 0.026750794 0.0074990247 0.03310607 -0.025619624 -0.038457695
-0.033262398 -0.03886066 0.027058218 -0.027007615 0.043135215 0.04449016 -0.031068524 0.031030888
-0.022585852 0.04636347 -0.035912298 0.036848508 -0.031398825 -0.018169312 -0.0020328532 -0.0058676
-0.030596798 0.011886305 0.025990793 0.039031453 0.018430121 -0.006732584 -0.036954492 -0.015726585
-0.02184476 -0.009621211 -0.0019631023 0.03554027 0.015552402 -0.018811714 -0.04018001 -0.0363017
-0.044450343 -0.040319316 -0.010360443 -5.9166858e-05 -0.02701348 0.0019994164 0.009306028 -0.006572412
-0.014642395 0.02853356 0.021431277 0.043544006 0.019867443 0.04403996 -0.044651393 0.02270702
0.04333202 -0.022525823

1.weight f4 [250, 250]
00000000: 8f70 a13c 2d63 e7ba 6e8d 8d3c 4a18 1ebc
00000010: e2fc d93c 5ad1 48bc eac4 e6bc d690 ebbc
00000020: a464 393c d42c 5f3c 7a22 09bd 5cea 4ebc
00000030: de5a 483c 4523 1a3d bd6d 883c 9f00 7a3d
00000040: 85c9 7f3d 356a 4c3c 4456 90bc da87 2d3d
00000050: 7904 2abc d614 2cbc 5532 833c de08 69bd
00000060: 4aae d2bc f692 753d a4e1 31bd 7106 ea3c
00000070: 5bc5 613d 250d 093c 813b fe3c b609 ae3c
00000080: ded4 7dbd b4d5 c73a 2f20 44bd 4fec 6e3c
00000090: 193f fc3c d61e fbba 0ef9 983b 8f29 feba
000000a0: 5fec 58bd 33c1 af3c 00e9 9a3c 94c5 acbb
000000b0: b3d8 7d3d 6b4d 2d3c 7305 693d 06e2 123d
000000c0: 1ef7 2abd 8372 843c 4086 b33c 536a 463c
000000d0: 83d0 99bc 1726 ea3c c856 57bd ad84 0abd
000000e0: 4f0f 00bd a1eb 673d 206b babc 17f8 28bc
000000f0: 895b 14bd d451 6fbb cd03 5b3d f8b8 773d
00000100: af00 513d f7c2 113d 8a4e 553d 5d1b 4bbd
00000110: b922 55bd 0713 71bc 6898 d03a 8dd0 333a
00000120: 37f9 3b3d 09cc 133c e460 df3b 120d 173d
00000130: 7627 193d 10bc b7bc 0a48 7b3d 233b 833c
00000140: 65d2 4abd 3643 55bd ec53 533d b072 ef3b
00000150: 8377 c43b a715 203d 496c 33bd 0781 4dbc
00000160: c1c2 5c3a 2783 b03c a94f 6cbd 7c07 213d
00000170: 5c25 ba3b 7a25 8ebc 826f f6bc 52df 493d
00000180: 7ad7 fb3c b4f4 363d 114c 7dbd 42d7 0c3c
00000190: 91ee 17bb aef3 183c 61c4 573c ceb4 ee3c
000001a0: 6ef8 993c d345 34bd 4842 6c3d daff 873b
000001b0: 16dc 3e3d 15da 9cbc 2a50 babc c1a9 8c3c
000001c0: 8d21 203c 2159 db3c 6f60 20bd 77c6 533d
000001d0: d5e1 1bbd 8753 7f3c 5288 6fbc f657 ae3c
000001e0: 0ea3 073d ca9f 28bc d070 013c 4201 24bd
000001f0: 604d 17bc f785 433d 1238 043c 7734 633d
00000200: f5d7 063c 69be 8b3b d19b abbc 857b 563d
00000210: 7e54 fe3c 19d5 4cbd 8827 7a3d 6300 f1bc
00000220: 7ad3 943c 7417 ba3c e619 373d d2ac e7bc
00000230: ab96 5b3c d1bc 81bc e23a e53c 70cb 38bd
00000240: 073b 163d 4e03 2e3d 6056 b6bb c1a9 593d
00000250: 7d1f 2abd d0e9 6cbd b714 6a3d 7392 803d
00000260: bace 0fbd c001 4d3d 82d3 1fbd 9670 86bb
00000270: 0a78 d63c b17b a63c 40e4 653d 1575 08bc
00000280: a7a9 553d 1af1 543d ad70 68bd 5e55 9b3c
00000290: dea4 753d ecfc 8f3c e5d1 c93a 926b 5d3d
000002a0: d4c9 19bc 0dbd a33a 7f3f 70bd 954b 323d
000002b0: 3109 153d 0c5b 17bd 2892 033c 089e 3c3d
000002c0: 988b 663d 8bf9 dbbb bbc3 323b 5795 4a3d
000002d0: bf6f 063d 0abb a83b 73e2 56bd d88c 4dbb
000002e0: 542f 8cbc fc7c 46bd 6ba7 e9bc 03d1 283c
000002f0: d608 9e3c 3bce 8e3c efee 253d d86c a13b
00000300: 413a fabc f41c 89bc d400 0fbb 2a66 103c
00000310: 9abc eb3c 286f b43c 59cc 61bb af0e c8bc
00000320: 617f 283d a8d4 543d 455c 553c 6eb9 653d
00000330: 7016 62bd 57b5 f33a 8e93 55bc 087b bc3b
00000340: 1869 ff3c bf16 e3bc f03d 223d 0c00 093d
00000350: 8309 dcbc c79b 763d 0005 75bd 75e1 55bd
00000360: 3aeb ad3c 712c 40bd 84dc 823c d865 bbbc
00000370: 7d44 2abc 9242 543d 3a2f a0bc c04e b2bc
00000380: cd93 2a3d 7b3e ae3c fe92 433d 4eb3 343d
00000390: 4115 28bd f147 0ebd 25e3 a63c 1ed4 743d
000003a0: bc09 903c 5136 ee3c 353c 463c 3e8a 5a3d
000003b0: 23e6 433d 0056 52bc 549f 243d c724 21bd
000003c0: d934 51bd 8909 36bd 1092 43bd 74b4 6c3d
000003d0: 2379 b6bb da58 133c 85a3 443d 3a9a d3bc
000003e0: e918 5dbd 7daf 4e3d f60a 863c 31fe 2fbd
000003f0: d40d a9bc b352 1b3d 0477 02bd e940 2d3d
0.019706992 -0.0017653458 0.017279353 -0.009649346 0.026609842 -0.012256945 -0.028170068 -0.028755587
0.0113154985 0.013621528 -0.033480145 -0.012629118 0.012228696 0.037631292 0.01665389 0.06103575
0.062448043 0.012476494 -0.01761926 0.042365886 -0.010377043 -0.010503015 0.016015211 -0.056893222
-0.025717873 0.059954606 -0.04342808 0.028567525 0.055119853 0.00836495 0.031034233 0.021244865
-0.061970584 0.0015246184 -0.047882255 0.014582708 0.030791806 -0.001915897 0.0046683615 -0.0019391048
-0.052959796 0.02145443 0.018909931 -0.0052725766 0.06197424 0.01057754 0.056889962 0.035860084
-0.041739576 0.016167885 0.021914601 0.012110311 -0.018776184 0.028582616 -0.052572995 -0.033817936
-0.0312646 0.056621198 -0.02275616 -0.0103130555 -0.036220107 -0.003651728 0.05347042 0.060479134
0.051026043 0.035586324 0.052076854 -0.049586643 -0.052035067 -0.014714009 0.0015914561 0.00068593846
0.045891967 0.009020814 0.00681697 0.0368777 0.03739115 -0.022428542 0.061348 0.01601941
-0.049517054 -0.05206605 0.051593706 0.007307373 0.005995692 0.03908315 -0.04380444 -0.01254297
0.00084213546 0.021546913 -0.057693157 0.03931378 0.005680723 -0.017351855 -0.030082468 0.04928524
0.030742396 0.04466696 -0.06184012 0.008596243 -0.0023182968 0.0093354415 0.013169379 0.029138949
0.018795218 -0.044011902 0.0576804 0.004150373 0.04659661 -0.019146958 -0.022743303 0.017170789
0.009773624 0.026775898 -0.039154466 0.051702943 -0.038057167 0.015583879 -0.014619904 0.021282177
0.033114485 -0.010292003 0.007900432 -0.040040262 -0.009234756 0.04773518 0.008070009 0.055469956
0.008230199 0.004264642 -0.020948322 0.05236389 0.031046148 -0.050007913 0.061072856 -0.02941913
0.018167246 0.022716261 0.044702433 -0.02828065 0.013402621 -0.015837105 0.02798218 -0.045115888
0.036677387 0.04248362 -0.005564496 0.053140406 -0.041533936 -0.05784017 0.05714866 0.06277933
-0.03510926 0.050050497 -0.03902007 -0.0041027768 0.026180286 0.020322653 0.05612588 -0.008328696
0.052163746 0.051987745 -0.05674808 0.018961605 0.059971683 0.017576657 0.0015397636 0.054057665
-0.0093864985 0.0012492255 -0.058654305 0.043529112 0.03638572 -0.036952063 0.008030452 0.046049148
0.05628547 -0.0067130974 0.002727731 0.049458828 0.032821413 0.00514925 -0.052462053 -0.0031364467
-0.017112412 -0.04845904 -0.028522214 0.0103037385 0.019291323 0.017432323 0.040511068 0.0049263053
-0.030545356 -0.016737439 -0.0021820562 0.00881342 0.028776456 0.02202566 -0.0034454076 -0.024421064
0.041137103 0.051960617 0.013022487 0.056085043 -0.05519718 0.0018593472 -0.013035668 0.005751971
0.031178042 -0.027720807 0.03960985 0.03344731 -0.026860004 0.060207155 -0.05981922 -0.052216966
0.021230329 -0.046917383 0.01597429 -0.022875711 -0.010392305 0.0518213 -0.01955377 -0.021766067
0.04164486 0.021270027 0.047747605 0.04411631 -0.041035894 -0.034736577 0.020371983 0.059772603
0.017582767 0.029078634 0.012099315 0.053354494 0.047826897 -0.012837887 0.04019101 -0.039341714
-0.05107579 -0.044442687 -0.047746718 0.05778928 -0.00556864 0.008993352 0.048007507 -0.025830377
-0.053978834 0.050460327 0.016362648 -0.042967025 -0.020636477 0.037920665 -0.031851783 0.04229823

1.bias f4 [250]
00000000: eb4f a23c 6847 bcbc 8f84 81bd ff64 7b3d
00000010: 8d92 8b3c 46e6 f2bb a402 673d 771f 493d
00000020: 5dd6 52bd b9e9 34bd bb4b a2bb b710 663d
00000030: 453f 0ebb b09c d53c ca27 ee3c db15 43bb
00000040: 2e7b 40bd bff6 813b 7b01 25bd 9100 e23c
00000050: a740 99bb 7d70 ff3c 62b1 093d 8c11 1c3d
00000060: 1041 6fbd f42f b5bc 234b 52bc 7f3e e7bc
00000070: 1a4c 42bd 522a f73b 32fa e5bc ef6a 9ebc
00000080: dc14 16bc 7e77 373b fabe 443a 2a8c 97bc
00000090: afa6 e93b 2721 853a e1a2 44bd 61e3 57bd
000000a0: 9bb9 613d b3be 023d a717 e0bc 1031 ecbc
000000b0: a5ad c43c 4203 4c3c 03e2 9b3c 8746 733b
000000c0: 5169 41bd 949b 74bd ef9a 563d 08e4 663d
000000d0: 3201 3ebc b954 803d 81ec 5f3d 8fa4 353d
000000e0: d996 fd3c 761f 593c 41ce b3bc e564 a2bc
000000f0: 98db 6abd b650 44bb 5820 413d cc31 c23c
00000100: 3571 f43b 597e debc 6a93 483d a370 80bd
00000110: 115d f3bc dc5c 49bd 32bc 3b3d ca86 dd3c
00000120: aa62 303c 1b7d 903c cc72 17bd 62b3 62bd
00000130: 5f50 e0bb 7901 883c 4bcb 41bb 598b a6bc
00000140: 5f4a ac3c 7793 2e3d a711 583b 7dcb 9f3c
00000150: b3c6 66bd 6d06 023c 8bf5 293d 6836 4dbd
00000160: a4c4 8c3c 930a ac3c 18fd cabc d056 47bd
00000170: 7160 5b3d b8b2 4abd 17c1 eebc eaf8 293b
00000180: 3d12 edbb 32f3 003d ae25 333d 94c0 26bd
00000190: 813b 86bb b115 fdbc 7a3c 9bbc 9730 40bc
000001a0: 0dda 47bd 0f05 59bb ed3a bf3c bf12 0cbd
000001b0: 3263 3d3d 109f 933c a0a6 a03c fca9 2c3c
000001c0: 42f6 b2bc ceea 56bd 89b4 093d e2f4 6dbd
000001d0: d5e6 2abd 50c5 063d 931f b2bc 46b9 dd39
000001e0: 03e9 623d bbb1 443d 3ee6 d4bc 87a4 56bc
000001f0: 81b2 15bd a432 5cbd c5df 9d3c 945d 25bd
00000200: 829c 4abd 0ac6 5abc 15f7 313d f824 3abd
00000210: efc2 1abd 250a 2bbd a62e 2fbd f43a 57bd
00000220: b8db 3f3d 026c 46bd 6c1c 0b3d 2a5e 1f3d
00000230: 2a01 503c fe0f 04bd 9be7 3f3d 0820 19bd
00000240: 9fe1 97ba c67f 34bc a1e1 50bc c245 3ebd
00000250: 80e2 0dbd e2c0 f33a 7b30 b8bb 6832 c7bb
00000260: f927 b0bb a3f8 37bd 1508 80bd 4674 b0bb
00000270: b716 523c f47a 013c 7c71 c0bb 2501 2a3d
00000280: 5e67 62bd 2232 d9bc 97aa f43b 7f25 26bd
00000290: 5cbf 503d 7f2c 11bd 62ee 1fbd af80 20bc
000002a0: 71c1 43bd b4ab de3a 4987 72bd c6b2 683d
000002b0: a5f8 e13c c917 06bd b18b f13b 627c 803d
000002c0: 53dd 293d 5bda 8f3c 59bd 28bc 88d5 053d
000002d0: 5e78 3bbc 833f 9bbc 4711 553d a800 413c
000002e0: 61f6 693d 7465 b4bb c2ef ee3c 9e78 3bbd
000002f0: 9c22 50bd 4d98 07bc ca4f 813c 8e26 f6bb
00000300: 5349 3dbd 0daa 5bbc 7580 38bc 5353 65bd
00000310: f63c 23bd 8614 39bd e5aa 7e3d b9c3 f13c
00000320: ba0d 47bd 0bfb dabc e533 b4bb 9f73 643c
00000330: 5165 68bd 4b66 d8bc 842e 9f3c 6993 013d
00000340: 4f0a 473d afa0 0aba 1a2e 3ebc 22e4 f9bc
00000350: 2558 a83b be8b 163d 359b 05bd 006f 66bc
00000360: de91 89ba fc07 5a3d 4ba6 3a3d 1642 3abd
00000370: afb2 21bd eabf 3cbd fb87 a5bc a4da 28bd
00000380: 48e8 c5bc 8b3a de3c e80a 39bd 2eda 3dbd
00000390: bf88 263d 07fc ec3c 3630 cd3c dc79 c13c
000003a0: 5448 5bbd 0f4f 833c 23f3 0fbc e34e 48bd
000003b0: 3318 fc3c 9385 533d 93a1 48bd f5db 67bd
000003c0: 119c 20bd 6a69 0cbd dcd0 593a fa32 67bc
000003d0: 706e 48bd f13d 603d faff 2cbd 7b1e 22ba
000003e0: a0ce 503d 1bcb 2e3d
0.019813498 -0.022983268 -0.06324112 0.061375614 0.017037654 -0.0074127046 0.056399003 0.049102273
-0.051473964 -0.044168208 -0.0049528754 0.056168284 -0.0021705192 0.026075691 0.029071707 -0.0029767666
-0.046992473 0.003966182 -0.040284615 0.02758816 -0.0046768966 0.031181568 0.03361643 0.03810267
-0.058411658 -0.022117592 -0.012835297 -0.028228043 -0.047435857 0.007542887 -0.028073404 -0.0193381
-0.009160247 0.0027994807 0.00075052644 -0.018499453 0.007130466 0.0010156975 -0.048006896 -0.05270708
0.055108648 0.031920146 -0.027355028 -0.028831989 0.024008581 0.012451949 0.01902867 0.0037120895
-0.04721958 -0.059718683 0.05239385 0.05636981 -0.011596965 0.062661596 0.054668907 0.04434639
0.030955719 0.01325213 -0.021948935 -0.0198235 -0.057338327 -0.0029955334 0.047149986 0.023705386
0.0074597844 -0.027159857 0.04896871 -0.06271484 -0.029707463 -0.049160823 0.045833774 0.027041811
0.010765711 0.01763778 -0.036974713 -0.055346854 -0.0068455185 0.016602265 -0.0029570635 -0.020330118
0.021031557 0.042621102 0.0032969506 0.01950621 -0.056341838 0.007936102 0.041493934 -0.050100714
0.01718361 0.021001136 -0.024778888 -0.048666775 0.05355877 -0.049486846 -0.029144807 0.0025935718
-0.00723484 0.03148193 0.043737106 -0.040711 -0.004096449 -0.030894132 -0.018949736 -0.011730335
-0.048791934 -0.0033114587 0.023343528 -0.034197565 0.04623718 0.018020183 0.019610703 0.010538574
-0.02184594 -0.05247002 0.033619437 -0.058094867 -0.041724045 0.032903016 -0.021743571 0.00042290444
0.055398 0.04802106 -0.025988694 -0.01310075 -0.036547188 -0.053759232 0.01927174 -0.040372446
-0.049465664 -0.01335288 0.043448526 -0.045445412 -0.03778356 -0.04175772 -0.042769097 -0.052546456
0.0468404 -0.048442848 0.033962652 0.03890816 0.01269559 -0.032241814 0.046851736 -0.037384063
-0.0011587626 -0.011016792 -0.012749107 -0.046453245 -0.034639835 0.0018596912 -0.0056210137 -0.006079007
-0.005375859 -0.044914853 -0.062515415 -0.0053849546 0.012822798 0.007902849 -0.0058729034 0.041504998
-0.05527436 -0.026513163 0.007466625 -0.040563103 0.050963745 -0.035442825 -0.0390457 -0.009796306
-0.047791902 0.0016988427 -0.05921105 0.056811117 0.027584383 -0.032737527 0.007371389 0.06273724
0.041470837 0.017560175 -0.01029905 0.032674342 -0.011442272 -0.018951183 0.05201843 0.011779942
0.05711973 -0.005505258 0.02916706 -0.045769326 -0.050814256 -0.008276057 0.015785117 -0.0075119203
-0.046212506 -0.0134072425 -0.011261095 -0.055987667 -0.03985306 -0.04518559 0.062174696 0.029512273
-0.048597075 -0.026731035 -0.0054993504 0.013943582 -0.056737248 -0.026415965 0.01943136 0.031634722
0.048593815 -0.0005288226 -0.011607671 -0.03050429 0.005137461 0.036754362 -0.03261872 -0.01406455
-0.0010495742 0.05323027 0.045568746 -0.04547318 -0.039477047 -0.04608146 -0.020206442 -0.041224137
-0.024158612 0.027127525 -0.045176417 -0.04635065 0.040657755 0.02892877 0.025047403 0.023617677
-0.053535774 0.016028909 -0.008785996 -0.048903357 0.030773258 0.05164106 -0.048982214 -0.05660625
-0.039211337 -0.03428022 0.00083090155 -0.014111275 -0.048933446 0.054746572 -0.042236306 -0.00061843515
0.050978303 0.042674165

2.weight f4 [1, 250]
00000000: 5162 bb3a 99e1 353d 8e95 5f3c ae85 c63c
00000010: 7a03 4a3d a165 553d a604 81bd 9694 323d
00000020: 4bc4 c6bc 2ed2 7b3d d84c e83c 0b2c 1dbc
00000030: f4c5 e8bc dad6 343d 137d 23bd 9b3d 5ebd
00000040: 917b 6abb 28fe 3cbd 7b5d f03b b258 4bbd
00000050: ac98 2ebb d444 bbbb 4b22 90bc a360 62bb
00000060: ffe2 6b3d c6ca 263d cbf2 0bbc 3e23 21bd
00000070: 1dfb f13c 09dc 683d 39aa 21bd f57b dabb
00000080: 88ce 5ebd 7af8 c8bc 01e6 a33b 9009 093d
00000090: 049b 43bc b12a 98bc 6ef8 003d 110d 313d
000000a0: 8c54 72bd cbee ddbc ba41 3c3d 2dd9 283d
000000b0: c68b ec3c b091 033d 56d0 43bd d411 be3c
000000c0: b424 0e3d abf4 ea3b ade6 64bd 5e89 5e3d
000000d0: 932a 6b3c 2f72 cfbc 0ced 25bd 50dd 9fbb
000000e0: ae47 363d 95ae 53bd 4398 bfbb 33b4 2d3d
000000f0: 9546 4cbc 4e1b 02bd ac99 2dbd 3254 9abc
00000100: 1a30 f93c 4af9 03ba 9dbf fbbc b7da 5e3b
00000110: dc3d 763d 574c 223d b036 a73c a955 873c
00000120: 1b64 003d 28ba 7a3d 1da1 713d 5352 f63c
00000130: d4d6 59bd 7116 ce3c 5748 5e3d f060 08bc
00000140: 3ae3 033d b00e abbc 5352 d3bc 564c debb
00000150: f1fc 18bb 93a3 2bbd 6c59 0a3c 46cf 8f3c
00000160: 762a db3c 2f0f 69bd 4747 2bbc c375 20bd
00000170: ef13 433d eb95 143d f233 273c 17e5 94bc
00000180: aba5 613d ad7d 1a3d a1f8 5c3d eed2 8cbc
00000190: 032e 57bd 85ad 32bc 380c b1bc 9612 64b9
000001a0: bdcf 0fbd 16e8 f1bc 4317 e73c 3004 72bd
000001b0: cb4c 24bd afc3 04bd ed96 42bd ac54 23bc
000001c0: 4ce0 083d ceb9 db3c c3a0 80bd 9126 c73c
000001d0: 7e97 29bd 7799 16bd 7eb5 be3c ddb9 4c3d
000001e0: 7758 9fbc 134d 643d 544f 9cbb 4fa8 673d
000001f0: 1839 dd3c 6b19 d0bc 75a2 04bc f67e 38bc
00000200: 07b4 71bd 9d4e b1bc 147a 623d 8ce0 293d
00000210: 3e58 40bc 6cc1 90bc a0a2 08bd 03ff f1bc
00000220: 9af0 a93b e384 463d 6b8b 323c 31de 413c
00000230: b998 70bd 8480 733d f30d fc3c ab22 133d
00000240: 90a0 f73b 3dc5 e3bc 2cd9 d33a 9fea 173d
00000250: 76fe 07bd b3dc e73c 7581 22bd dedc 263c
00000260: e579 513d 23dd 443d 9415 5dbd 42fe 853c
00000270: 8f6d 9cbc bc85 acbc aeeb 74bc e2cb 2f3d
00000280: 92a5 8a3a 8930 313d 96ab a93b 57a2 78bd
00000290: e593 cbbb 646a f83c 2991 41bd fe61 2e3d
000002a0: 8055 40bd 5727 703d b7bb 753d b835 f3bc
000002b0: 71e5 833c 51f9 2fbd b6ef b33c b2fe 023d
000002c0: 0e26 543d 15a7 06bd 1f0a 4bbd bf9d 583d
000002d0: 1a3c 0c3d 01b5 cc3b b34a 12bd 5592 383d
000002e0: 7a92 4b3d b191 2dbc d9a7 583d bb39 99ba
000002f0: 88a6 08bc cd51 2abd cda4 4fbd 8651 96bb
00000300: cca9 57bd 46de 05bd a3e7 f7bb f248 0fbc
00000310: 10a5 963c c3ea a2bb 3ebf 2bbd 5d92 50bd
00000320: 97da 1f3c b1ed 333d 5de5 08bd 597a 573d
00000330: ba26 5ebd 522d 29bb cb68 41bc 0fc6 74bc
00000340: 5670 7b3d 8fb9 ddbc fd55 003c 392e 693c
00000350: 9491 08bd ccdc 413d 17d2 b3bc 5da3 933c
00000360: 16e2 5d3d a575 74bd ee93 3abd 4b37 0cbd
00000370: 911d 313d 4633 eabc c9f5 423d 3a40 8dbc
00000380: 686c 4f3c 9568 3c3d c040 0dbc 9002 823b
00000390: 98cd 643c 7272 20bd 145e 573d a552 b2bc
000003a0: 4710 f83c 97bd d83b 16e0 6f3d 9be4 253b
000003b0: 7216 55bd b45c b1bc 4303 3fbc 06d0 0cbb
000003c0: 35c6 1c3c 2327 573d 418b 23bd 9d9a 1abd
000003d0: 0434 303c f3cd 65bd 141d 0c3d f701 c0bc
000003e0: f16c 433c 949b 19bc
0.0014296268 0.0444046 0.013646496 0.024233665 0.04931972 0.052098874 -0.06299715 0.043598734
-0.024263522 0.06147974 0.028356954 -0.00959302 -0.028414704 0.04415021 -0.039914202 -0.05425797
-0.0035779218 -0.04614082 0.0073353625 -0.049645133 -0.0026641292 -0.005714992 -0.017594477 -0.0034542463
0.057589527 0.040720724 -0.008541773 -0.03934025 0.029538685 0.056850467 -0.039468978 -0.006667609
-0.054396182 -0.024532545 0.005001784 0.033456385 -0.011938814 -0.018575044 0.03148692 0.04322535
-0.05916266 -0.027091404 0.04596112 0.04122274 0.028875243 0.03212136 -0.047806107 0.02320186
0.03470297 0.00717028 -0.055884052 0.054330222 0.014353412 -0.025323002 -0.04050927 -0.0048786774
0.044501953 -0.051680166 -0.0058470084 0.04240818 -0.012468 -0.03176432 -0.04238288 -0.018838976
0.030418444 -0.00050344004 -0.030731017 0.0034004876 0.060117587 0.039623585 0.02041182 0.016520338
0.031345468 0.06121269 0.05899154 0.030068552 -0.05318339 0.025157185 0.054268207 -0.008323893
0.032199122 -0.020881027 -0.025796091 -0.0067840023 -0.0023344124 -0.041904043 0.008444171 0.01755489
0.026753645 -0.056899246 -0.010454006 -0.039174806 0.047626432 0.036275785 0.010205256 -0.018175645
0.055089634 0.03771751 0.05394805 -0.017190423 -0.052534115 -0.010905628 -0.021612272 -0.00021750698
-0.035110224 -0.029529613 0.028209334 -0.059086025 -0.040112298 -0.03241318 -0.047507215 -0.009968918
0.03341703 0.026821997 -0.06280663 0.024310382 -0.04140424 -0.03676745 0.023279902 0.04998194
-0.019451363 0.055737566 -0.004770199 0.056556996 0.027004763 -0.025402745 -0.008095373 -0.011260739
-0.059009578 -0.021643931 0.055292204 0.04147391 -0.011739789 -0.017670356 -0.033358216 -0.029540544
0.0051861526 0.048466574 0.010897498 0.01183276 -0.058739398 0.059448734 0.03076837 0.035921734
0.0075569823 -0.027804011 0.0016162745 0.037088986 -0.033201657 0.02830348 -0.03967424 0.010184495
0.05114164 0.048062455 -0.053975657 0.016356591 -0.01909521 -0.021059863 -0.014948769 0.042919047
0.0010577908 0.043259177 0.0051779253 -0.060701694 -0.0062126988 0.030324169 -0.047257576 0.04257392
-0.04695654 0.058631267 0.059993472 -0.029688701 0.016100617 -0.042962376 0.021964889 0.031981178
0.051794104 -0.032874186 -0.0495702 0.052884813 0.034237005 0.0062471633 -0.03571577 0.045061428
0.049700238 -0.010593818 0.052894447 -0.0011690179 -0.008340485 -0.041581918 -0.050694276 -0.004587355
-0.052652165 -0.03268268 -0.007565455 -0.008745419 0.018389255 -0.0049718334 -0.04193043 -0.050920833
0.009756706 0.043927852 -0.033421863 0.052606914 -0.05423615 -0.0025814367 -0.01180477 -0.014939799
0.06138643 -0.02706602 0.007833001 0.014232212 -0.03334196 0.04732971 -0.021950765 0.018022234
0.05417069 -0.059682507 -0.045551233 -0.03423242 0.043241087 -0.028588902 0.04759768 -0.01724254
0.012660123 0.045998175 -0.008621395 0.0039675906 0.013965033 -0.039171644 0.052579954 -0.021767924
0.0302812 0.0066143977 0.058563314 0.0025313261 -0.05202336 -0.02165065 -0.0116584925 -0.0021486296
0.009568741 0.052527558 -0.039927725 -0.037745107 0.010754589 -0.05610461 0.03420742 -0.023438437
0.011927829 -0.009375472
