Backgammon2/pub_stomper_repository/nn_best_model.pt (torch_old, 232090 bytes, 4 tensors)

weight f4 [100, 464]
0	0x3c24f7c4	0.010068838
1	0x3ce9b442	0.028528336
2	0xbd380e9e	-0.044935815
3	0xbba45408	-0.0050149
4	0x3ce4b7de	0.027919706
5	0xb9dbc380	-0.00041916594
6	0x3c8dcb72	0.017308924
7	0xbcefa065	-0.029251287
8	0x3c8df0fe	0.017326828
9	0xbc81de56	-0.015853088
10	0x3bdd1a98	0.006747555
11	0x3cf4e54a	0.02989449
12	0x3d067ba3	0.032832753
13	0x3b137200	0.002249837
14	0x3d3cb74f	0.046073254
15	0xbd324e52	-0.043531723
16	0x3c9f7404	0.0194645
17	0x3c94623b	0.018113246
18	0xbd07fa8c	-0.033197924
19	0xbc4759c6	-0.0121674
20	0x3a813748	0.0009858394
21	0xbc69def6	-0.014274349
22	0xbcfd3191	-0.030907424
23	0xbce4ecb7	-0.027944906
24	0x3a933335	0.0011230471
25	0x3ce53096	0.02797727
26	0xbbe04c82	-0.006845058
27	0xbbf843f5	-0.0075764605
28	0x3c64d57b	0.013966913
29	0xbc8ad5ef	-0.016947715
30	0xbc5525a1	-0.01300946
31	0xbd07561e	-0.033041112
32	0x3d1bf196	0.03807219
33	0x3c5b6dd6	0.013392886
34	0x3cc31d1b	0.02381759
35	0xbc33212c	-0.010933202
36	0xbcd184b7	-0.025575979
37	0x3c0789ce	0.008272601
38	0x3bc1bb7b	0.005912242
39	0x3ceea78e	0.02913263
40	0x3bb8c2a1	0.005638436
41	0x3d07e62d	0.033178497
42	0x3d0d0e85	0.034437675
43	0x3ca8b38b	0.020593425
44	0x3d0ba0b1	0.034088794
45	0x3c3608f8	0.011110537
46	0x3d1ed0e5	0.038773436
47	0x3d04af6b	0.032393854
48	0xbc26acd9	-0.010173046
49	0xbd162fdb	-0.036666732
50	0x3b4754a6	0.0030415445
51	0x3d35ab7a	0.044352986
52	0xbd396e87	-0.045271423
53	0xbd2271f0	-0.03965944
54	0x3d32cbe2	0.04365147
55	0x3d0f7bb7	0.035030093
56	0x3cd7c7eb	0.026340446
57	0xbcb32d13	-0.021872079
58	0xbc5d1320	-0.013493329
59	0x3c3f2609	0.011666783
60	0x3b9a0770	0.0047005937
61	0xbc204ffc	-0.009784695
62	0x3d09ab35	0.03361054
63	0xbd35ca8f	-0.044382628
64	0xbca73b30	-0.020413965
65	0xbd3ec8ba	-0.046578147
66	0xbd27a6f0	-0.04093069
67	0xbb863247	-0.004095349
68	0xbd281404	-0.041034713
69	0x3c7e02a0	0.015503556
70	0xbc2efd56	-0.010680517
71	0xbca59536	-0.02021275
72	0xbd0d65bf	-0.03452086
73	0x3bb1f3d0	0.005430676
74	0xbc92d0bf	-0.017921804
75	0x3cfb6b76	0.03069089
76	0x3c6dd63c	0.0145164095
77	0x3d2c7e47	0.042112615
78	0x3cc72eba	0.024314273
79	0xbd23b6b5	-0.039969165
80	0x3cd3ac75	0.02583907
81	0xbc9cdd4e	-0.019148495
82	0xbd229616	-0.039693914
83	0xbd2766e6	-0.040869616
84	0xbc899b95	-0.01679782
85	0xbcb4d8a9	-0.022075968
86	0xbd21876c	-0.03943579
87	0xbcc73c89	-0.024320858
88	0xbd2f1a30	-0.042749584
89	0x3d17d2c5	0.03706624
90	0xbc1b723c	-0.009487685
91	0x3d32d53b	0.043660384
92	0x3ca2869a	0.019839574
93	0xbd321fd6	-0.043487392
94	0xbd2f01e8	-0.042726427
95	0x3d152edf	0.036421653
96	0xbcdaee3c	-0.026724927
97	0xbc51fddf	-0.012816875
98	0xbc8114f7	-0.015757067
99	0xbca6445a	-0.020296264
100	0xbd2dbfa2	-0.042419083
101	0x3bb539e2	0.005530582
102	0x3cf7417b	0.03018259
103	0x3c1a25a4	0.009408388
104	0x3cb44486	0.02200533
105	0x3cb6568a	0.022258062
106	0xba991cc0	-0.0011681542
107	0xbcbd12d0	-0.02308026
108	0xbd36f8fd	-0.044671047
109	0x3ce2b3f6	0.027673703
110	0xbbe612f0	-0.0070213005
111	0xbccee4a1	-0.025255503
112	0xbcdf54d5	-0.02726213
113	0x3d29c093	0.04144342
114	0xbd1acb64	-0.037791625
115	0xbcf40f1f	-0.029792367
116	0xbd2e1277	-0.04249808
117	0x3d0de618	0.034643263
118	0x3d397f27	0.045287278
119	0x3c237e78	0.009978883
120	0xbd3a7236	-0.045519076
121	0x3b826990	0.003979869
122	0xbd0159b0	-0.031579673
123	0x3cc15b46	0.023603093
124	0x3cbbd0f2	0.022926781
125	0xbcd94ff1	-0.026527377
126	0x3cb0843e	0.021547433
127	0xbab28020	-0.0013618506
128	0xbd11d4d7	-0.03560337
129	0xbd053e98	-0.032530397
130	0x3d205979	0.039147828
131	0x3c11d696	0.008901259
132	0xbb061a48	-0.0020462442
133	0xbc0d49c7	-0.008623547
134	0xbc0d6234	-0.0086293705
135	0xbc187430	-0.009305045
136	0x3bf0ca70	0.007348351
137	0x3c0dd690	0.008657113
138	0x3cb76dd2	0.022391234
139	0x3d19842d	0.03747957
140	0xbc758fa8	-0.014987864
141	0x3b258ec0	0.0025262088
142	0xbcdc9ba3	-0.026929682
143	0x3d0efb5b	0.03490768
144	0x3d383f25	0.044982094
145	0xbbdf89cd	-0.006821847
146	0xba9be309	-0.0011893223
147	0x3b32c06e	0.0027275342
148	0xbab2a76c	-0.0013630218
149	0xbcf87572	-0.03032944
150	0xbcd1d8d0	-0.02561608
151	0xbc983f4b	-0.018584868
152	0xbcc3d73c	-0.023906343
153	0x3c8d4e9e	0.017249402
154	0xbd15fa7d	-0.036615837
155	0x3c54ea08	0.0129952505
156	0xbcb29d8a	-0.021803636
157	0x3d0cbb83	0.034358513
158	0xbd3605ab	-0.044439
159	0xbc530280	-0.012879014
160	0x3ba870f9	0.0051404205
161	0x3d38231c	0.044955358
162	0xbcabe682	-0.020983938
163	0x3c83dc3b	0.016096225
164	0x3d2a098d	0.041513015
165	0xbc6d4040	-0.01448065
166	0x3c9503b6	0.018190246
167	0x3d350ddb	0.044202667
168	0xbb721e10	-0.0036944188
169	0xbcc1a292	-0.02363709
170	0xbcb3a8e8	-0.021931127
171	0x3d2fbbf1	0.042903844
172	0x3b1d9900	0.0024047494
173	0xba998020	-0.0011711158
174	0xbd3de407	-0.046360042
175	0x3cac7096	0.021049779
176	0xbce28b7f	-0.027654408
177	0xbd20db3d	-0.039271582
178	0xbd2d4339	-0.042300437
179	0x3d1d6a44	0.03843142
180	0x3d1ed019	0.038772676
181	0xbd071fbc	-0.03298925
182	0x3ce2e0ee	0.027695145
183	0xbbabfdd0	-0.0052487627
184	0x3cb6ca2a	0.022313196
185	0xbb8c7e80	-0.004287541
186	0x3d3ad5e7	0.04561415
187	0xbc9c07ac	-0.019046627
188	0x3c253c94	0.010085244
189	0x39d28500	0.00040153414
190	0x3ce1fb26	0.027585577
191	0xbab7dba0	-0.0014027245
192	0xbcfc956d	-0.03083297
193	0x3c946d94	0.018118657
194	0xbbeea3b7	-0.0072827
195	0x3cd1835e	0.025575336
196	0x3b407210	0.0029364862
197	0x3d11e2ab	0.035616558
198	0x3d259def	0.04043382
199	0x3d25a307	0.040438678
200	0x3c2cb704	0.010541681
201	0xbc8b609e	-0.017013844
202	0xbcb1c1f4	-0.02169893
203	0x3ccf6f62	0.025321666
204	0xbc48cc7c	-0.012255784
205	0xbd0edd72	-0.034879155
206	0x3cbbda32	0.022931192
207	0xbcd7cfff	-0.026344297
208	0xbc9fab03	-0.019490724
209	0xbcc86e25	-0.024466584
210	0x3d0ee74e	0.034888558
211	0xbd0d1248	-0.034441262
212	0x3c657c05	0.014006619
213	0x3c5b0c9d	0.013369706
214	0x3d0de278	0.034639806
215	0x3d200683	0.03906871
216	0xbcbc3559	-0.022974657
217	0xbb76ed20	-0.0037677959
218	0xbcfbdfb9	-0.030746328
219	0xbce84ec7	-0.028357876
220	0x3d3bab21	0.045817498
221	0xbcc9b5ac	-0.02462276
222	0xbcb73ceb	-0.022367915
223	0x3c8ef042	0.017448548
224	0x3c2ba101	0.010475398
225	0x3b1ca044	0.0023899237
226	0x3d153010	0.03642279
227	0x3c8c528a	0.017129201
228	0xbd1ab040	-0.03776574
229	0xbd38a6e5	-0.045081038
230	0xbcbc87d5	-0.023013989
231	0xbc5f2658	-0.013619982
232	0x3c3a7e64	0.011382673
233	0x3c92a1c6	0.017899405
234	0xbceca6eb	-0.028888186
235	0xbcb99914	-0.022656001
236	0x3c10f630	0.008847758
237	0xbc0e4bbc	-0.008685049
238	0x3cb5ffee	0.022216763
239	0xbd23d53b	-0.039998274
240	0xbce7dbd4	-0.028303064
241	0x3d357ab4	0.044306472
242	0xbd371e63	-0.044706713
243	0x3ca5cdb6	0.020239692
244	0x3d0f945d	0.0350536
245	0xbb270f60	-0.0025491342
246	0xbcb53fe4	-0.022125192
247	0xbd3061b6	-0.043061934
248	0x3b114810	0.0022168197
249	0xbcbc079f	-0.022952853
250	0xbc4b14a8	-0.012395062
251	0xbd0a6559	-0.03378806
252	0xbcf8a377	-0.030351384
253	0xbbd16cc8	-0.0063911416
254	0xbcc311f2	-0.023812268
255	0x3bb55808	0.005534176

bias f4 [100]
0	0xbd137bc1	-0.036006693
1	0x3d202a0b	0.039102595
2	0xbd115f06	-0.035491012
3	0x3bb56a76	0.005536373
4	0x3c14807d	0.009063837
5	0x3d1494ae	0.036274604
6	0x3ccfc717	0.025363488
7	0xbd214736	-0.039374553
8	0xbd2fef67	-0.04295292
9	0xbcbf21ce	-0.023331549
10	0xbd518680	-0.05115366
11	0x3b9f059b	0.004852963
12	0xbc80e9a4	-0.015736409
13	0xbcffcac9	-0.031224625
14	0x3d1c2ab4	0.038126662
15	0xbcffd913	-0.031231439
16	0x3ca70f57	0.020393057
17	0xbc978f1a	-0.018500853
18	0x3d036b43	0.032084715
19	0x3bae0d2d	0.0053116293
20	0x3c62db74	0.013846267
21	0x3ce853a1	0.02836019
22	0xbc2f3e90	-0.010696068
23	0x3d1962c2	0.0374477
24	0x3c45858a	0.012055764
25	0xbca20254	-0.0197765
26	0xbc5310d8	-0.012882434
27	0x3d265380	0.040606976
28	0xbce62f89	-0.028098838
29	0xbd025a00	-0.031824112
30	0x3cea5cc3	0.028608685
31	0xbd009c20	-0.031398892
32	0x3c13bece	0.009017659
33	0x3c4e0034	0.012573291
34	0x3d10805f	0.035278674
35	0x3d281def	0.041044172
36	0xba10b831	-0.0005520611
37	0x3d032f2e	0.032027416
38	0xbc2f631c	-0.010704782
39	0xbcfc5a18	-0.030804679
40	0xbd425287	-0.047441985
41	0xbc2c7888	-0.010526784
42	0x3c849609	0.016184824
43	0x3c044b20	0.008074552
44	0x3c27a6b6	0.010232618
45	0xbd34c712	-0.04413516
46	0xbc905b9f	-0.017621813
47	0xbbbda49b	-0.0057874448
48	0x3c61186d	0.013738734
49	0xbd41b95b	-0.04729591
50	0xbc55530b	-0.013020287
51	0x3d060aaa	0.032725014
52	0x3d830531	0.063974746
53	0x3cb07c62	0.021543685
54	0x3d272a90	0.040812075
55	0x3ce90050	0.028442532
56	0x3d06a044	0.032867685
57	0xbd1a70f2	-0.03770537
58	0x3d246b72	0.04014153
59	0x3badc948	0.0053035356
60	0x3c5f215e	0.013618795
61	0x3d691413	0.05690391
62	0x3d5feee2	0.054671176
63	0xbbc85331	-0.006113433
64	0x3cca5f92	0.024703775
65	0xbcf25762	-0.029582683
66	0x3c8d6a2d	0.017262543
67	0xbcc418ba	-0.023937572
68	0xbcfc0a4f	-0.030766634
69	0x3cca5bf8	0.024702057
70	0x3cde7df3	0.027159667
71	0xb9ef2fd2	-0.0004562126
72	0xbc890362	-0.016725246
73	0xbceb1081	-0.028694393
74	0xbc1e7b3f	-0.009672939
75	0xbd4db348	-0.050219804
76	0x3bba4b12	0.0056852186
77	0x3c7d852d	0.015473646
78	0xbb8b80ac	-0.0042572822
79	0x3c10d8d5	0.008840759
80	0xbcf7b118	-0.030235812
81	0x3c0a30c2	0.008434476
82	0xbd66f20b	-0.056383174
83	0x3d07f00d	0.033187915
84	0x3b3e53e5	0.0029041704
85	0xbcfb3e7f	-0.030669449
86	0x3d0db4f2	0.03459639
87	0x3d2f9876	0.042870007
88	0xbcf124c6	-0.02943648
89	0x3ce8de73	0.028426385
90	0x3b10065d	0.002197645
91	0x3cae0ba0	0.021245778
92	0xbb4aa2be	-0.0030919756
93	0x3d13f31e	0.036120526
94	0xb6dc1cc3	-6.5598592e-06
95	0x3a285152	0.0006420809
96	0xbb874d66	-0.0041290997
97	0xbbed3221	-0.007238642
98	0xbd1393b3	-0.03602953
99	0xbd2bead6	-0.041972004

weight f4 [100, 100]
0	0x3d87bfb5	0.06628362
1	0x3c607f13	0.013702172
2	0xbdb2a6f8	-0.08723253
3	0xbd842dd5	-0.06454054
4	0x3d5fcd3f	0.054639097
5	0x3c0bcc32	0.008532571
6	0xbd585518	-0.052815527
7	0x3dc2f1fd	0.09518812
8	0xbd51f54e	-0.05125933
9	0xbd982708	-0.074293196
10	0xbd979b3f	-0.07402658
11	0x3d944e76	0.07241528
12	0xbd6af2f7	-0.057360616
13	0xbc8e350b	-0.017359277
14	0xbbc47017	-0.0059948075
15	0x3cc4e33b	0.024034133
16	0x3dc5588a	0.09636028
17	0x3c102233	0.008797216
18	0x3ca3b5fa	0.019984234
19	0x3c69951e	0.014256744
20	0xbcdab46d	-0.026697362
21	0xbd57f08f	-0.05271965
22	0xbd83995e	-0.06425737
23	0xbd77ce9e	-0.06049978
24	0x3d34e4ca	0.044163503
25	0x3cd8fd97	0.026488109
26	0xbb1d8182	-0.0024033491
27	0x3d7a1121	0.06105149
28	0xbc9a077f	-0.018802403
29	0x3d2a007c	0.04150437
30	0xbd652671	-0.055944864
31	0x3d0532d9	0.032519195
32	0xbdc5aab8	-0.09651703
33	0xbd5007a8	-0.05078855
34	0x3d2dde78	0.04244849
35	0xbd5bb6e0	-0.0536412
36	0x3d3121ec	0.04324524
37	0x3c903742	0.017604474
38	0x3d523dc7	0.051328447
39	0x3ce81791	0.02833155
40	0xbdbe9cba	-0.09307237
41	0x3d31412e	0.04327505
42	0xbdb55c57	-0.08855503
43	0x3da3c946	0.07997374
44	0x3bef6064	0.007305192
45	0x3c4d1efd	0.012519595
46	0x3d82b5a8	0.063823044
47	0x3c230a77	0.0099512255
48	0xbdc7bbae	-0.09752594
49	0x3d5da9a2	0.054116853
50	0xbd247e55	-0.040159542
51	0xbcae9cbe	-0.021314975
52	0xbcfa4cb4	-0.030554153
53	0x3cb4e685	0.022082577
54	0x3d1bb0c8	0.03801039
55	0x3cfd9cb8	0.030958518
56	0xbd628dcb	-0.055311006
57	0x3d8eb7af	0.069686286
58	0xbc35c809	-0.011095055
59	0x3cd6f84f	0.02624145
60	0x3bbf732c	0.005842587
61	0x3d3d55f3	0.046224546
62	0x3d8de224	0.069278985
63	0x3d051ea9	0.032499943
64	0xbb356556	-0.002767881
65	0x3bfa2ed3	0.0076349764
66	0xbd858cef	-0.065210216
67	0xbdae5f0c	-0.085142225
68	0x3c2f1825	0.010686909
69	0xbd5bd98f	-0.053674277
70	0xbd47b202	-0.048753746
71	0x3dbc0253	0.09180131
72	0x3cb22165	0.02174444
73	0xbda6de82	-0.08147909
74	0x3d81afa5	0.0633233
75	0xbc9a8f06	-0.018867027
76	0xbcec3b64	-0.028836913
77	0xbd0df314	-0.034655645
78	0x3d11b838	0.035576075
79	0xbd92d097	-0.071686916
80	0xbdb8eaad	-0.09029136
81	0xbcbc5c49	-0.022993224
82	0xbca105c2	-0.019656066
83	0x3c95b404	0.018274315
84	0x3dc3a32a	0.095526055
85	0x3d8ed52d	0.06974254
86	0xbd232fca	-0.039840497
87	0x3d9cdcfc	0.07659337
88	0x3daf4266	0.08557586
89	0x3ca54f21	0.020179333
90	0xbccc59b9	-0.024945127
91	0xbdc8d337	-0.09805911
92	0xbdc2aced	-0.09505639
93	0xbda4d83e	-0.080490574
94	0xbdacd1c4	-0.08438447
95	0xbd35b08f	-0.044357833
96	0x3d38651e	0.045018308
97	0x3d41be5d	0.047300685
98	0xbbe6112e	-0.007021091
99	0xbd2b6916	-0.041848265
100	0x3bc14db8	0.0058991574
101	0xbd3c1e55	-0.045927364
102	0x3d8d981c	0.06913778
103	0x3d63fcd5	0.05566104
104	0xbd8083a6	-0.0627511
105	0x3db6f733	0.08933868
106	0xbc9709b8	-0.018437251
107	0xbd6a913b	-0.05726741
108	0xbcbc0aa1	-0.022954287
109	0xbcbb227c	-0.022843592
110	0xbd5c35f3	-0.053762387
111	0xbb1e3875	-0.0024142538
112	0x3c303a27	0.010756052
113	0xbd9d28b2	-0.07673778
114	0x3b9bfb4e	0.0047601825
115	0xbcda1210	-0.026619941
116	0x3cbb3864	0.022854038
117	0x3d1931f7	0.037401166
118	0xbc89f4c0	-0.016840339
119	0x3bc13e84	0.005897345
120	0xbc39ad7c	-0.011332866
121	0xbd2b7207	-0.04185679
122	0xbdc65312	-0.09683813
123	0xbda9b2c5	-0.08286051
124	0x3da81944	0.08207944
125	0x3dadb240	0.08481264
126	0x3b995cd3	0.004680255
127	0x3d285a11	0.04110152
128	0x3db3404c	0.08752498
129	0x3da71beb	0.08159622
130	0xbd68c7c5	-0.05683114
131	0xbd849152	-0.0647303
132	0xbcba64ca	-0.022753138
133	0xbd5a5432	-0.05330295
134	0xbd36fbde	-0.044673793
135	0x3d898a57	0.06715839
136	0xbdc5d59b	-0.09659883
137	0xbd455254	-0.048174217
138	0x3c9fa7f7	0.019489272
139	0x3d7dbecf	0.061949547
140	0xbce6c41b	-0.028169682
141	0xbdbc8fdc	-0.092071265
142	0xbdc827cf	-0.09773218
143	0x3d52a4c5	0.051426668
144	0xbdc51470	-0.09623039
145	0xbd931ffc	-0.07183835
146	0x3dc11421	0.094276674
147	0xbc9e3d4b	-0.019316336
148	0xbbbca949	-0.005757485
149	0xbd4c4fde	-0.049880855
150	0x3b3e2cbb	0.002901836
151	0xbd161b95	-0.036647398
152	0x3d88f025	0.06686429
153	0x37298274	1.0103558e-05
154	0xbab4d3c1	-0.0013796018
155	0x3d484cbd	0.04890131
156	0xbc0a8845	-0.008455341
157	0xbd835a76	-0.064137384
158	0xbd139ba1	-0.03603709
159	0x3dbb8d75	0.0915784
160	0xbcdbaabe	-0.026814815
161	0x3cd1eb45	0.02562488
162	0xbd3d1aec	-0.046168253
163	0xbd9b2b17	-0.07576578
164	0x3b8f6885	0.0043764734
165	0x3cd7108e	0.026253011
166	0x3d9a758f	0.07541954
167	0xbd35dded	-0.044401098
168	0xbb3dd018	-0.0028963145
169	0x3ccdd520	0.02512604
170	0x3d557c3e	0.05212044
171	0xbb828b6d	-0.003983906
172	0x3d991cd7	0.07476204
173	0xbd568bec	-0.052379534
174	0xbce8daf9	-0.028424727
175	0xbd577928	-0.052605778
176	0x3d76663d	0.060156096
177	0x3db262e1	0.08710266
178	0xbda861df	-0.082217924
179	0x3d64a8a8	0.055824906
180	0xbd2214da	-0.039570667
181	0x3d5d65e6	0.054052256
182	0xbda0b241	-0.07846499
183	0xbd6e962c	-0.058248684
184	0x3c2f475a	0.010698164
185	0x3dc24fd7	0.094878845
186	0xbcdaf18f	-0.026726512
187	0xbd9666c6	-0.07343821
188	0x3c76ec44	0.015070979
189	0xbdb82564	-0.08991507
190	0xbd75c191	-0.059999052
191	0xbdb3e0f9	-0.087831445
192	0xbda9888f	-0.082779996
193	0xbd7c14df	-0.06154334
194	0xbdb5e471	-0.08881462
195	0x3d5e9941	0.054345373
196	0x3db58a82	0.08864309
197	0x3cb7b044	0.022422917
198	0x3d50c956	0.05097326
199	0xbda13e7e	-0.078732476
200	0xbd36ba9e	-0.044611566
201	0xbd5e84be	-0.05432581
202	0x3c318fc3	0.010837498
203	0xbccd7d15	-0.025084058
204	0x3ca52967	0.020161344
205	0x3d40deb7	0.047087397
206	0x3d52b788	0.05144456
207	0x3dcdeb3b	0.10054632
208	0x3dabecd8	0.08394784
209	0xbdaf3570	-0.08555114
210	0x3d185bc7	0.0371969
211	0xbd83b7bd	-0.0643153
212	0xbd3e9994	-0.046533182
213	0x3d8613b9	0.065467305
214	0xbd899e1c	-0.0671961
215	0x3d55e234	0.052217677
216	0x3d1a4b36	0.037669383
217	0xbd15b467	-0.036549
218	0x3c3f5f8e	0.011680497
219	0xbd9f99ce	-0.07793008
220	0x3db7d268	0.08975679
221	0xbdba3937	-0.09092944
222	0xba6e152b	-0.0009082134
223	0xbc3fbe4a	-0.011703083
224	0x3c2eb104	0.010662321
225	0x3d19fa22	0.03759206
226	0x3d7feae9	0.062479887
227	0x3dad36e2	0.08457734
228	0xbdae6127	-0.08514624
229	0xbd21d98c	-0.03951411
230	0x3dc3d4a9	0.09562046
231	0xbd6301c7	-0.055421617
232	0xbb855d39	-0.004069951
233	0x3c498c12	0.012301462
234	0xbd5feaef	-0.05466741
235	0x3cc4f1e2	0.02404112
236	0x3b47f65c	0.0030511832
237	0x3d15934a	0.03651742
238	0x3c135c98	0.008994244
239	0x3dc7ff02	0.09765436
240	0x3d30fd38	0.04321024
241	0xbd549833	-0.05190296
242	0xbca38924	-0.019962855
243	0x3dc6360a	0.09678276
244	0xbd7189e0	-0.05896938
245	0x3dacac66	0.0843132
246	0x3d8d0889	0.068863936
247	0xbca52314	-0.020158328
248	0x3d835b8c	0.064139456
249	0x3dbdff18	0.09277171
250	0x3d8c2ec0	0.06844854
251	0x3d4ad94c	0.049523637
252	0xbd69763f	-0.056997534
253	0xbceb119b	-0.028694918
254	0xbdbe1fd6	-0.09283416
255	0xbdb33ba9	-0.08751614

bias f4 [100]
0	0xbcdb677a	-0.02678274
1	0x3c5d3446	0.0135012325
2	0x3d710741	0.05884481
3	0x3d850345	0.06494764
4	0x3d9b65ef	0.07587802
5	0x3d60b64c	0.05486135
6	0x3d079982	0.03310538
7	0xbd818ce3	-0.063257
8	0x3dbf3f5d	0.093382575
9	0x3de9258d	0.11384115
10	0xbd51abf0	-0.051189363
11	0x3cc6be49	0.024260657
12	0x3d8375ee	0.06418978
13	0xbd50e404	-0.050998703
14	0xbd37b320	-0.04484856
15	0xbd177285	-0.03697445
16	0xbde5375d	-0.111922
17	0xbca24771	-0.019809457
18	0xbd8ff299	-0.07028694
19	0xbd087fd1	-0.03332502
20	0xbcadb6d2	-0.02120534
21	0xbde55c19	-0.11199207
22	0x3d03c934	0.032174304
23	0xbbed1912	-0.0072356546
24	0xbd8f1f81	-0.06988431
25	0xbd00ad50	-0.031415284
26	0xbda35367	-0.07974892
27	0x3c8e52da	0.017373491
28	0xbdb20bd9	-0.08693666
29	0x3ca80831	0.020511718
30	0x3daebe06	0.08532338
31	0x3a41ee5b	0.00073978835
32	0xbc9cb260	-0.019128025
33	0xbd1bfce6	-0.03808298
34	0x3ddd8095	0.10815541
35	0x3cbbdbac	0.022931896
36	0x3da7e72f	0.08198392
37	0x3d5fbcac	0.05462329
38	0x3db9e63d	0.090771176
39	0x3df0a2e2	0.117498174
40	0x3d629632	0.05531902
41	0xbd8f53c2	-0.069983974
42	0xbd6a4d99	-0.05720291
43	0xbd83de18	-0.064388454
44	0x3d1a022a	0.03759972
45	0x3def635a	0.11688872
46	0xbbab309f	-0.005224302
47	0xbda39ac5	-0.07988504
48	0x3d9785ee	0.07398592
49	0x3cc1b066	0.023643684
50	0x3dc1804c	0.09448299
51	0x3c0c5f1f	0.0085676005
52	0xbd6b554e	-0.0574544
53	0xbc257d0f	-0.010100617
54	0x3cfa765e	0.03057402
55	0xbd4447a9	-0.047919903
56	0x3cd060a5	0.025436709
57	0xbd8eefeb	-0.069793545
58	0xbd905ac5	-0.07048563
59	0xbdaeba0b	-0.08531579
60	0xb900cb86	-0.0001228285
61	0x3d934084	0.0719004
62	0xbd861fbc	-0.065490216
63	0xbd91f4e3	-0.071267866
64	0xbd9214f5	-0.071329035
65	0x3da772c4	0.08176187
66	0xbd9f2fa2	-0.07772757
67	0xbd9511b7	-0.072787695
68	0xbdf5c16c	-0.11999783
69	0xbd04b37d	-0.032397736
70	0xbc799ca1	-0.015235097
71	0x3cf00511	0.02929929
72	0xbda897ad	-0.08232055
73	0xbd7e0b07	-0.062022235
74	0x3dc07bfb	0.093986474
75	0x3b40d16c	0.00294217
76	0xbd3b5344	-0.045733705
77	0xbdba1756	-0.09086482
78	0xbcc534e5	-0.024073074
79	0x3d3c9ef4	0.046050027
80	0xbdbf326d	-0.0933579
81	0x3bb679af	0.005568705
82	0xbd202837	-0.039100852
83	0xbe006f44	-0.12542444
84	0x3d8ef564	0.06980398
85	0xbc66e27e	-0.014092086
86	0xbcdbc8a2	-0.026829068
87	0x3d17b55b	0.03703819
88	0x3d17bbc5	0.037044305
89	0xbd8aea2b	-0.06782945
90	0xbdb16ab6	-0.086629316
91	0xbc44f4b6	-0.012021234
92	0xbd8b4ff7	-0.068023615
93	0x3d0d2542	0.03445936
94	0x3c2a6bbe	0.010401664
95	0x3dc5c1a4	0.09656075
96	0x3d90ec82	0.0707636
97	0xbd7fdb97	-0.062465277
98	0x3d8e6711	0.06953252
99	0xbd1fa85b	-0.038978916
