Backgammon2/pub_stomper_repository/nn_best_pgvector.pt (torch_old, 5827 bytes, 1 tensors)

weight f4 [1, 100]
0.07497823 0.08505764 -0.024402833 -0.0971244 0.016445179 -0.09145736 -0.067475505 0.053132392
0.0314607 -0.04838683 -0.02858472 0.0530229 0.03678696 -0.001549692 -0.08515134 0.007239563
0.00502544 0.04000739 -0.03664201 0.04355391 0.008852738 -0.073782094 0.07980481 0.04771035
-0.012327559 -0.03166636 0.016897177 0.03737703 -0.08075298 -0.046852417 -0.026119508 0.04234672
-0.059420943 -0.042782996 -0.029888134 -0.067112684 0.030924357 0.009043781 -0.06881593 -0.08928198
-0.031939138 -0.028937085 -0.004308504 0.04123475 -0.09757891 0.06722487 -0.011188795 -0.06427858
0.07099757 -0.07575481 -0.04511524 0.07716686 -0.023255825 -0.011393486 0.08420865 -0.01826354
-0.051232234 -0.04190003 -0.0923858 -0.050230492 -0.019645503 -0.02106938 0.0155178225 0.0040523927
-0.081796154 0.06819161 -0.054349534 -0.08541709 0.06467761 -0.03779481 0.08545882 0.02103054
-0.072254665 -0.049424183 -0.010606739 0.07543837 0.0049973037 0.012245155 0.011799114 -0.047598936
-0.06609469 0.054593127 0.07447873 -0.0060377484 0.036360454 -0.056503747 -0.022196624 0.049964223
-0.06313459 -0.08081407 0.07870369 0.07090395 0.091263235 0.05085321 -0.073497035 -0.068992935
-0.004313849 0.007217527 0.05365521 -0.02733854
00000000: 308e 993d b332 ae3d 73e8 c7bc 28e9 c6bd
00000010: 0ab8 863c ff4d bbbd 9930 8abd 5aa1 593d
00000020: efdc 003d 4531 46bd 812a eabc 8a2e 593d
00000030: ecad 163d 091f cbba d363 aebd db39 ed3b
00000040: 72ac a43b cade 233d ef15 16bd 9665 323d
00000050: 130b 113c 111b 97bd b470 a33d ee6b 433d
00000060: 88f9 49bc 96b4 01bd f36b 8a3c a818 193d
00000070: d261 a5bd 52e8 3fbd 94f8 d5bc c173 2d3d
00000080: 6063 73bd 393d 2fbd f6d7 f4bc 6072 89bd
00000090: 1455 fd3c 5e2c 143c 5eef 8cbd 79d9 b6bd
000000a0: 9dd2 02bd 770d edbc 5a2e 8dbb c5e5 283d
000000b0: 74d7 c7bd 31ad 893d 3551 37bc 7da4 83bd
000000c0: 2d67 913d 5625 9bbd c2ca 38bd a909 9e3d
000000d0: 0083 bebc beab 3abc 9675 ac3d 6b9d 95bc
000000e0: e4d8 51bd 5e9f 2bbd c434 bdbd 7dbe 4dbd
000000f0: 9bef a0bc b199 acbc 773e 7e3c efc9 843b
00000100: be84 a7bd 0ba8 8b3d 9e9d 5ebd 28ef aebd
00000110: b275 843d bbce 1abd 0905 af3d 3d48 ac3c
00000120: 41fa 93bd 0371 4abd e3c7 2dbc 6f7f 9a3d
00000130: 6cc0 a33b e79f 483c 1251 413c 1af7 42bd
00000140: a75c 87bd 0b9d 5f3d 4e88 983d 4ed8 c5bb
00000150: b3ee 143d 7970 67bd b2d5 b5bc 49a7 4c3d
00000160: b54c 81bd d981 a5bd 662f a13d 1736 913d
00000170: 38e8 ba3d 754b 503d 9d85 96bd 2b4c 8dbd
00000180: 305b 8dbb 0181 ec3b 91c5 5b3d 13f5 dfbc
