Backgammon2/pub_stomper_repository/nn_best_pgmodel.pt (torch_old, 46490 bytes, 3 tensors)

weight f4 [100, 100]
000000 7f ac 7d 3e cf 5c f6 3d f3 f5 91 be 06 e6 c5 bd
       0.24772833 0.120294206 -0.28507957 -0.09663014
000010 4a 06 47 3e 00 9f 37 3e 86 c5 75 3e 22 5e 5f bd
       0.19435993 0.17931747 0.2400113 -0.05453313
000020 40 81 a1 be e8 6b 84 bd 5d 63 83 be 01 38 1e 3e
       -0.31543922 -0.06465894 -0.25661746 0.15451051
000030 e6 4d c3 3d 8c ea f2 3c 23 53 b5 bd bc cb f4 3c
       0.09536342 0.029652856 -0.08853748 0.029882304
000040 5b 47 8b 3e 2b 39 c5 3e 48 07 74 be 08 fb 5d be
       0.27202877 0.38520178 -0.23830903 -0.21677792
000050 6f c9 ac be 85 e5 31 3e f3 80 c2 3c ca 82 5b 3e
       -0.33747432 0.17372711 0.023743128 0.21436611
000060 e6 4a 1c 3d 70 a9 fe 3d 14 ec 7e bd f3 cd 44 be
       0.038157366 0.124346614 -0.06223686 -0.19219188
000070 63 ee 8d 3d af a2 77 3e 55 52 d1 be c7 3f d0 3d
       0.06930234 0.24183153 -0.40883127 0.101684146
000080 89 6c ef bd 21 19 0e be 8a aa 34 be 39 c5 48 bd
       -0.11690623 -0.13876773 -0.1764318 -0.04901621
000090 87 f4 11 3e 11 b4 89 bc 16 f4 87 3c 7b 7f d1 bc
       0.14253436 -0.016809495 0.016595881 -0.025573483
0000a0 87 ad cb 3d 17 dc ad be 66 90 9a 3d 9b 44 11 3f
       0.09945207 -0.33956978 0.07547073 0.5674531
0000b0 7d da df bd fd e9 d5 3d 37 2d 71 be 72 7f 6f bd
       -0.10930345 0.1044502 -0.23552404 -0.05847115
0000c0 f6 f5 67 be 4e 0b 6d 3e 61 8e 25 3e 6b 38 5a 3d
       -0.2265242 0.23148844 0.16167594 0.05327646
0000d0 84 9d bd bd 3a f7 37 3e d3 d9 6a 3d 7a 33 73 3c
       -0.09258559 0.17965403 0.05733664 0.014843816
0000e0 a0 07 90 3e 9e 6e b2 be b7 86 9b bc 1a d9 04 bf
       0.28130817 -0.3485002 -0.018985135 -0.5189377
0000f0 f9 b2 15 3e ff 81 e4 bd 5a 08 1a 3e 81 b2 9e bd
       0.14619054 -0.11157607 0.15042248 -0.07748891
000100 37 cf 54 3e 2c 25 8e 3e da 94 d4 bc de 8a 83 bd
       0.20782171 0.27762735 -0.025949884 -0.06422971
000110 1e 97 ad 3c b9 54 58 3e e3 c7 fe 3d 84 ce fd bd
       0.021190222 0.21126069 0.12440469 -0.12392905
000120 1a 62 4c 3d a6 2b 58 3e 67 a5 16 3e 3e 7b 1f be
       0.049898244 0.211104 0.14711533 -0.15574357
000130 94 82 24 3d 53 ec f3 bc ab f6 4f 3e f8 55 4e bd
       0.04016359 -0.029775774 0.2030894 -0.050374955
000140 4a f5 d6 3d a0 39 8e 3e 1d ce 5c 3e c0 dd 12 bd
       0.10496004 0.2777834 0.21563001 -0.03585601
000150 8a aa 86 3e f5 f2 92 3d 72 22 b4 bd 0c fc b5 3e
       0.26301986 0.071752466 -0.087956324 0.3554386
000160 d2 47 90 3e 7b 83 73 3e 7d c9 17 3d 70 9a fa be
       0.28179795 0.23780625 0.03705739 -0.4894595
000170 91 a5 8a 3e d4 30 27 be 34 aa ce 3e 80 30 46 3e
       0.27079442 -0.1632722 0.4036423 0.19354439
000180 56 df b9 3d 12 c9 9e 3e 5b 7b 8a 3d 49 eb 56 be
       0.09075801 0.3101278 0.067618094 -0.20988192
000190 80 df 3d 3e a0 a2 8d be d3 33 99 be da 92 a0 3e
       0.1854229 -0.27663136 -0.2992235 0.3136204
0001a0 c1 d4 4f 3f 82 81 a0 3e 2a e8 34 bf d8 d0 aa bf
       0.8118401 0.31348807 -0.70666754 -1.3344984
0001b0 a7 81 09 3e c9 88 22 bf f6 df 57 3e 25 99 9b 3d
       0.13428365 -0.6348997 0.21081528 0.075975694
0001c0 cd c0 20 bf 6e 0c 3b 3e 1e 53 4b be d0 00 c5 3e
       -0.6279419 0.1826646 -0.19855925 0.38477182
0001d0 7c 69 1a be ef 9a 90 be 5b 22 42 3f 17 5d a4 be
       -0.15079302 -0.28243205 0.7583367 -0.32102272
0001e0 6c 69 cb 3d d9 de 1a 3f 2e 95 0e 3f e8 c7 91 3d
       0.09932217 0.6049629 0.5569638 0.07118207
0001f0 0b 1b cf be 78 9d f4 3d 9e c4 03 bf 84 89 44 bf
       -0.4045032 0.11944097 -0.5147189 -0.7677233
000200 4d 1c 46 bf 36 bc 9a be cf 99 08 bd 77 8c 4c 3d
       -0.77386934 -0.3022172 -0.03334981 0.049938645
000210 22 89 b9 3e a1 ab 35 3f 4e 0a 89 be 7f 1b a7 bd
       0.36237437 0.7096501 -0.26765674 -0.08159541
000220 45 18 06 bf 95 b7 99 3b 9c 13 ea be 57 3d a3 3e
       -0.5238078 0.004691074 -0.45718086 0.31882736
000230 dd e5 b2 3d d9 2b 85 3e ef 2e 41 3e 83 ed 00 bf
       0.08735249 0.26010016 0.1886556 -0.50362414
000240 72 6f 0e 3e bc 87 21 bf 94 fd e8 3e d9 d2 96 3d
       0.139097 -0.6309774 0.45505965 0.07364435
000250 ad e8 09 3e 20 8e 54 bf ed 90 67 3e 6b ef e2 bb
       0.13467665 -0.83029366 0.22613879 -0.0069255135
000260 5f 8f 28 3e 47 4b 09 be 52 ef f0 be 14 98 50 bf
       0.16460942 -0.13407622 -0.47057587 -0.8148205
000270 66 fb d1 be 62 8e 04 3e 6d 5b b5 3e c8 ce 05 3f
       -0.41012114 0.1294494 0.35421315 0.5226865
000280 9f 81 c8 bd a9 bc 80 3e e2 97 39 be f0 55 58 bd
       -0.09790348 0.25143936 -0.18124345 -0.05281633
000290 bc f1 04 3e da 8e 8f 3e ce ef 16 3d 9c 94 dc be
       0.1298284 0.28038675 0.03684979 -0.4308213
0002a0 d1 c8 2e be 96 fa 64 3e 1d 02 21 3f a5 de 30 3e
       -0.17068793 0.22361216 0.6289385 0.17272432
0002b0 98 0a e0 3e db 47 48 bf 55 76 b8 3e 0f 34 a2 be
       0.43758082 -0.7823464 0.3602778 -0.31680343
0002c0 3e 2f 2e bd e2 f6 91 3e ac d4 b3 3e e8 ca 2c bf
       -0.042525522 0.2850867 0.35123193 -0.6749711
0002d0 f4 5d 81 be 5f e3 af be e8 2e eb be 6b af b6 3d
       -0.25266993 -0.34353158 -0.45934224 0.08920177
0002e0 39 2c a8 bd 2d ac 15 bf 4a 3a f0 3d 9f b2 16 bf
       -0.0821156 -0.58465844 0.11729868 -0.58866304
0002f0 9d b9 e1 bc 5a d3 bb 3e 4d 8d 60 3f 65 9c 1b 3f
       -0.027554328 0.36684686 0.8771561 0.60785514
000300 6c 13 15 3e 5f c4 6b 3e f7 49 b1 be 16 1e 52 3d
       0.1455819 0.23024128 -0.34626743 0.051298223
000310 83 77 9f bc 0d 7c 68 be e6 5c 02 bf 3a f9 67 bf
       -0.019466167 -0.22703572 -0.50923 -0.90614665
000320 d5 f1 31 be a7 36 8a be 4a 71 92 3e 95 93 8b 3d
       -0.17377408 -0.2699482 0.28602058 0.068152584
000330 00 0a b2 3c 37 8b 11 be 9c df b7 be d1 10 a3 be
       0.021733284 -0.14213262 -0.35912788 -0.31848767
000340 78 f9 e2 3e e8 93 67 3d 2f 5a 81 3e 1f 31 29 be
       0.44330955 0.05653754 0.25264117 -0.16522644
000350 cf 60 84 be b5 88 fb 3d 35 fa 2a bd 68 9a 56 3e
       -0.2585511 0.12281934 -0.041742522 0.20957339
000360 07 63 fb be 09 16 9e be 7c 19 fc 3e 19 05 1c 3e
       -0.4909899 -0.30876186 0.49238193 0.1523632
000370 0e f2 d2 3e 28 6c ed bc 51 26 2a 3e 2b 1a 50 be
       0.41200298 -0.028982237 0.16616179 -0.20322482
000380 46 a8 1a be 8c d8 33 be 99 9e 53 be 07 fa 98 bd
       -0.15103254 -0.17563075 -0.20665969 -0.07469564
000390 9f 7e a0 be 87 36 b1 be 26 67 f4 3e 23 96 89 bd
       -0.31346604 -0.34611914 0.47734946 -0.067180894
0003a0 62 15 42 3e be 4b 46 3e 6a a2 8b 3d 2a a8 10 be
       0.1895347 0.19364831 0.068180874 -0.1412665
0003b0 9f 19 53 be 53 88 aa 3d b6 7f 28 be 54 1f b7 bc
       -0.20615242 0.08326783 -0.16454968 -0.022353806
0003c0 4d 9a 39 3d aa 8c be 3e 56 31 83 3d 03 31 2b bf
       0.04531317 0.37216693 0.064058945 -0.6687166
0003d0 86 62 74 3d b9 9d c3 be 19 66 d7 3e 70 04 25 3d
       0.05966427 -0.3820627 0.42070082 0.040287435
0003e0 99 cb e0 3e 20 5c 00 bf 9a cc 6e be c9 ab 66 3d
       0.43905333 -0.5014057 -0.23320237 0.05631617
0003f0 54 da 3c 3e 65 55 95 be b1 2f 87 be 92 53 92 be
       0.1844266 -0.29166713 -0.26403573 -0.28579384

bias f4 [100]
000000 4d 73 4f bd 28 05 a1 3c d0 81 ac bd 9d 5c c3 bd
       -0.05064707 0.019655779 -0.08423197 -0.09539149
000010 17 37 6e bd bc 18 50 3c df 29 01 bd c0 44 70 bc
       -0.058158007 0.01270121 -0.031534072 -0.014664829
000020 76 0a 84 bd 2a 76 95 3d 16 2e d6 3c 0f 88 f4 3c
       -0.06447308 0.07297929 0.026145022 0.029850034
000030 d7 7e 06 bd 7f 4b 80 3d 4b 79 e6 3c 43 66 27 bc
       -0.032835808 0.062644 0.028134009 -0.010217252
000040 1f c4 1b 3c 83 4c 9a 3c bf 9e a6 bd 7d 14 1b 3d
       0.009507208 0.018835312 -0.08135747 0.037861336
000050 b8 9a 8d 3b 46 0c af 3d 9b 3a bc bd 4b 51 76 3c
       0.0043214224 0.08547263 -0.091908656 0.01503403
000060 64 9c 4b bd d5 36 21 bd 4a 70 36 3d e7 b3 24 bd
       -0.049709693 -0.039358933 0.04454068 -0.04021063
000070 5a 1b 68 bd b6 ea 9f bd d8 19 1d bd 4b c2 bd 3d
       -0.05666671 -0.078084394 -0.038354725 0.09265574
000080 c7 97 16 3d 5a 0d c4 bd 92 8a ea bb 53 15 71 3d
       0.03676584 -0.09572859 -0.007157632 0.058858227
000090 3f ab 48 3d 4e 72 0a 3d 87 c4 ae 3d 55 1f c4 3d
       0.048991438 0.033800416 0.08533578 0.095762886
0000a0 36 91 18 bd a5 92 66 bc e8 e4 74 bd d5 6e 1d bd
       -0.03724786 -0.014073049 -0.059788615 -0.038435776
0000b0 c8 ff 25 3d ef ed c3 3d 71 7e 52 3d f8 e1 cd 3c
       0.040527135 0.095668666 0.051390115 0.025132164
0000c0 61 d6 99 3c 4a 9d 0f 3d 9d 41 24 bd d0 08 24 3d
       0.018778982 0.035062112 -0.040101636 0.040047467
0000d0 6f 16 48 3d 01 ef cc bc 0d 18 88 bc 7a f3 e8 3c
       0.04884952 -0.02501631 -0.01661303 0.028436411
0000e0 a3 fe 42 bd 59 9c 41 3d 15 2a 38 3d 9b be b2 bc
       -0.04760612 0.047268245 0.044962008 -0.021819403
0000f0 71 47 7e bd bf 77 93 bb 2c fd 7c bd 20 58 a3 3d
       -0.06207985 -0.004500359 -0.06176488 0.07975793
000100 e4 fc b9 bd 1c 2c bf bd 28 41 88 bd 1b 6f b6 bd
       -0.09081438 -0.09334585 -0.066530526 -0.089079104
000110 1b 80 af bc 6c 05 d3 3b b9 26 d8 3c 27 e0 8b bc
       -0.02142339 0.0064398553 0.026385652 -0.017074658
000120 50 c5 23 3c 27 66 aa bd c1 da c4 bd 52 c9 6a bd
       0.009995773 -0.08320265 -0.096120365 -0.0573209
000130 8e 41 6a bd 73 8d 1d 3d 50 72 39 bc 13 65 43 bd
       -0.057191424 0.038464975 -0.011318758 -0.047703814
000140 58 01 a2 bd ee ba a9 bc 7f 60 f5 bb 20 4c 67 bc
       -0.079104125 -0.020719018 -0.00748831 -0.014117271
000150 f7 1f 72 3c 70 b3 b7 3d 95 a9 ef 3c ed 1a 5c bd
       0.014778129 0.08969772 0.029255668 -0.053736616
000160 ff d8 80 3d 3e 6f bd bd 02 f2 94 3c 33 32 b6 bc
       0.06291389 -0.092497334 0.018181805 -0.022240734
000170 24 44 2e 3d de f6 31 bc b7 41 b4 bd c5 d8 b6 3d
       0.042545453 -0.01086208 -0.088015966 0.08928064
000180 25 9d 50 bd e7 fe b9 bd 83 1b 81 3c 6c 33 c8 3d
       -0.050931115 -0.09081822 0.015760189 0.09775433

weight f4 [1, 100]
000000 fb c8 61 3f 25 6e a4 bf 18 a1 b5 bf 68 d5 21 bf
       0.88197297 -1.2846113 -1.4189787 -0.6321626
000010 55 6b 1d 3e c0 cc 1e c0 e8 1e d0 3f ae 13 e9 3e
       0.15372975 -2.481247 1.6259432 0.45522827
000020 b9 ef da 3f 8f 42 14 3f 4a 2e bd be e3 d3 47 3f
       1.7104408 0.5791406 -0.36949378 0.7805769
000030 34 8a d1 3f 03 e4 5f 40 d5 9b 21 bf 7d 5e 92 bf
       1.6370301 3.4982917 -0.63128406 -1.1435086
000040 42 10 b7 bf a0 3f 8b 3f 8e a6 af bf c8 52 40 bf
       -1.4301836 1.0878792 -1.3722703 -0.75126314
000050 14 c5 a1 3f 8e 4f 05 be 75 9b 17 40 10 43 ae bf
       1.2638268 -0.13018629 2.3688633 -1.3614216
000060 53 e2 14 bf 96 95 ad be 31 8e 07 40 bd 70 1f c0
       -0.58157843 -0.33903188 2.1180537 -2.491256
000070 1c ae 70 3e 17 55 67 3c 72 aa 95 3f 1a 84 63 3f
       0.23503917 0.014119408 1.1692641 0.88873446
000080 c1 9d 5e 3f 1e e2 1b c0 50 f0 1b c0 1c 62 b4 3e
       0.86959463 -2.435676 -2.4365425 0.35231102
000090 32 48 f6 be a9 99 2a c0 45 5f 86 3f 1c 24 ad 3f
       -0.48101956 -2.6656287 1.0497824 1.3526645
0000a0 da 90 9d 3f ca 2a 06 c0 6f 18 07 c0 22 ff a9 3f
       1.230983 -2.0963616 -2.1108663 1.3280985
0000b0 81 47 98 3f 94 b5 81 bf 83 05 bb bf 3e 91 70 bf
       1.1896821 -1.0133538 -1.4611057 -0.9397162
0000c0 d1 b6 05 bd 2a 84 0f c0 ed 87 9c bf e4 f6 fd be
       -0.03264505 -2.2424417 -1.2228981 -0.49602425
0000d0 a1 3f ea bf 0f b5 d5 3d 98 83 3f bf 0c 16 a1 3e
       -1.8300668 0.10434925 -0.7481017 0.31462133
0000e0 42 e5 d9 3e 8f 0b 7f 3f 34 41 de be 0f e0 50 3f
       0.42557722 0.9962701 -0.4340912 0.81591886
0000f0 4a 93 15 40 42 2a 57 3e ea 29 55 be 96 2f 34 be
       2.3371148 0.21012214 -0.2081677 -0.17596278
000100 18 35 4c bf 2b f3 5e be 2d f7 84 bf 26 c5 37 be
       -0.79768515 -0.21772449 -1.0387932 -0.179463
000110 62 8e 2c 3f 00 22 d8 bc 69 c3 a7 bf 31 75 6a 3e
       0.6740476 -0.0263834 -1.310651 0.22896267
000120 70 2e 6a 3f a3 74 b7 3f 75 02 4a be 4e ab 8c be
       0.9147711 1.433247 -0.197275 -0.27474445
000130 ea 55 95 3f 31 56 17 bf 15 1d 94 3f d7 94 9b 3f
       1.1666844 -0.5911589 1.1571375 1.2154797
000140 87 25 bf 3f 82 5f 09 3e 93 df 38 3f 32 92 ec be
       1.4933327 0.1341534 0.7221615 -0.46205288
000150 75 8f 23 3f 9b 3a f0 bd b1 53 de bf d2 cf 26 40
       0.63890773 -0.11729928 -1.736929 2.6064343
000160 ce 9a 34 bf 56 a7 82 bf 7f f5 e4 3f 25 35 d1 3f
       -0.70548713 -1.0207317 1.788742 1.6344343
000170 fc 95 ac bf 47 31 ee 3c e1 bc 9f be dd bf d8 3f
       -1.3483272 0.029076232 -0.3119879 1.6933552
000180 1c 5a 0b c0 13 ab 97 3d 9f c1 d8 3e 7b 54 87 3f
       -2.1773748 0.07405677 0.4233522 1.0572656
