Backgammon2/pub_stomper_repository/nn_oli_model.pt (torch_old, 722957 bytes, 5 tensors)

weight f4 [250, 464]
0	0xbd2f194b	-0.04274873
1	0xbc89daae	-0.016827907
2	0x3d2aca59	0.04169688
3	0xbd24e6d6	-0.040259205
4	0xbd075c41	-0.033046965
5	0xbd0530a8	-0.032517105
6	0xbd278a7b	-0.04090355
7	0x3d28a611	0.041174
8	0xbc618cf0	-0.013766512
9	0x3d174205	0.036928196
10	0x3bef32b8	0.0072997473
11	0xbcfb12e7	-0.030648662
12	0xbcc08c2a	-0.023504335
13	0xbd3a0b44	-0.0454209
14	0x3bd66500	0.006542802
15	0xbce06659	-0.027392553
16	0x3d15333a	0.036425807
17	0xbc801478	-0.01563476
18	0xbb8998a1	-0.004199103
19	0x3d2176f1	0.039420072
20	0x3d156e0b	0.0364819
21	0xbd212cab	-0.03934924
22	0x3d3656a6	0.04451623
23	0x3cfde7c1	0.030994298
24	0x3ce51e48	0.02796854
25	0x3c41227c	0.011788007
26	0x3be84f2c	0.007089516
27	0xbc64aca1	-0.013957174
28	0xbd08606c	-0.03329508
29	0x3cdf4c1d	0.027257973
30	0xbd0b523f	-0.034013983
31	0xbac06780	-0.0014679283
32	0xbb312977	-0.0027032772
33	0x3d21af5c	0.039473876
34	0xbc8f9c39	-0.017530547
35	0x3c69c7d2	0.014268832
36	0xb942cb05	-0.00018576912
37	0xbc43b313	-0.01194455
38	0x3d19a17c	0.03750752
39	0xbd346ed8	-0.04405102
40	0x3c968a77	0.018376572
41	0x3d342148	0.043977052
42	0x3cc96527	0.024584366
43	0x3cb66ba1	0.022268118
44	0xbd116e69	-0.035505686
45	0x3b808a4d	0.0039227367
46	0xbd17a876	-0.03702589
47	0x3c518910	0.012789026
48	0xbd2939b3	-0.041314792
49	0x3cce4789	0.025180595
50	0xba55610b	-0.00081397657
51	0xbcb8c3a5	-0.022554228
52	0xbb4dfa54	-0.0031429725
53	0xbc1eb137	-0.009685806
54	0x3cf574a0	0.029962838
55	0xbc3d8df6	-0.011569491
56	0x3d132824	0.035926953
57	0xbc659918	-0.014013551
58	0x3d298145	0.041383047
59	0x3cdce5d2	0.026965056
60	0xbc50bb98	-0.012740038
61	0x3cab41d6	0.020905416
62	0x3c92d83a	0.01792537
63	0x3d0da2cf	0.034579094
64	0x3c07e510	0.008294359
65	0x3cecae18	0.028891608
66	0xbca4a610	-0.020098716
67	0xbd2c4878	-0.0420613
68	0x3c83b708	0.016078487
69	0x3ccc33df	0.024927078
70	0xbc05197a	-0.00812375
71	0x3d12400d	0.035705615
72	0xbb410895	-0.0029454578
73	0xbd30b0d9	-0.043137405
74	0xbd21c73d	-0.03949665
75	0x3d1be3dd	0.038059104
76	0xbd2d5422	-0.042316563
77	0xbcd63bf3	-0.026151633
78	0xbad75380	-0.0016428083
79	0x3b063250	0.0020476766
80	0x3c1e2dd3	0.00965448
81	0xbc52aefd	-0.012859103
82	0xbba297cb	-0.004961943
83	0x3c998d8d	0.018744254
84	0x3b8b6d49	0.004254971
85	0x3c138fae	0.009006424
86	0x3c8efd78	0.017454848
87	0x3d0aeab4	0.033915237
88	0x3d255127	0.040360596
89	0x3cb6d602	0.022318844
90	0xbd33add9	-0.043866966
91	0x3d00cb1b	0.031443696
92	0x3c6491b1	0.013950751
93	0xbcb2709d	-0.021782214
94	0x3d30574d	0.043052007
95	0x3d06e003	0.032928478
96	0x3c88f29e	0.016717251
97	0x3d12a45f	0.035801288
98	0xbcbd7a29	-0.02312954
99	0xbcbc535d	-0.02298897
100	0x3cd52085	0.026016483
101	0x3d177ef0	0.03698629
102	0x3c965f40	0.018355966
103	0x3cfb6c9b	0.030691436
104	0xbd2937ec	-0.041313097
105	0xbd2b0cb4	-0.04176016
106	0xbd0454b5	-0.032307345
107	0xbc5d3a86	-0.013502723
108	0xbd097f8e	-0.03356891
109	0x3b440990	0.0029912926
110	0x3cb08ff2	0.021553013
111	0xbd36548b	-0.04451422
112	0x3cb26bad	0.02177986
113	0xbc793078	-0.01520931
114	0x3c90f6e3	0.01769585
115	0x3d1c4e08	0.038160354
116	0x3bb80760	0.0056161135
117	0x3cf91052	0.03040329
118	0x3c0e9d88	0.008704551
119	0x3cdfc792	0.027316842
120	0x3bad5ae0	0.005290374
121	0x3bd3e140	0.006466061
122	0x3c6e4364	0.014542434
123	0xbd3d744d	-0.04625349
124	0x3cd6b34a	0.026208539
125	0x3c863f6e	0.016387668
126	0x3ce437c6	0.027858626
127	0x3abe7fe0	0.0014533959
128	0xbd00aee1	-0.031416778
129	0xbcbf2780	-0.023334265
130	0xbc3bc598	-0.011460684
131	0x3cb54082	0.022125486
132	0x3d38af93	0.045089316
133	0x3c5a5e74	0.013328183
134	0x3ca56924	0.020191737
135	0x3bb3df25	0.0054892474
136	0x3c424c77	0.011859051
137	0x3d2fa2ec	0.042879984
138	0x3d0dcfb1	0.034621898
139	0xbd05ef5a	-0.032698967
140	0x3d3c5911	0.045983378
141	0x3cf54c7e	0.0299437
142	0x3cb845da	0.022494245
143	0xbd377b23	-0.044795167
144	0xbc3df29b	-0.011593486
145	0xbd3a2bd8	-0.04545197
146	0x3d29128d	0.041277457
147	0xbc6ac9cc	-0.014330339
148	0xbd0a692c	-0.033791706
149	0xbd21856e	-0.03943389
150	0xbd26af3c	-0.04069446
151	0xbc5a84f4	-0.013337363
152	0x3cf32802	0.029682163
153	0xbd1e2954	-0.038613632
154	0x3c886972	0.016651843
155	0x3d1f6b9f	0.038920995
156	0x3d122e8f	0.035688933
157	0x3c152244	0.009102408
158	0x3c963e12	0.018340144
159	0x3cba3642	0.02273095
160	0x3cc9f9e1	0.024655284
161	0x3c82c445	0.01596273
162	0x3ca86c10	0.02055934
163	0x3d3fb529	0.046803627
164	0x3a74b566	0.0009334892
165	0x3af5d741	0.0018756167
166	0x3ae1f400	0.0017238855
167	0xbd36c811	-0.044624392
168	0x3cb47a2e	0.022030916
169	0x3d2891c1	0.041154627
170	0xbce81f40	-0.028335214
171	0xbcb22568	-0.021746352
172	0x3d178f1f	0.037001725
173	0xbd3aa757	-0.045569744
174	0x3c295be0	0.010336846
175	0x3ccfa4fe	0.02534723
176	0xbd25ca66	-0.040476225
177	0xbd36f25f	-0.044664737
178	0xbd223578	-0.039601773
179	0x3b70d840	0.0036749989
180	0xbc783270	-0.015148744
181	0xbcc00b95	-0.023443023
182	0x3cd64f96	0.026160996
183	0x3d31d6cd	0.04341774
184	0x3cae2482	0.021257643
185	0xbcc6e00e	-0.02427676
186	0xbd03aef5	-0.032149274
187	0xbcddb205	-0.027062425
188	0x3bebd430	0.0071969256
189	0x3c3a7598	0.011380576
190	0x3c2bd2dc	0.0104872845
191	0x3d2b9a05	0.04189493
192	0x3cc756ec	0.02433344
193	0x3c94c94d	0.018162394
194	0xbd334421	-0.043766145
195	0x3cd7ab03	0.026326662
196	0xbd358c39	-0.04432318
197	0x3d36af34	0.04460068
198	0xbce701b8	-0.028199062
199	0x3d236fd9	0.039901588
200	0x3d1f3df3	0.03887744
201	0x3bc1ed90	0.0059182122
202	0xbd283877	-0.041069474
203	0xbba11548	-0.004915867
204	0xbb17e380	-0.0023176372
205	0x3b4b9640	0.0031064898
206	0x3c956f2a	0.018241484
207	0xbcc43e78	-0.023955569
208	0xbcd6f7d1	-0.026241215
209	0xbcc2580c	-0.023723625
210	0x3d025dea	0.031827845
211	0x3c896f84	0.016776808
212	0xbba76e69	-0.0051095975
213	0xbd30977d	-0.04311322
214	0xbbdc8218	-0.0067293756
215	0x3b4b5600	0.0031026602
216	0xbcde41fb	-0.027131071
217	0xbcbc3ea2	-0.022979084
218	0xbcfd8821	-0.0309487
219	0xbc77b4b0	-0.015118763
220	0xbc9fea9d	-0.019521052
221	0x3d162c47	0.03666332
222	0x3d03c69b	0.032171827
223	0x3cc0a94a	0.023518223
224	0xbcce5eea	-0.025191743
225	0xbbcd5989	-0.006266777
226	0xbbee4460	-0.0072713345
227	0xbd0b554b	-0.03401689
228	0xbca49ac3	-0.020093327
229	0x3cefdc9a	0.029279996
230	0xbcfbe1f6	-0.030747395
231	0xbd0fa181	-0.03506613
232	0xbd37b8ce	-0.044853978
233	0xbb655a90	-0.0034996606
234	0x3cc5a7ea	0.02412792
235	0xbd388fcf	-0.04505902
236	0xbc7c1ff0	-0.015388474
237	0x3c9b60ae	0.018966999
238	0xbd33d9c0	-0.043908834
239	0xbca56cba	-0.020193446
240	0xbd324cd4	-0.0435303
241	0xbc96b829	-0.018398361
242	0x3cd06ffe	0.025444027
243	0x3bd8c450	0.006615199
244	0xbce39ae1	-0.027783813
245	0xbbeebf90	-0.0072860196
246	0xbcca255e	-0.024676021
247	0xbb1c9cc0	-0.0023897141
248	0xbb006630	-0.0019592158
249	0x3ceb0f96	0.028693955
250	0x3d074d0d	0.033032466
251	0xbcdbef38	-0.026847467
252	0x3ca789b6	0.020451408
253	0xbd182c0b	-0.037151378
254	0x3d2161a7	0.03939977
255	0xbc6adde0	-0.014335126

bias f4 [250]
0	0x399fb9d7	0.00030465305
1	0x3d40a95c	0.047036514
2	0xbc1c442e	-0.00953774
3	0xbc53272a	-0.012887755
4	0x3b0fbdbd	0.0021933161
5	0x3c1d15bd	0.009587702
6	0xbc14c629	-0.009080448
7	0xbd1cb9ea	-0.03826324
8	0xbcd33531	-0.0257822
9	0xbb05a180	-0.002039045
10	0xbcc82e4d	-0.02443614
11	0x3d00baa9	0.031428013
12	0xbc2a0704	-0.010377649
13	0x3d1bbaf9	0.038020108
14	0xbcbd9306	-0.023141395
15	0x3cee256b	0.029070577
16	0x3ce11d7b	0.027479878
17	0xbd420d41	-0.04737592
18	0x3d0a2a62	0.033731826
19	0xbcd33021	-0.025779786
20	0xbcf5b60d	-0.029994035
21	0x3d2c5913	0.042077135
22	0xbd45aa29	-0.04825798
23	0xbd135d7e	-0.035977833
24	0xbc98608e	-0.018600728
25	0xbcf6a066	-0.03010578
26	0xbcdf81be	-0.027283546
27	0x3cc537ec	0.024074517
28	0xbd4d3c65	-0.050106425
29	0x3d172ccd	0.03690796
30	0xbd3be1c5	-0.045869607
31	0x3c9377ae	0.018001404
32	0x3cd36e64	0.025809474
33	0x3cdbfb90	0.026853353
34	0xbc7ab0ed	-0.015300971
35	0x3be72722	0.0070542255
36	0x3d13e39b	0.036105733
37	0x3cba3dc9	0.02273454
38	0x3d2473d3	0.04014952
39	0xbc77bbe0	-0.0151204765
40	0x3ca37282	0.019952063
41	0x3c84dc66	0.016218375
42	0x3b46dc08	0.0030343551
43	0xbd33a5c3	-0.043859255
44	0x3c875ba0	0.016523182
45	0xbc260d96	-0.010135075
46	0x3d46ea8f	0.048563536
47	0xbbfed001	-0.007776261
48	0x3cb55f3a	0.022140134
49	0xbcef81d3	-0.02923671
50	0x3d310061	0.043213252
51	0xbd3e400c	-0.0464478
52	0xbc03ee64	-0.008052442
53	0x3d18c37a	0.037295796
54	0xbc84a775	-0.016193131
55	0xbcda1eb7	-0.026625974
56	0xbceae9f5	-0.028676013
57	0x3d329270	0.043596685
58	0x3baf72db	0.005354268
59	0x3caf8320	0.02142483
60	0xbc2f360d	-0.010694039
61	0x3c3daa5b	0.01157626
62	0xbd2bc5d9	-0.04193673
63	0xbc9c4509	-0.019075887
64	0x39dcfe7d	0.00042151278
65	0x3d04a943	0.032387983
66	0x3ae49085	0.001743809
67	0xbcdf747c	-0.027277224
68	0xbcf35df2	-0.029707883
69	0x3cd98e27	0.026557041
70	0x3cce2f66	0.025169086
71	0xbbc71934	-0.0060760025
72	0xbbc758e1	-0.0060835932
73	0x3d3bdcea	0.045864977
74	0xbccf5a5e	-0.025311645
75	0x3b41b404	0.002955676
76	0x3cc16cb0	0.023611397
77	0x3cf17409	0.029474275
78	0x3b4d8707	0.0031361
79	0x3d0cb540	0.03435254
80	0x3cdfd8d7	0.027325077
81	0xbca3824e	-0.019959595
82	0x3c2afe4c	0.010436606
83	0xbcda05f2	-0.026614163
84	0xbd4c7085	-0.049911994
85	0xbce44535	-0.027865032
86	0x3c90314c	0.017601632
87	0x3c9a9646	0.018870484
88	0xbd12d870	-0.035850942
89	0xbcac4305	-0.021028051
90	0x3ccab0d1	0.024742516
91	0xbd278338	-0.040896624
92	0xbca92a6f	-0.020650117
93	0x3c9a71aa	0.018853027
94	0xbcb858b1	-0.022503229
95	0xbc740bef	-0.014895423
96	0x3ae3f280	0.0017390996
97	0xbcb8f3f0	-0.022577256
98	0x3d0f59f7	0.034997907
99	0x3d1e7607	0.03868678
100	0xbd41beea	-0.04730121
101	0xbbd6489c	-0.0065394174
102	0x3c101a86	0.008795386
103	0x3ac160f8	0.001475363
104	0xbcc546d0	-0.024081618
105	0x3c983b34	0.018582918
106	0xbc0c463e	-0.008561669
107	0xbc8f767e	-0.017512556
108	0x3ba84155	0.0051347413
109	0x3c6dec84	0.014521722
110	0x3c038100	0.008026361
111	0x3cd320ce	0.025772478
112	0x3b70e8f1	0.0036759938
113	0x3c8bc0c3	0.01705969
114	0x3c96320e	0.018334415
115	0x3c8795e1	0.01655096
116	0xbc0650be	-0.008197961
117	0xbd04d287	-0.032427337
118	0xbcd152fb	-0.025552263
119	0x3d38e7e0	0.04514301
120	0x3d1474a8	0.036244065
121	0x3cf69912	0.030102286
122	0x3b96135f	0.004579946
123	0xbc773b46	-0.0150898155
124	0xbd03e8c0	-0.03220439
125	0x3c985693	0.01859597
126	0x3d1fae08	0.03898433
127	0xbc06f128	-0.008236207
128	0xbb0091a0	-0.001961805
129	0x3cb18896	0.021671575
130	0x3d4b2016	0.049591146
131	0xbd14fec1	-0.036375765
132	0xbd152678	-0.03641364
133	0xbaec231f	-0.0018015838
134	0x3d28e9b5	0.041238505
135	0xbbbc1c1b	-0.005740655
136	0x3d205e65	0.03915252
137	0x3d2deb0b	0.042460483
138	0xbb65d518	-0.003506964
139	0xbd34fb78	-0.04418513
140	0x3a490bfd	0.0007669328
141	0x3d47f6e0	0.048819423
142	0xbb29273e	-0.0025810744
143	0x3d313fe2	0.043273814
144	0x3c338787	0.010957605
145	0xbce5d1b2	-0.028054092
146	0xbd0340b5	-0.03204413
147	0xbcea0cc7	-0.028570546
148	0x3d392749	0.04520348
149	0x3b6e2e80	0.0036343634
150	0xbd2a1087	-0.041519668
151	0xbc30193a	-0.010748202
152	0x3b617a86	0.0034405305
153	0x3c347d4a	0.011016199
154	0x3c3bb527	0.011456764
155	0x3c88c976	0.016697627
156	0x3bcb961c	0.006212963
157	0xbc23426e	-0.009964569
158	0xbce77fc2	-0.028259162
159	0x3d0b317c	0.03398274
160	0x3cdc7964	0.026913352
161	0xbc5386b9	-0.012910538
162	0x3d0f5b5b	0.034999233
163	0x3c7e65b3	0.015527177
164	0xbc086e4c	-0.008327078
165	0xbc4c743e	-0.012478886
166	0xbd24ad0d	-0.040204097
167	0x3be44a3b	0.006966857
168	0xbd08c5c6	-0.033391736
169	0xbc3e42ae	-0.011612577
170	0xbc7136b4	-0.014722515
171	0x3d25c1fc	0.0404682
172	0xb9b46a03	-0.0003441126
173	0xbd09018e	-0.03344875
174	0x38abfd7e	8.201132e-05
175	0xbcc36ce6	-0.023855638
176	0x3cc6f94e	0.0242888
177	0x3d073a91	0.033014838
178	0x3cb87ff6	0.022521954
179	0xbbe9c789	-0.007134382
180	0xbd467102	-0.048447616
181	0x3c712b24	0.014719758
182	0xbd4ec24c	-0.050478265
183	0x3ccff696	0.025386136
184	0x3d3f295c	0.046670303
185	0x3c9af6bd	0.018916482
186	0xbcdce9a4	-0.026966877
187	0xbbc8ef75	-0.006132061
188	0xbcc2a6af	-0.023761122
189	0x3c07f29d	0.00829759
190	0xbd34b041	-0.0441134
191	0x3c687c9b	0.0141898645
192	0xbbab8fda	-0.0052356543
193	0xbcd60774	-0.0261266
194	0x3c3f4c45	0.011675899
195	0x3c9cebab	0.019155344
196	0x3d186f84	0.037215725
197	0xbc9b9ab2	-0.018994663
198	0xbc6a0424	-0.014283214
199	0xbbc938c5	-0.0061408007
200	0x3c720c25	0.014773403
201	0xbca85e06	-0.020552646
202	0x3d2559c9	0.04036883
203	0x3d24c395	0.040225584
204	0xbc11f4b6	-0.008908441
205	0x3d172b0f	0.0369063
206	0xbd193f86	-0.037414096
207	0xbcd82f79	-0.026389824
208	0x3c371264	0.011173818
209	0xbc356901	-0.011072398
210	0x3d002012	0.031280585
211	0xbcb1264b	-0.021624705
212	0x3cb68dea	0.022284467
213	0x3d0cfc95	0.03442057
214	0x3bf103c4	0.007355185
215	0x3d422410	0.047397673
216	0xbd15756c	-0.036488935
217	0xbc733c9e	-0.014845995
218	0x3c53cc81	0.0129271755
219	0xbacecac4	-0.0015776982
220	0xbb063f4a	-0.00204845
221	0x3cb735f6	0.022364598
222	0x3d44986c	0.047996923
223	0x3d04f9e7	0.032464888
224	0xbcdad86e	-0.02671453
225	0xbc17a3e2	-0.009255381
226	0xbd21625b	-0.03940044
227	0xbc9b4d34	-0.018957712
228	0xbc9a639e	-0.01884633
229	0x3d2f76d6	0.04283794
230	0xbbf3a9fd	-0.0074360357
231	0xbd1faa4d	-0.03898077
232	0x3b9b14d5	0.004732708
233	0xbc6d8126	-0.014496123
234	0x3c3019bd	0.010748324
235	0x3caf5fb0	0.021407932
236	0xbc89439f	-0.016755877
237	0xbc5619bd	-0.01306766
238	0xbbbc1f2e	-0.0057410216
239	0x3c7d723e	0.015469132
240	0xba881ab6	-0.0010383937
241	0x3c902c00	0.017599106
242	0xbcf76bdc	-0.030202799
243	0x3d39e86f	0.04538768
244	0xbcdff433	-0.027338123
245	0xbd629320	-0.05531609
246	0x3ce173fe	0.02752113
247	0x3a9a10a5	0.0011754228
248	0xbc116414	-0.008873958
249	0xbcc29d65	-0.023756692

weight f4 [250, 250]
0	0x3c7315e8	0.014836766
1	0xbb132249	-0.0022450855
2	0x3ce945a4	0.02847559
3	0xbc92d756	-0.017924946
4	0x3d139fbd	0.03604101
5	0x3ca0a3fc	0.019609444
6	0x3b0dc386	0.0021631434
7	0xbd65070b	-0.05591492
8	0xbb323429	-0.0027191734
9	0xbd42d88e	-0.047569804
10	0x3d712d27	0.05888095
11	0x3d458772	0.048224874
12	0x3d58641c	0.052829847
13	0xbd60e36e	-0.054904394
14	0x3d0413f6	0.0322456
15	0xbce213fc	-0.02759742
16	0x3d5e8dd5	0.05433448
17	0x3ca5905c	0.020210437
18	0xbcd10eaa	-0.025519688
19	0xbc807333	-0.015679931
20	0xbc088637	-0.008332781
21	0x3d5d99c8	0.054101735
22	0x3d787d68	0.06066647
23	0xbd60a06b	-0.054840486
24	0xbd29c2a6	-0.041445397
25	0x3d42ad37	0.04752847
26	0x3d3fffd1	0.046874825
27	0x3d621f77	0.05520579
28	0xba5cb487	-0.00084192347
29	0xbd71488b	-0.058907073
30	0xbcccadb0	-0.024985164
31	0x3cc46cbc	0.02397763
32	0xbd0a835c	-0.03381668
33	0xbc438f47	-0.011936015
34	0x3d12c4fc	0.03583239
35	0xbd4704e4	-0.04858865
36	0x3a8275fa	0.0009953373
37	0xbc27b331	-0.010235594
38	0x3d095cd0	0.03353578
39	0x3cc93bb9	0.02456461
40	0x3d64f9fc	0.055902466
41	0xbc989ca6	-0.018629383
42	0xbbd13b1a	-0.0063852193
43	0xbbf2e76b	-0.007412841
44	0xbd304bbd	-0.04304098
45	0x3cb70c64	0.022344775
46	0x3c78635c	0.015160408
47	0x3c03ad1d	0.008036879
48	0xbd154e57	-0.036451664
49	0x3d5d4549	0.054021154
50	0xbd54f776	-0.05199381
51	0xbd61d0a3	-0.055130612
52	0x3d4aa439	0.04947302
53	0xbacbace0	-0.0015539192
54	0x3cf4e2b4	0.029893257
55	0xbd06f7b1	-0.03295106
56	0x3d3a4808	0.04547885
57	0x3cc4b4a3	0.024011916
58	0x3d445519	0.047932718
59	0xbc2ec148	-0.010666199
60	0x3c5d7c96	0.013518473
61	0x3c7cc342	0.015427412
62	0xbd4e299d	-0.050332654
63	0xbcc98bbf	-0.024602769
64	0xbd1a6720	-0.037696004
65	0xbc0d1983	-0.0086120395
66	0x3c368836	0.011140874
67	0xbc703678	-0.014661424
68	0x3bed1307	0.0072349343
69	0xbd5e1f40	-0.05422902
70	0x3c0d699c	0.008631136
71	0x3c43dc77	0.011954418
72	0xbc8a5273	-0.016885018
73	0xbd5e2412	-0.054233618
74	0x3c23c0fb	0.009994741
75	0x3ccb7515	0.024836103
76	0x3d61f1f5	0.05516239
77	0xbbb439da	-0.0055000605
78	0xbcea760c	-0.028620742
79	0xbd52c22d	-0.05145471
80	0x3c7ca48f	0.015420093
81	0x3d2eb777	0.042655434
82	0xbd0e697e	-0.034768574
83	0xbcba5483	-0.022745376
84	0x3d72c3ce	0.059268765
85	0xbc844c52	-0.016149674
86	0xbd62909e	-0.0553137
87	0xbc7f6da9	-0.01559011
88	0x3d133d47	0.03594711
89	0x3b808fd7	0.003923397
90	0xbd57744a	-0.052601136
91	0x3d2c45eb	0.042058866
92	0x3c9f7260	0.019463718
93	0xbc8bbb85	-0.01705719
94	0x3d3d061c	0.046148404
95	0x3d67b431	0.05656833
96	0xbce3735e	-0.027764972
97	0xbcc76736	-0.024341207
98	0xbd056891	-0.032570425
99	0x3c225e5e	0.009910194
100	0xbc6edcfc	-0.014579054
101	0x3d2df4c0	0.04246974
102	0xbc179cb4	-0.0092536695
103	0xbcfdfd43	-0.031004554
104	0xbc998f0a	-0.018744964
105	0xbd65b7e7	-0.056083586
106	0x3c2b1ba8	0.0104436055
107	0xba9015fa	-0.0010992878
108	0xbd31c530	-0.043400943
109	0x3d2d0e34	0.042249873
110	0xbd3ca989	-0.04606012
111	0x3cdba12c	0.026810251
112	0x3ccd5908	0.025066867
113	0x3c9c86e8	0.019107297
114	0x3cd6e06e	0.026230063
115	0xbce7129e	-0.02820712
116	0x3d5c4e76	0.053785764
117	0xbd285132	-0.04109306
118	0xbb96e8cb	-0.004605388
119	0x3d222f6a	0.039596
120	0x3ce91a1a	0.028454829
121	0x3d44857e	0.04797887
122	0xbd169244	-0.036760584
123	0x3a449dd3	0.0007500324
124	0x3c052dea	0.008128623
125	0xbcf84d63	-0.030310338
126	0x3cafbb2d	0.021451557
127	0xbc42a544	-0.011880223
128	0xbc11bdbd	-0.008895335
129	0x3cc21799	0.023692893
130	0x3be01d41	0.006839425
131	0xbcd5e1f3	-0.026108718
132	0xbd63fd98	-0.055661768
133	0x3d0d8d55	0.034558613
134	0x3c6e9327	0.014561451
135	0xbb86de61	-0.004115865
136	0x3d712e45	0.058882017
137	0x3d292afd	0.041300762
138	0x3c3137bf	0.010816514
139	0xbb1a2850	-0.0023522563
140	0x3d6500b3	0.05590887
141	0xbcf8b47e	-0.030359503
142	0x3cee94fb	0.029123774
143	0xbd17a0d6	-0.03701862
144	0xbc8e3a8d	-0.017361904
145	0x3aa02c7d	0.001222029
146	0x3d2de456	0.042454086
147	0xbd4cea76	-0.050028287
148	0xbd5a5c9e	-0.053310983
149	0x3d1cacb1	0.03825063
150	0xbc2ce46b	-0.010552506
151	0x3af7b851	0.0018899535
152	0x3d09704c	0.03355436
153	0x3c714750	0.014726475
154	0xbd3bf171	-0.045884553
155	0xbaa674f7	-0.0012699653
156	0x3bfed3d7	0.007776718
157	0xbce54d8e	-0.027991083
158	0xbb094077	-0.0020942965
159	0xbd14b491	-0.036305014
160	0xbd49500f	-0.049148615
161	0xbd6b7154	-0.057481125
162	0xbd429060	-0.047500968
163	0x3c90050f	0.017580537
164	0xbd815db6	-0.06316702
165	0xbd0f39cc	-0.03496723
166	0x3c8e99cc	0.01740732
167	0xbd127fbb	-0.035766345
168	0x3c8b0e83	0.016974693
169	0x3d6a7560	0.057240844
170	0x3d1c9312	0.038226195
171	0x3b712a6a	0.0036798962
172	0xbd404629	-0.04694191
173	0xbd13f90f	-0.036126193
174	0x3bbd7fc0	0.0057830513
175	0x3c18263c	0.00928646
176	0x3d197968	0.037469298
177	0x3cb13b51	0.02163473
178	0x3d05858b	0.03259806
179	0xbc99d6f4	-0.018779255
180	0x3d6c53f0	0.057697237
181	0xbbeba7df	-0.0071916427
182	0xbccc03d5	-0.024904171
183	0xbd3f90bf	-0.0467689
184	0xbc639b43	-0.013891998
185	0x3c360122	0.0111086685
186	0x3ade9985	0.0016983008
187	0x3d505f63	0.050872218
188	0xbd83588d	-0.06413374
189	0x3ccdbc28	0.025114134
190	0xbcefeef1	-0.02928874
191	0x3d079d80	0.033109188
192	0x3cb262d4	0.02177564
193	0x3c77d56c	0.015126567
194	0xbc5453cf	-0.012959435
195	0xbca0db2d	-0.019635761
196	0x3d152586	0.03641274
197	0xbae72455	-0.0017634729
198	0xbc7008f8	-0.014650576
199	0x3d77a923	0.060464036
200	0x3d80b1ce	0.062839136
201	0x3d4b2f9b	0.049605947
202	0x3ceb46ea	0.028720338
203	0x3c896684	0.016772516
204	0x3c7f601e	0.015586881
205	0xbc8294ef	-0.015940158
206	0x3c04cdea	0.008105734
207	0xbc717520	-0.014737397
208	0x3c90b762	0.017665569
209	0x3c48e818	0.012262367
210	0x3cb020ab	0.021499952
211	0xbb17f242	-0.0023185168
212	0xbd08cb02	-0.03339673
213	0xbca3e2a8	-0.020005539
214	0x3d8091b0	0.06277788
215	0xbcb1af14	-0.021689929
216	0x3d5d8c72	0.054089017
217	0x3b0d4433	0.0021555542
218	0x3d1016a0	0.035177827
219	0x3ba3bc55	0.004996816
220	0xbc59c016	-0.013290426
221	0x3c8b1dd2	0.016981993
222	0x3c97f726	0.018550467
223	0x3c63252f	0.013863846
224	0x3c515ab5	0.012777974
225	0xbd0431c8	-0.032274038
226	0xbd4bf708	-0.049796134
227	0x3d206284	0.03915645
228	0x3cc31c03	0.023817068
229	0x3d17f75a	0.037101127
230	0x3d0231c3	0.031785738
231	0xbc956d50	-0.0182406
232	0xbd6fbca6	-0.05852952
233	0xba9d6951	-0.0012009536
234	0x3c84777d	0.016170258
235	0x3b112fa6	0.0022153645
236	0xbd69e93f	-0.057107206
237	0x3c858ea5	0.01630337
238	0xbce7183b	-0.028209796
239	0xbccb34c0	-0.024805427
240	0x3cdb3cdd	0.02676242
241	0xbd2ff6c3	-0.04295994
242	0x3d48e357	0.049044933
243	0x3d36ae6b	0.04459993
244	0x3c05e231	0.008171604
245	0x3a958ffc	0.0011410709
246	0x3d818e39	0.06325955
247	0x3d0e09f0	0.034677446
248	0x3d674f2d	0.056471992
249	0xbd6d38af	-0.057915386
250	0x3d3b147a	0.045673825
251	0x3d38b9c8	0.04509905
252	0xbd10b157	-0.035325374
253	0x3c9665a7	0.018359018
254	0x3d80ba5f	0.062855475
255	0x3d123175	0.035691697

bias f4 [250]
0	0xbc6faed3	-0.014629084
1	0xbbbe043d	-0.005798845
2	0x3cc63a7a	0.024197806
3	0x3d860023	0.06542995
4	0xbc36702a	-0.01113514
5	0xba4155e6	-0.00073751656
6	0xbc946866	-0.018116187
7	0xbb1dfd39	-0.0024107231
8	0x3d07336c	0.033008024
9	0xbd6e11f2	-0.058122583
10	0xbd2dbb45	-0.042414922
11	0xbc76c269	-0.015060999
12	0x3d57fd03	0.052731525
13	0xbc68a610	-0.014199749
14	0x3c7e9594	0.015538592
15	0xbcf2d3e5	-0.029642055
16	0xbd739c8e	-0.059475474
17	0xbd1a43c4	-0.037662283
18	0x3bc316e7	0.005953658
19	0x3cbe3a1c	0.023221068
20	0xbd3c0eb7	-0.04591247
21	0xbd569e54	-0.052397087
22	0xbd29bfb2	-0.04144258
23	0x3c7ea87c	0.0155430995
24	0x39154253	0.00014234455
25	0xbd0fdfae	-0.035125427
26	0xbd048c96	-0.032360636
27	0x3d8c798c	0.06859121
28	0xbcbe5564	-0.023234077
29	0x3ce6ebfe	0.028188702
30	0x3d005976	0.031335317
31	0x3d582694	0.052771166
32	0xbd2a90fa	-0.041642167
33	0xbd804283	-0.06262686
34	0x3cbc30fa	0.022972573
35	0xbc655e04	-0.013999466
36	0xbbcb176f	-0.006197862
37	0xbc4f150a	-0.012639293
38	0xbd9131c1	-0.07089568
39	0x3d109b51	0.03530437
40	0x3c11ec23	0.008906397
41	0xbd1f0a23	-0.038828027
42	0x3c9c47a7	0.019077135
43	0x3c6ca27f	0.014443039
44	0x3d211ad7	0.039332237
45	0xbbc81985	-0.006106558
46	0x3d31e78f	0.043433722
47	0xbc823c3e	-0.015897866
48	0xbc962afa	-0.01833104
49	0xbb4dd5c2	-0.0031407927
50	0xbd104524	-0.035222188
51	0xbcd61706	-0.026134025
52	0xbd62be7a	-0.055357434
53	0xbd15c54f	-0.03656512
54	0x3d532332	0.051547237
55	0x3d5fa221	0.054597978
56	0xbcc4826e	-0.023987975
57	0xbd0e8a94	-0.034800127
58	0xbd82ebdb	-0.06392642
59	0x3d360fa0	0.044448495
60	0x3d89c0ea	0.067262486
61	0xbc87e0ed	-0.016586745
62	0x3cd04f45	0.025428424
63	0xbc615158	-0.013752304
64	0xbd257754	-0.040397003
65	0x3c6469dc	0.0139412545
66	0x3ce3436a	0.027742106
67	0x3a680983	0.0008851515
68	0x3caa7a98	0.02081041
69	0xbd01589f	-0.031578656
70	0xbca4723c	-0.020074002
71	0xbcae9316	-0.02131037
72	0x3d5f8b61	0.05457628
73	0x3d36d3d6	0.044635616
74	0xbbc5260e	-0.0060164994
75	0xbd667813	-0.056266855
76	0x3d550ac5	0.052012224
77	0x3c8772d8	0.016534254
78	0x3c66ec52	0.014094429
79	0x3d5f3f77	0.054503884
80	0x3ce3db4b	0.027814528
81	0x3c0e77d7	0.008695564
82	0xbd19be0b	-0.037534755
83	0xbbc2c049	-0.0059433323
84	0xbc35c515	-0.011094351
85	0x3d7a401f	0.061096307
86	0xbd275c93	-0.04085977
87	0xbce49234	-0.027901746
88	0xbcd4a629	-0.025958138
89	0x3b09a941	0.0021005424
90	0xbd5e2802	-0.054237373
91	0xbd4b7839	-0.0496752
92	0xbd3393fe	-0.04384231
93	0x3d10d90b	0.03536324
94	0x3ced9c2b	0.02900513
95	0x3cfa5ed6	0.0305628
96	0x3d5696f1	0.052390043
97	0x39c71cb9	0.00037977638
98	0xbc0bfc63	-0.00854406
99	0xbc3b06cc	-0.011415195
100	0x3d27a77a	0.040931202
101	0x3ccbd5f7	0.0248823
102	0xbbc13e67	-0.0058973315
103	0xbd624239	-0.055238936
104	0xbd4dd32c	-0.050250217
105	0xbd0c3c94	-0.03423746
106	0xbd5afbe0	-0.053462863
107	0x3d46dedd	0.048552383
108	0x3d8221f8	0.06354135
109	0x3b0351a8	0.0020037685
110	0xb8a4b427	-7.8536854e-05
111	0xbd107aae	-0.035273246
112	0x3ccaf7ad	0.024776304
113	0xbd37350d	-0.044728328
114	0xbb449b9b	-0.0029999975
115	0x3ca7deb3	0.020491933
116	0x3c8b64ee	0.0170159
117	0xbcb81d24	-0.022474833
118	0x399166ab	0.0002773305
119	0xbd454a8d	-0.0481668
120	0x3af83e05	0.0018939382
121	0xbcaee9f5	-0.021351794
122	0xbce08021	-0.027404847
123	0x3d6c4da8	0.057691246
124	0xbcf038e0	-0.029323995
125	0xbb619b34	-0.0034424784
126	0x3d3fc205	0.04681589
127	0x3d5020d7	0.05081257
128	0x3c104918	0.008806489
129	0x3d2524f6	0.04031845
130	0x3d4e48a7	0.050362255
131	0x3d25cd2e	0.040478878
132	0x3d24d58c	0.040242717
133	0x3cd27b30	0.025693506
134	0xbd7fa526	-0.062413357
135	0x3b50ad58	0.0031841602
136	0x3d57aa0a	0.052652396
137	0x3ca8c9be	0.02060401
138	0xbc97a80d	-0.01851275
139	0x3d1a7169	0.037705813
140	0x3cda24c7	0.026628865
141	0x3c8df77d	0.017329926
142	0x3b8286b6	0.003983344
143	0x3d5da663	0.054113757
144	0xbccb3faa	-0.02481063
145	0xbbc47a9c	-0.0059960615
146	0x3b0796a4	0.0020689154
147	0xbd2471e5	-0.04014768
148	0x3c5ef786	0.013608819
149	0xbc20cc9e	-0.00981441
150	0xbd441640	-0.04787278
151	0xbcfab952	-0.030605946
152	0x3c917d67	0.017759992
153	0x3c78dd4f	0.015189483
154	0xbbb80ab3	-0.00561651
155	0xbd398d03	-0.045300495
156	0xbc893fc5	-0.01675404
157	0xbce9ec9e	-0.02855521
158	0x3c7cddf9	0.015433782
159	0x3d6e278d	0.058143187
160	0xbcc8a753	-0.024493849
161	0xbb8ac9bf	-0.004235476
162	0xbd641f4f	-0.05569392
163	0xbcbc2335	-0.022966007
164	0x3c36ee17	0.0111651635
165	0x3cc1bdc1	0.023650052
166	0xbd16d5e9	-0.036825094
167	0xbd9291ae	-0.071566924
168	0x3c265511	0.010152117
169	0x3d2a350b	0.041554492
170	0xbd005382	-0.03132964
171	0xbd2af11f	-0.041733857
172	0x3d531090	0.051529467
173	0xbd7728fd	-0.060341824
174	0x3d276928	0.04087177
175	0xba7ce068	-0.0009646476
176	0xbcb03b57	-0.02151267
177	0xbb96f1c3	-0.004606457
178	0x3cd1490a	0.025547523
179	0xbd26eef8	-0.040755242
180	0xbd1fbe93	-0.039000105
181	0x3d37b54c	0.044850633
182	0x3d30aac1	0.043131594
183	0xbd7c04c6	-0.06152799
184	0x3c561262	0.013065906
185	0x3d36b44e	0.044605546
186	0xbd444e57	-0.047926273
187	0x3d3175bf	0.043325182
188	0xbd30fa97	-0.04320773
189	0x3bece34d	0.007229245
190	0x3d6a0dcf	0.057142075
191	0x3d4c09c6	0.04981401
192	0xbd87ec8e	-0.06636916
193	0xbd38c0f0	-0.045105875
194	0xbc8f9758	-0.017528221
195	0x3c811121	0.015755238
196	0xbbd4c3e8	-0.0064930804
197	0x3d0ba5a6	0.03409352
198	0x3d828edd	0.06374905
199	0xbd1422bb	-0.036165934
200	0xbca87ece	-0.020568278
201	0x3d1f9973	0.0389647
202	0x3d34464e	0.04401236
203	0xbca6290a	-0.02028324
204	0x3ccd07ac	0.025028072
205	0xbd3ec578	-0.04657504
206	0x3d5baf8c	0.05363421
207	0xbb0303c5	-0.001999126
208	0x3d407af9	0.046992276
209	0x3d581667	0.05275574
210	0x3d726681	0.059179787
211	0xbd4f4a31	-0.050607864
212	0xbd0e4794	-0.03473623
213	0xbd1644f0	-0.036686838
214	0x3d33164e	0.043722443
215	0x3cc395b3	0.023875093
216	0x3d060d13	0.032727312
217	0x3ceddc21	0.02903563
218	0x3c5bb24a	0.013409207
219	0x3d7107b3	0.058845233
220	0xbbbbcc7d	-0.005731164
221	0x3ce52e06	0.027976047
222	0xbbcf076d	-0.006318024
223	0x3d6a5d9f	0.05721819
224	0xbc738c1a	-0.014864946
225	0x3d02d3d1	0.031940285
226	0x3d03ebd1	0.032207314
227	0x3d832200	0.06402969
228	0xbbd4374d	-0.006476319
229	0xbd417dcb	-0.047239106
230	0xbd562b45	-0.05228736
231	0x3c7eeeca	0.015559861
232	0x3d6089dc	0.054818973
233	0x3c676178	0.014122359
234	0xbc77a5e3	-0.015115234
235	0x3d65689a	0.05600796
236	0x3cd7718b	0.026299259
237	0xbbffe33c	-0.007809071
238	0xbd053714	-0.03252323
239	0xbc4038b4	-0.011732269
240	0x3c07826a	0.008270839
241	0xbd3f1f04	-0.04666044
242	0x3d14545c	0.036213264
243	0x3d37927c	0.044817433
244	0xbd503c9d	-0.050839055
245	0x3b89a405	0.004200461
246	0xbcb9bc2b	-0.022672733
247	0xbd343280	-0.043993473
248	0x3cae6b97	0.021291537
249	0xbd045883	-0.032310974

weight f4 [1, 250]
0	0x3c1a69a8	0.0094246045
1	0x3d7c8cb8	0.061657637
2	0x3c8d27de	0.017230924
3	0x3d027d3c	0.031857714
4	0xbcaec75b	-0.021335294
5	0xbd400d1b	-0.0468875
6	0xbd1456d1	-0.036215607
7	0x3d82e3c1	0.06391097
8	0xbd50f3e8	-0.051013857
9	0xbd6e85e9	-0.058233175
10	0xbdbf2fed	-0.09335313
11	0xbd0fb888	-0.035088092
12	0x3cb0d137	0.021584136
13	0x3cab3c83	0.020902878
14	0x3d077b2b	0.033076447
15	0xbcd70f42	-0.026252393
16	0xbd626841	-0.055275206
17	0xbb7192dc	-0.0036861217
18	0xbd4cc00d	-0.04998784
19	0xbb8ddb33	-0.004329109
20	0x3d49f0e9	0.049302015
21	0xbca314e7	-0.019907428
22	0xbd5e26cd	-0.054236222
23	0xbd0b57ce	-0.034019284
24	0x3c61bbb6	0.013777664
25	0xbd68d0e3	-0.056839835
26	0x3cad05ce	0.021120932
27	0x3d4df670	0.05028385
28	0xbd177993	-0.036981177
29	0x3bade31e	0.0053066155
30	0xbca438b2	-0.020046566
31	0xbc6d444e	-0.014481617
32	0xbcd8e12d	-0.02647456
33	0xbce98bbd	-0.028509015
34	0xbd68a5fe	-0.056798927
35	0xbd809ba4	-0.06279686
36	0xbd79a11b	-0.060944658
37	0x3cc40800	0.023929596
38	0xbd8f9068	-0.07009965
39	0x3ca21813	0.01978687
40	0x3d25eb03	0.040507328
41	0x3c070d1b	0.008242871
42	0x3d186cd5	0.037213165
43	0x3d1b191b	0.03786574
44	0xbcfc118d	-0.030770088
45	0xbd1d7e82	-0.038450725
46	0x3d529e11	0.051420275
47	0x3d865f84	0.06561187
48	0xbcdd9f5a	-0.027053524
49	0xbd31f3db	-0.04344545
50	0xbd1d6e5e	-0.038435332
51	0xbc6c5535	-0.014424612
52	0xbd5c2364	-0.05374469
53	0xbc5fc98d	-0.013658893
54	0x3c87d501	0.01658106
55	0x3d883fd1	0.06652797
56	0x3d8f3464	0.069924146
57	0xbca3f578	-0.02001451
58	0xbc83450e	-0.016024139
59	0xbd44cff1	-0.04804987
60	0x3d952180	0.0728178
61	0x3d38fd8d	0.04516368
62	0xbc44488a	-0.011980185
63	0xbd3036f2	-0.04302115
64	0xbc1bb02e	-0.009502454
65	0x3d05f28e	0.03270202
66	0xbcb8c6aa	-0.022555668
67	0x3d0e4958	0.034737915
68	0xbc8e69f1	-0.017384501
69	0xbd365bd6	-0.044521175
70	0x3c9f3532	0.019434545
71	0xbd4dc12d	-0.050233055
72	0x3d36f84b	0.044670384
73	0x3cfb7004	0.030693062
74	0xbc5ec9a1	-0.013597877
75	0xbd70b934	-0.058770373
76	0x3bd8b85a	0.0066137733
77	0x3c605ea9	0.013694444
78	0x3c2ea2fb	0.010658975
79	0xbcf2401a	-0.029571582
80	0x3d2882bd	0.041140307
81	0xbd45fdf2	-0.048337884
82	0x3c1cc84c	0.009569239
83	0x3c091255	0.008366187
84	0xbd25e6d5	-0.04050334
85	0x3d76ff7a	0.060302235
86	0x3d483699	0.048880193
87	0x3cb603cc	0.022218607
88	0xbcdc2cfd	-0.02687692
89	0xbd12971b	-0.035788637
90	0x3cd27ad7	0.02569334
91	0x3d0c70f4	0.034287408
92	0xbcae5bae	-0.02128395
93	0x3d93f1f8	0.07223886
94	0x3c85dbf1	0.016340228
95	0x3c09736c	0.008389335
96	0x3d7a9823	0.061180245
97	0x3d50e60e	0.051000647
98	0xbc875164	-0.016518302
99	0x3d0fdd20	0.03512299
100	0x3d84b0cc	0.06479034
101	0x3d187704	0.037222877
102	0x3d3adf2b	0.045622986
103	0x3b045bf6	0.0020196415
104	0xbcc251b0	-0.023720592
105	0xbce588bc	-0.028019302
106	0xbd5ac999	-0.053414915
107	0x3cd2f684	0.025752313
108	0x3d105e38	0.035246104
109	0x3d50e5b5	0.051000316
110	0x3c91d082	0.01779962
111	0xbd5494a9	-0.051899586
112	0xbced6a44	-0.028981335
113	0xbd2af6ec	-0.04173939
114	0xbd27eedf	-0.04099929
115	0xbca68eff	-0.020331858
116	0x3cf6004a	0.030029435
117	0x3d4d1acc	0.050074384
118	0x3d4a179d	0.049338926
119	0x3c253cd1	0.010085301
120	0xbd3cab9c	-0.046062097
121	0xbccb856a	-0.02484389
122	0x3d2154e2	0.03938759
123	0x3ce05617	0.0273848
124	0x3d0d4d3c	0.034497485
125	0xbd0bfe64	-0.034178153
126	0xbbc2b880	-0.0059424043
127	0x3c7b8097	0.015350482
128	0x3c21af37	0.009868435
129	0x3d4db206	0.050218605
130	0xbd1997f9	-0.037498448
131	0x3d9f1a8b	0.077687345
132	0x3d281b0a	0.04104141
133	0x3c6efeb5	0.014587094
134	0xbdb5fcb9	-0.08886094
135	0x3d0c9008	0.034317046
136	0x3c9c4084	0.019073732
137	0x3d5a95bb	0.05336545
138	0x3d12ab3e	0.03580784
139	0xbc3c79b2	-0.011503624
140	0xbc4d9f16	-0.012550136
141	0xbd39ea28	-0.045389324
142	0x3d331d0f	0.043728884
143	0x3d858361	0.06519199
144	0x3d62b739	0.055350516
145	0x3c63f3b8	0.013913088
146	0xbb6f1733	-0.0036482334
147	0xbc661241	-0.014042438
148	0xbd8f38b2	-0.06993236
149	0xbd23832f	-0.03992003
150	0xbcfcb691	-0.030848773
151	0xbd7760b0	-0.060394943
152	0x3bd17e4d	0.00639323
153	0x3d0c4c85	0.034252662
154	0xbd8878fc	-0.06663701
155	0xbd2d50ec	-0.0423135
156	0xbcc518cf	-0.024059681
157	0xbca6d173	-0.020363545
158	0xbca9d0eb	-0.020729503
159	0x3ba45f89	0.0050162715
160	0xbd85fa2e	-0.065418586
161	0x3d2ce3f6	0.042209588
162	0xbd120836	-0.03565236
163	0xbdaee54f	-0.08539831
164	0x3d1cb953	0.038262676
165	0xbd90a4a7	-0.07062655
166	0x3d65a804	0.056068435
167	0xbd8d0465	-0.06885604
168	0x3ccd8372	0.025087092
169	0xbd6ccc50	-0.057812035
170	0x3d62904d	0.055313397
171	0xbd006d5e	-0.0313543
172	0xbc41ffe0	-0.0118407905
173	0x3ace3389	0.0015731911
174	0x3ccc0556	0.024904888
175	0xbd207b9a	-0.039180376
176	0xbd7cedce	-0.061750226
177	0x3bebbf09	0.007194404
178	0x3c9fc4c6	0.019503009
179	0x3c996e78	0.018729433
180	0xbd8c7a04	-0.0685921
181	0xbd1d4ac7	-0.03840139
182	0xbb690eaf	-0.003556173
183	0xbd1c5a36	-0.03817197
184	0x3d0da139	0.034577582
185	0xbbc36864	-0.005963372
186	0x3d59774d	0.05309229
187	0x3d810360	0.06299472
188	0x3bfadf7c	0.007656036
189	0xbb8f6213	-0.004375705
190	0x3d46cfcf	0.048538025
191	0xbbc17456	-0.005903761
192	0xbd7a06bb	-0.061041575
193	0x3d3330b9	0.043747637
194	0xbd1df532	-0.038563915
195	0x3b9b8ffb	0.0047473884
196	0xbd04c0d9	-0.032410476
197	0x3c7affd7	0.015319786
198	0x3d93aae6	0.07210331
199	0x3bdaa628	0.0066726394
200	0xbc493e7e	-0.012282966
201	0x3da54dac	0.08071455
202	0xbd08caf7	-0.033396687
203	0x3d0461c0	0.032319784
204	0xbc80f6c2	-0.015742663
205	0xbd82b7d1	-0.063827164
206	0xbd150fa5	-0.036391873
207	0xbcdfed98	-0.027334973
208	0xbd30ef07	-0.043196704
209	0xbbfcaaaa	-0.0077107744
210	0x3cfd6a2d	0.030934418
211	0x3a9ed2c2	0.0012117254
212	0x37c67e1e	2.3662167e-05
213	0xbc534390	-0.012894526
214	0x3ce3453b	0.027742973
215	0x3cdc7268	0.026910022
216	0xbb9738cf	-0.0046149264
217	0xbd9e2148	-0.07721192
218	0xbc60d591	-0.013722793
219	0x3ced4179	0.028961884
220	0x3d79a3c7	0.060947206
221	0x3cd85c35	0.026411155
222	0x3a34b39c	0.0006893219
223	0x3c8568ce	0.016285326
224	0x3cf14408	0.029451385
225	0x3d14975f	0.03627717
226	0xbce94bc5	-0.028478513
227	0x3d233534	0.03984566
228	0xbcc59fdc	-0.024124078
229	0x3d8153ef	0.06314837
230	0xbcbda2b7	-0.023148878
231	0xbb84f8b9	-0.0040579704
232	0x3d7cdc70	0.061733663
233	0xbd4d0ae6	-0.05005922
234	0x3b3cb4d1	0.0028794298
235	0xbc17cb7e	-0.009264825
236	0x3c99581d	0.018718773
237	0xbd7a69dd	-0.061136115
238	0xbd6109fa	-0.054941155
239	0x3d3f9c16	0.046779715
240	0xbd45fa91	-0.048334662
241	0xbb1433c7	-0.002261387
242	0x3d10dfa3	0.035369527
243	0x3da42762	0.08015324
244	0xbbcee505	-0.0063139223
245	0xbd4d4870	-0.05011791
246	0xbb82df9d	-0.003993942
247	0x3d6ebc66	0.05828514
248	0x3cd1f7d3	0.025630867
249	0xbd01fdd7	-0.03173622
