Backgammon2/pub_stomper_repository/nn_oli3_model.pt (torch_old, 557881 bytes, 9 tensors)

weight f4 [150, 464]
0	0x3d1a2b61	0.037639026
1	0xbd1448db	-0.036202293
2	0x3c4fc708	0.01268173
3	0x3b546ff0	0.0032415353
4	0x3c94fbba	0.018186439
5	0xba9e6800	-0.0012085438
6	0xbbc8d3f0	-0.0061287805
7	0xbbea1040	-0.0071430504
8	0xbd2e496b	-0.042550486
9	0x3caffd0e	0.02148297
10	0xbae79a20	-0.0017669834
11	0x3b96c1a0	0.0046007186
12	0xbd1685c9	-0.03674868
13	0xbd086f0c	-0.033309028
14	0xbcaa263b	-0.020770183
15	0xbd2612c6	-0.040545247
16	0x3d03f922	0.032220013
17	0x3cca523b	0.024697414
18	0xbd266e1c	-0.040632352
19	0x3cccc4b2	0.024996135
20	0xbca4c1c0	-0.020111918
21	0xbd1e75e6	-0.038686655
22	0x3bd8e121	0.0066186343
23	0xbb937203	-0.0044996752
24	0x3b4469d3	0.0029970303
25	0xbd10483e	-0.035225146
26	0xbcbb3537	-0.022852523
27	0x3c90fa1d	0.017697388
28	0xbcd4a184	-0.025955923
29	0xbd0be9bb	-0.03415845
30	0x3c9c96be	0.019114848
31	0x3d1dfc93	0.03857095
32	0x3c06b3da	0.008221591
33	0x3d016fed	0.03160088
34	0x3cfb17b3	0.03065095
35	0xbcccab91	-0.024984153
36	0xbc918d24	-0.017767496
37	0xbcd0db4b	-0.025495192
38	0xbca5689e	-0.020191487
39	0x3ba87bef	0.005141727
40	0xbd14c227	-0.03631797
41	0xbcff3c03	-0.031156546
42	0xbce83d13	-0.028349435
43	0xbbdbbf41	-0.006706149
44	0x3c8a71cf	0.016899971
45	0x3cecd602	0.02891064
46	0x3d2b2aa4	0.041788712
47	0xbcb4999a	-0.0220459
48	0x3cbedc78	0.023298487
49	0xbd14e84f	-0.03635436
50	0xbd20f4b3	-0.039295863
51	0xbd09e681	-0.03366709
52	0x3b1ade26	0.0023630946
53	0x3d0a8e67	0.03382721
54	0x3ced8cce	0.028997805
55	0xbccfd226	-0.025368761
56	0xbd283af7	-0.04107186
57	0xbd0db866	-0.034599684
58	0xbcb5acb7	-0.022177083
59	0xbd368b39	-0.044566367
60	0xbd03c1af	-0.032167133
61	0xbd28dcac	-0.041226074
62	0x3c9d09b6	0.01916967
63	0x3c3846c4	0.011247341
64	0x3cb1c4ce	0.02170029
65	0x3ca0459b	0.01956444
66	0x3d192bcb	0.03739528
67	0xbd1a7e4a	-0.037718095
68	0xbca27f53	-0.019836104
69	0x3d24469e	0.04010641
70	0xbc825a67	-0.015912248
71	0x3ba6b889	0.0050879163
72	0x3d3c6d02	0.046002395
73	0x3d1e7cd7	0.038693275
74	0xbd29cdc9	-0.041456018
75	0xbc5eb28d	-0.0135923745
76	0x3cb8ae60	0.022544086
77	0x3cc49639	0.023997413
78	0xbd1e4ffc	-0.038650498
79	0xbcc30d1b	-0.02380996
80	0x3ccc2ceb	0.024923762
81	0xbcce81c7	-0.025208367
82	0x3c84f6ef	0.016231028
83	0xbba0cff9	-0.004907605
84	0xbd1258ab	-0.03572909
85	0xbc09ebba	-0.008418018
86	0x3d1e8d4c	0.03870897
87	0xbc00bc5b	-0.007857407
88	0xbcfc2460	-0.030779064
89	0x3d080999	0.033212278
90	0xbc9ae503	-0.01890803
91	0xbc22283d	-0.009897289
92	0x3cbe7b3f	0.023252128
93	0x3d3c2d6d	0.04594176
94	0xbc81d2e0	-0.015847623
95	0xbd21c457	-0.039493885
96	0xbc85754e	-0.016291287
97	0x3c4858ee	0.012228234
98	0xbbb971ce	-0.0056593185
99	0x39a24cac	0.00030956173
100	0x3c96f7eb	0.018428763
101	0x3c64d4cc	0.01396675
102	0x3b37d293	0.0028049096
103	0xbd20c99b	-0.039254766
104	0x3bc32f39	0.005956557
105	0x3a25922c	0.0006316032
106	0x3d1c18b0	0.03810948
107	0x3cdcda2b	0.0269595
108	0xbcdb04ba	-0.026735652
109	0xbd2978b7	-0.04137489
110	0x3c93148b	0.017954132
111	0x3cf9acf6	0.030477982
112	0xbd100624	-0.035162106
113	0xbd0051fe	-0.031328194
114	0x3d26ce25	0.04072394
115	0xbcbfdbfc	-0.023420326
116	0xbc66172e	-0.014043612
117	0xbcad34c4	-0.021143325
118	0x3d2ae91f	0.041726228
119	0x3cf67050	0.030082852
120	0xbd37fdef	-0.044919904
121	0x3c63840f	0.013886466
122	0x3c7a38cf	0.015272333
123	0xbcbf0e63	-0.02332229
124	0xbd389c97	-0.04507121
125	0x3cd2e3ca	0.025743384
126	0x3c3448e8	0.01100371
127	0xbd3432da	-0.04399381
128	0xbb6b0d28	-0.0035865996
129	0x3c9343c7	0.017976655
130	0x3d1f2ebd	0.038862932
131	0xbd05f55a	-0.03270469
132	0x3cdb5a41	0.026776435
133	0xbc163308	-0.00916744
134	0x3c3946a9	0.011308351
135	0x3bd6dc0c	0.0065569934
136	0x3ab706b5	0.0013963791
137	0x3cbc849f	0.023012457
138	0xb9f5b995	-0.0004686831
139	0x3d331c05	0.043727893
140	0xbad2c760	-0.0016081147
141	0xbd3cde06	-0.046110176
142	0xbd3d0e2d	-0.046156097
143	0x3c12c780	0.008958697
144	0x3c896ca7	0.016775442
145	0xbcfc26d9	-0.030780243
146	0x3c9c618a	0.019089479
147	0xbcabd552	-0.020975742
148	0xbd117bc1	-0.03551841
149	0x3d076efd	0.03306483
150	0x3b65560f	0.0034993922
151	0x3d325b47	0.04354408
152	0x3be96a28	0.0071232505
153	0xbd0a431c	-0.033755407
154	0xbc801642	-0.015635613
155	0x3d06a933	0.032876205
156	0xbcfcad2c	-0.030844294
157	0xbc424938	-0.011858277
158	0x3d17b6dd	0.037039626
159	0xbacda580	-0.0015689582
160	0x3d1235b1	0.035695735
161	0x3d2ccc67	0.04218712
162	0x3d393865	0.045219798
163	0x3bd2dac6	0.006434771
164	0xbb1f6288	-0.0024320204
165	0xbcbd52e5	-0.023110816
166	0x3cab74ee	0.02092978
167	0xbab1bd20	-0.0013560392
168	0xbcf3d06d	-0.029762471
169	0x3cec7f56	0.028869312
170	0xbb689750	-0.003549058
171	0x3c0b1798	0.008489512
172	0xbbfd2a30	-0.0077259764
173	0x3b605a60	0.0034233555
174	0x3d1ebe1d	0.038755525
175	0xbb81e6b0	-0.0039642677
176	0x3d11b181	0.03556967
177	0xbb8787f6	-0.004136081
178	0xbd20da6f	-0.039270815
179	0xbd112a82	-0.03544093
180	0xbbb5ee89	-0.0055521172
181	0xbd16d01a	-0.036819555
182	0x3c4b5424	0.012410197
183	0x3c343527	0.010999001
184	0xbc1fa884	-0.009744767
185	0x3d129469	0.035786066
186	0xbc9b268d	-0.01893928
187	0x3babbc80	0.005240977
188	0x3d2095ad	0.039205242
189	0xbc1a672c	-0.009424012
190	0x3cc32a72	0.02382395
191	0xbc6c6b38	-0.01442986
192	0x3c9e4963	0.019322103
193	0x3d10ffe9	0.035400305
194	0x3aea89bc	0.0017893831
195	0x3d1f9cff	0.038968083
196	0xbae76000	-0.0017652512
197	0xbccf1158	-0.025276825
198	0xbd19431e	-0.037417524
199	0x3d2809d9	0.041025016
200	0x3cc9053e	0.024538632
201	0xbd145540	-0.036214113
202	0x3d102bcd	0.03519802
203	0xbcd2e132	-0.025742147
204	0xbcc3fafb	-0.023923388
205	0x3d39f7b7	0.045402255
206	0xbd05f21e	-0.032701604
207	0x3b86f320	0.004118338
208	0x3c166acd	0.009180737
209	0x3ab121eb	0.0013514137
210	0x3b7d5f68	0.0038661603
211	0xbce24d0a	-0.027624626
212	0xbc327772	-0.010892736
213	0xbb5decdb	-0.00338631
214	0xbc998c1a	-0.018743563
215	0x3d116e91	0.035505835
216	0x3c6b8314	0.014374513
217	0xbc563474	-0.013074029
218	0x3d34c5e9	0.044134054
219	0xbd3b23fe	-0.04568862
220	0x3c694d00	0.01423955
221	0xbcf906ed	-0.03039881
222	0x3b32bcf0	0.002727326
223	0xbd251d19	-0.040310953
224	0x3d170885	0.03687336
225	0xbd00f0a5	-0.031479497
226	0x3c2d0be1	0.010561914
227	0xbcdadf71	-0.026717873
228	0x3c8c370e	0.017116096
229	0x3ba6c258	0.0050890855
230	0xbc724060	-0.014785856
231	0x3cf180e2	0.029480401
232	0x3cef1392	0.029184137
233	0xbca9a47a	-0.020708311
234	0x3b46ce10	0.0030335225
235	0x3d347415	0.044056017
236	0x3cd7763a	0.026301492
237	0x3c6520f4	0.013984907
238	0x3d34c3e3	0.044132125
239	0xbd1394f8	-0.03603074
240	0xbcfabef7	-0.030608637
241	0x3b89335a	0.00418703
242	0xbd06ffa6	-0.03295865
243	0xbd0addd2	-0.03390295
244	0xbd090bdc	-0.033458576
245	0x3cee29e5	0.029072711
246	0x3c088998	0.008333586
247	0xbd0b846e	-0.03406184
248	0x3d2f812f	0.04284781
249	0x3ca3acf6	0.019979935
250	0xbd11b988	-0.035577327
251	0xbcfdd80f	-0.030986814
252	0x3cec2166	0.02882452
253	0xbd2e86a5	-0.042608876
254	0xbc92a777	-0.01790212
255	0x3c6fa6dc	0.014627185

bias f4 [150]
0	0xbd3266f0	-0.0435552
1	0x3d288a5b	0.04114757
2	0x3d046051	0.032318417
3	0x3d3606a2	0.04443992
4	0x3d07f9e9	0.033197317
5	0x3d403db4	0.046933845
6	0xbd0d3b2b	-0.034480255
7	0x3cfd593e	0.030926343
8	0x3d10cdc8	0.0353525
9	0x3caed4e4	0.021341749
10	0xbad213b2	-0.0016027598
11	0xbd38746b	-0.0450329
12	0xbd1247fa	-0.035713173
13	0x3c9908d9	0.018680977
14	0x3d379bd5	0.044826347
15	0x3bd25fc5	0.006420108
16	0xbd037172	-0.03209061
17	0xbd1c7d49	-0.03820542
18	0x3ca2f04b	0.019889971
19	0xbd2a629f	-0.04159796
20	0xbd34ca19	-0.044138048
21	0xbcacf86c	-0.02111455
22	0x3d29d3db	0.041461807
23	0xbc1d40cb	-0.009597967
24	0x3d273555	0.040822346
25	0x3d06a5dd	0.032873023
26	0xbd061f2b	-0.032744568
27	0x3cb890bc	0.022529952
28	0xbc2ed4ef	-0.0106708845
29	0x3cb13df2	0.021635983
30	0xbcf77b62	-0.0302102
31	0x3c964217	0.018342061
32	0x3d4dd77f	0.05025434
33	0xbb5b2ce1	-0.0033443498
34	0x3c9d04c3	0.01916731
35	0x3ce5668a	0.028002996
36	0xbd2a6189	-0.041596923
37	0xbc9ed2fa	-0.01938771
38	0xbc81688a	-0.015796918
39	0xbd1ab60b	-0.037771266
40	0xb8a10126	-7.677292e-05
41	0x3cbc5dd6	0.022993963
42	0xbbc2e0ab	-0.0059471927
43	0x3cd0328e	0.025414731
44	0x3c229964	0.0099242665
45	0xbc7255f3	-0.014791
46	0x3ba4c15b	0.0050279326
47	0x3bccf6fa	0.006255028
48	0x3c19adc1	0.009379805
49	0xbb560ce9	-0.0032661504
50	0xbbe64054	-0.0070267115
51	0x3d0af7ba	0.033927657
52	0x3c8eb9e1	0.017422618
53	0xbcaf0435	-0.02136431
54	0xbd136805	-0.035987873
55	0x3be5776a	0.0070027607
56	0xbcbfadce	-0.023398306
57	0xbcbefa48	-0.023312703
58	0xbc501f4d	-0.012702775
59	0xbc58dc1c	-0.013236072
60	0x3c44b788	0.012006648
61	0x3d2231a0	0.039598107
62	0x39c51396	0.0003758936
63	0x3c8c64ec	0.017137967
64	0x3ccee1ea	0.025254209
65	0x3c123954	0.008924801
66	0x3d2d0979	0.042245362
67	0x3c1588a3	0.009126815
68	0x3bea2f2d	0.007146737
69	0x3ce81b1f	0.028333245
70	0xbcc7d220	-0.024392188
71	0xbbbff97d	-0.0058585987
72	0x3c06c3ed	0.008225423
73	0x3d4d88e6	0.050179385
74	0x3c6a58b1	0.014303372
75	0xbceb4e7a	-0.028723944
76	0xbc36c67d	-0.011155722
77	0xbd3fb316	-0.04680165
78	0xbd35632f	-0.044284042
79	0xbcc1c948	-0.023655549
80	0x3cb4936d	0.022042954
81	0xbc1d8bbc	-0.009615835
82	0xbd310307	-0.043215778
83	0xbcc642c3	-0.024201756
84	0xbcc58b9e	-0.024114426
85	0xbd337e58	-0.043821663
86	0xbcd9cda6	-0.026587319
87	0x3caa22a5	0.020768473
88	0xbd2666bc	-0.04062532
89	0xbc8872c0	-0.01665628
90	0xbd0afd0c	-0.03393273
91	0xbd35c86e	-0.044380598
92	0xbc3f3953	-0.011671382
93	0x3d33d70c	0.043906257
94	0x3cb0e4b7	0.021593435
95	0x3d1b8649	0.03796986
96	0x3c218c6b	0.009860138
97	0xbd13b0cb	-0.036057275
98	0x3d37c678	0.04486701
99	0xbb2ac55b	-0.0026057574
100	0xbcd47139	-0.025932895
101	0xbc82d07f	-0.01596856
102	0x3cceb38e	0.025232103
103	0xbbee8d86	-0.0072800545
104	0x3c5fbe6c	0.01365624
105	0x3d2b0c37	0.041759696
106	0x3cce0cbf	0.025152562
107	0x3d1ba4a6	0.037998818
108	0xbc50423b	-0.012711103
109	0x3c1ec23f	0.009689867
110	0xbce38b2f	-0.027776329
111	0x3c61a491	0.013772146
112	0xbcec6893	-0.028858459
113	0xbd0a97c4	-0.03383614
114	0xbb9f7c8e	-0.004867143
115	0xbd38fd42	-0.0451634
116	0xbcd20640	-0.025637746
117	0xbb491565	-0.0030682918
118	0xbd3318a3	-0.043724667
119	0xbc8a92cb	-0.0169157
120	0xbd24457a	-0.04010532
121	0x3b55a709	0.0032600781
122	0xbcffa631	-0.031207176
123	0x3d241de3	0.040067565
124	0xbd1bf4b4	-0.038075164
125	0xbc8cee4e	-0.017203476
126	0xbcc2fa30	-0.02380094
127	0xbd01e042	-0.03170801
128	0x3d3a262d	0.045446564
129	0xbcca40aa	-0.024689037
130	0xbd2ab4b3	-0.041676234
131	0x3d10a4e1	0.03531349
132	0x3cbbeb87	0.022939457
133	0x3d4d2a61	0.050089244
134	0x3d318ade	0.043345325
135	0xbcd98e1f	-0.026557026
136	0xbc717f05	-0.0147397565
137	0xbd36bedc	-0.04461561
138	0x3cd5c806	0.026096355
139	0xbc9e21e0	-0.019303262
140	0xbc780cfa	-0.015139813
141	0xbce254ab	-0.027628263
142	0xba8edaaf	-0.0010898913
143	0x3c377606	0.011197573
144	0xbceb10d6	-0.028694551
145	0x3cc58295	0.024110118
146	0x3cae7771	0.021297188
147	0xbcfbc665	-0.03073425
148	0x3cf671ce	0.030083563
149	0xbd2ffd16	-0.04296597

weight f4 [150, 150]
0	0x3c12dfe3	0.008964512
1	0x3c98788a	0.018612165
2	0x3d201c03	0.039089214
3	0x3d8d9167	0.06912499
4	0x3b22177f	0.0024733243
5	0x3d9d57e5	0.0768278
6	0xbd95f6e8	-0.07322484
7	0xbd450853	-0.04810364
8	0x3d91ba9f	0.07115673
9	0xbd2111db	-0.03932367
10	0xbd948715	-0.07252327
11	0xbd4d2355	-0.050082523
12	0x3d9b0a24	0.075702935
13	0x3d97661b	0.07392522
14	0xbd94d5cd	-0.07267342
15	0x3c3d8391	0.011567012
16	0x3d2c12a3	0.04200996
17	0xbd3b5760	-0.045737624
18	0xbd49083c	-0.04908012
19	0x3b0901d3	0.0020905628
20	0x3da51223	0.080601
21	0xbd9e1c6a	-0.07720263
22	0x3d903302	0.07040979
23	0x3ca23b46	0.019803654
24	0x3c80ab2b	0.01570662
25	0xbd92af04	-0.07162288
26	0xbd474c84	-0.048656955
27	0x3d375aa0	0.04476416
28	0xbccbc9f5	-0.024876574
29	0x3d97ae42	0.07406284
30	0xbc8723e0	-0.016496599
31	0xbc838a0f	-0.016057042
32	0xbd96990f	-0.07353412
33	0x3d85872a	0.06519921
34	0xbc4b9c50	-0.0124274045
35	0x3d8c72f3	0.06857862
36	0x3da7b6c3	0.08189156
37	0x3cf80e5e	0.030280288
38	0x3d143fff	0.036193844
39	0xbd586af9	-0.052836392
40	0xbd886199	-0.0665924
41	0x3d2dea53	0.042459797
42	0x3d4fd0f8	0.050736398
43	0xbd5d6b60	-0.05405748
44	0x3c5220ac	0.012825172
45	0x3cb128a5	0.021625826
46	0xbba41fc7	-0.005008671
47	0x3c09f6d1	0.008420662
48	0x3d75ef1b	0.060042482
49	0xbc23d582	-0.009999635
50	0x3d8da871	0.06916893
51	0xbda0de15	-0.07854859
52	0x3c3ee3d7	0.011651001
53	0xbcf0a26d	-0.029374326
54	0x3cff421c	0.031159453
55	0x3c5fa5b4	0.013650347
56	0x3c3f8eeb	0.011691789
57	0xbd51830b	-0.051150363
58	0x3da5cf9c	0.08096239
59	0x3c764852	0.015031891
60	0x3d984021	0.074341066
61	0xbd209b3d	-0.039210547
62	0xbb95fa91	-0.004576989
63	0x3c740431	0.014893577
64	0x3b9e3b81	0.0048288708
65	0xbd8eae1e	-0.06966804
66	0xba74a2f4	-0.0009332143
67	0xbd9066d1	-0.07050861
68	0x3d4620a0	0.048370957
69	0xbd32e706	-0.043677352
70	0x3d424c50	0.04743606
71	0x3d76563d	0.060140837
72	0x3d978829	0.07399017
73	0x3c2460cc	0.010032844
74	0x3cdbd3f3	0.026834464
75	0x3c1b1cbf	0.009467303
76	0xbd626408	-0.05527118
77	0x3d917223	0.07101848
78	0x3d9f1fa5	0.077697076
79	0xbd9477e2	-0.07249428
80	0x3d634231	0.055483047
81	0x3cf082bf	0.02935922
82	0xbc8d6508	-0.01726009
83	0x3c8d6be1	0.017263355
84	0xbcba7ee6	-0.022765588
85	0x3d5ce81a	0.053932287
86	0x3c5e6d43	0.013575855
87	0xbd9ce3bc	-0.076606244
88	0x3d33489b	0.043770414
89	0xbd84120b	-0.06448754
90	0x3d872f66	0.066008374
91	0x3d45a40b	0.048252147
92	0x3d36c75a	0.04462371
93	0x3cd62b64	0.026143737
94	0x3d3f8d15	0.046765406
95	0xbcb08ed7	-0.021552486
96	0x3cc43175	0.023949364
97	0x3d016720	0.03159249
98	0x3da41d76	0.08013432
99	0xbd651c19	-0.055935
100	0xbd5157d1	-0.05110914
101	0x3d5f53c8	0.05452326
102	0xbd487257	-0.048937168
103	0x3d66c4cb	0.05634002
104	0x3d2e9372	0.042621084
105	0xbd01e60b	-0.031713527
106	0x38b3095b	8.537128e-05
107	0x3cbe0861	0.023197355
108	0xbb9f7497	-0.0048661935
109	0xbd2c75eb	-0.042104643
110	0x3d98e1e6	0.07464962
111	0xbc522e84	-0.012828473
112	0xbc193ff3	-0.009353626
113	0xbc8de76b	-0.017322263
114	0xba5c566f	-0.00084052136
115	0x3c7edd2f	0.015555664
116	0x3b3cb290	0.0028792955
117	0x3d4f45dc	0.050603732
118	0xbc9d0e08	-0.01917173
119	0xbd1e715a	-0.03868232
120	0xbbd0e235	-0.006374622
121	0xbd6f8ba7	-0.058482792
122	0x3c386de1	0.011256666
123	0xbd7850bb	-0.060623866
124	0xbda2835b	-0.0793521
125	0xbcc7136e	-0.024301257
126	0x3d97b5e4	0.0740774
127	0xbd543c40	-0.05181527
128	0x3d2c86ad	0.042120624
129	0xbbf5d288	-0.007501904
130	0xbd6567e2	-0.056007273
131	0x3c28fd46	0.010314291
132	0x3d87c505	0.06629375
133	0xbb5bd063	-0.0033540956
134	0x3c827e4d	0.015929366
135	0xbd12b869	-0.0358204
136	0xbd8b7886	-0.068100974
137	0xbd90a142	-0.070620075
138	0xbd2a14c2	-0.041523702
139	0xbb1c1091	-0.0023813585
140	0x3cf3e16e	0.02977058
141	0x3d8d1b6e	0.068899974
142	0x3d813356	0.0630862
143	0x3cde7223	0.027154034
144	0x3d398713	0.045294832
145	0xbd1bc534	-0.038029864
146	0x3d82b725	0.06382588
147	0x3d49058a	0.049077548
148	0xbd2c9522	-0.04213441
149	0x3d826e3d	0.063686825
150	0x3d0d9c91	0.03457314
151	0xbd6fc8ae	-0.058540992
152	0xbd36b65d	-0.04460751
153	0x3beba015	0.007190714
154	0xbd9c7e25	-0.07641248
155	0xbce9de39	-0.028548347
156	0x3d9e533c	0.077307194
157	0xbbe19012	-0.0068836296
158	0x3d6ea4c7	0.058262613
159	0x3ce4aa58	0.027913257
160	0x3ba5065f	0.00503616
161	0x3b62779a	0.0034556151
162	0x3cb0d8ae	0.021587696
163	0x3cbfc077	0.023407204
164	0x3c12b8b5	0.00895517
165	0x3c6a8b3d	0.014315424
166	0xbd50df9f	-0.05099451
167	0x3c1803ff	0.0092782965
168	0x3da6ebad	0.0815042
169	0x3da0647f	0.07831668
170	0x3d63dfdd	0.055633415
171	0xbd11e855	-0.03562196
172	0xbd119941	-0.035546545
173	0x3c030b74	0.007998336
174	0xbd7a049f	-0.061039563
175	0xbc8d5ea7	-0.017257048
176	0x3d87c715	0.06629769
177	0xbbb6bf46	-0.005577001
178	0x3d839a1d	0.06425879
179	0x3d0a9667	0.03383484
180	0xbd912f79	-0.07089133
181	0x3caf3d1d	0.021391446
182	0x3d77415b	0.060365062
183	0xbd843116	-0.06454675
184	0xbd6aebef	-0.05735391
185	0x3cbb898c	0.022892736
186	0x3d186861	0.03720892
187	0x3cdbe21a	0.026841212
188	0x3d81c6e5	0.06336764
189	0x3d207eda	0.039183475
190	0xbd673a7e	-0.056452267
191	0xbd8bf637	-0.06834071
192	0xbd885b79	-0.06658072
193	0x3d2fe54a	0.042943276
194	0xbd32926c	-0.04359667
195	0xbd4f6c1f	-0.05064022
196	0x3b643a95	0.0034824957
197	0x3d71fb79	0.059077714
198	0xbd809cd9	-0.06279916
199	0xbd4cdef9	-0.05001733
200	0xbbac0521	-0.005249635
201	0xbd991351	-0.074743874
202	0x3d0ccc55	0.034374554
203	0xbc9dcfb8	-0.019264087
204	0xbd1b6195	-0.03793486
205	0x3ce5fbd2	0.028074179
206	0xbd39028d	-0.04516845
207	0x3ca84a6e	0.020543303
208	0x3d451932	0.04811973
209	0x3c8b5e34	0.017012693
210	0x3b87456f	0.00412815
211	0x3c6188cd	0.013765526
212	0xbc5feaad	-0.013666791
213	0xbc002c74	-0.007823098
214	0xbd4cf0f0	-0.050034463
215	0x3c12e891	0.008966581
216	0x3cc6cefb	0.024268618
217	0xbc562dae	-0.013072414
218	0x3c5920ff	0.013252496
219	0xbd8d5cc6	-0.06902461
220	0x3cfcac9b	0.030844023
221	0xbcbd9111	-0.023140462
222	0xbd35f01e	-0.044418447
223	0xbd2228b2	-0.03958959
224	0xbd8278f8	-0.06370729
225	0x3bb2b231	0.005453371
226	0xbd91a236	-0.071110174
227	0x3d890214	0.066898495
228	0xbd096baa	-0.033549942
229	0xbbe1cd1a	-0.006890905
230	0xbd737298	-0.059435457
231	0xbc0f7d5b	-0.008757914
232	0xbd15270d	-0.036414195
233	0xbc31aacb	-0.010843943
234	0xbcf586bc	-0.029971473
235	0xbcf5c3fd	-0.030000681
236	0xbc7c1f80	-0.01538837
237	0x3d8fbded	0.07018647
238	0x3cabdfdb	0.020980766
239	0xbda24dc7	-0.07924991
240	0xbd9c0f4c	-0.07620105
241	0x3d9f0a49	0.077656336
242	0x3d9adb34	0.07561341
243	0xbda5726d	-0.080784656
244	0xbd33c830	-0.043892086
245	0x3c8fb53f	0.01754248
246	0x3d7752df	0.060381766
247	0xbd6c661d	-0.05771457
248	0xbc5da493	-0.013528007
249	0x3d5b129f	0.053484555
250	0x3d9fd08c	0.07803449
251	0xbda28c94	-0.079369694
252	0xbd1008ac	-0.03516452
253	0x3d78ef7a	0.060775258
254	0x3d8af696	0.06785314
255	0x3d916832	0.07099952

bias f4 [150]
0	0x3d70c52f	0.0587818
1	0xbd22f321	-0.039782647
2	0xbca3221b	-0.019913724
3	0xbd30ff00	-0.043211937
4	0xbb02f340	-0.0019981414
5	0x3cbd4633	0.023104763
6	0x3d9f45ab	0.0777696
7	0xbda330f3	-0.07968321
8	0x3d821cac	0.06353125
9	0x3d39c8b8	0.045357436
10	0x3d2557ea	0.040367045
11	0x3d8423e3	0.06452157
12	0x3cd279a8	0.025692776
13	0x3da4c579	0.080454774
14	0x3d47c362	0.048770316
15	0xba33f80c	-0.000686527
16	0x3cb7afaf	0.02242264
17	0xbd423f8e	-0.04742389
18	0xbd0db8aa	-0.034599937
19	0x3d72a891	0.05924279
20	0x3cbde687	0.023181213
21	0xbda4a0c3	-0.08038475
22	0x3c09f557	0.00842031
23	0x3d2d4400	0.042301178
24	0x3d7b9297	0.061419096
25	0x3d9fe806	0.07807927
26	0xbd9efc0c	-0.07762918
27	0x3ce4f055	0.02794663
28	0x3da278d2	0.07933201
29	0xbd9a7e4a	-0.07543619
30	0x3c48c8e5	0.012254928
31	0xbcb6f236	-0.022332292
32	0x3d7eaf30	0.06217879
33	0x3cb3b2c9	0.021935837
34	0xbd19f9d4	-0.03759177
35	0x3c382023	0.011238131
36	0xbc325a95	-0.010885854
37	0x3d562cc2	0.052288778
38	0xbd31b3c9	-0.043384347
39	0x3cf31f3a	0.029677976
40	0xbc378ca0	-0.011202961
41	0x3da1b804	0.07896426
42	0xbd746a2b	-0.059671562
43	0xbbbea82a	-0.0058183866
44	0x3da2d290	0.07950318
45	0xbd0c85f7	-0.034307446
46	0xbd560fd2	-0.05226118
47	0x39f2cc44	0.00046310027
48	0x3a2d4f6d	0.00066112616
49	0xbda5eea6	-0.08102159
50	0x3d86e628	0.065868676
51	0xbd986cb2	-0.07442607
52	0xbd5adf7d	-0.05343579
53	0x3c942279	0.018082844
54	0x3d3c3d96	0.04595717
55	0xbda51c9e	-0.08062099
56	0x3d4d292b	0.05008809
57	0x3d9afadc	0.07567379
58	0xbcf05de6	-0.02934165
59	0x3d0e60b3	0.03476019
60	0x3d133480	0.03593874
61	0xbbfc5f21	-0.00770177
62	0x3d8a4db0	0.06753099
63	0xbd3ab249	-0.045580182
64	0x3d18e4d0	0.037327588
65	0x3cc52fe3	0.024070686
66	0x3d34a0e3	0.044098746
67	0xbd694684	-0.056952015
68	0x3b97d230	0.0046332106
69	0x3d3d2639	0.04617903
70	0x3d4d00ed	0.05004971
71	0xbcc659c1	-0.02421272
72	0x3c893d9b	0.016753009
73	0xbd416c21	-0.04722226
74	0xbc4aca48	-0.012377329
75	0xbd86139c	-0.06546709
76	0xbcba123c	-0.022713773
77	0xbda06fcf	-0.07833826
78	0xbd83337b	-0.064063035
79	0xbce1ff49	-0.02758755
80	0x3d234f82	0.039870746
81	0xbd1c92cc	-0.038225934
82	0xbd8bcd49	-0.068262644
83	0x3d4f3d0b	0.050595324
84	0x3cfec91a	0.031101752
85	0x3d1fa64e	0.03897696
86	0x3d9f9f1b	0.07794019
87	0x3ca000e3	0.019531673
88	0x3d987286	0.074437186
89	0xbd9ad0a4	-0.07559326
90	0xbd80c4f3	-0.06287565
91	0xbcd643a2	-0.026155297
92	0xbd868547	-0.065683894
93	0x3d2469d6	0.040139996
94	0xbd995328	-0.07486564
95	0xba36be89	-0.0006971141
96	0xbb8e7e2f	-0.0043485384
97	0xbd886a84	-0.06660941
98	0xbd387e36	-0.04504224
99	0xbd0a09bf	-0.0337007
100	0xbcd3d3be	-0.025857802
101	0xbc9bf48b	-0.019037506
102	0x3d6389ed	0.05555146
103	0x3cf6e99d	0.030140692
104	0x3d696c89	0.056988273
105	0x3d8b546c	0.068032116
106	0x3d937a48	0.07201058
107	0xbd36a7fe	-0.044593804
108	0x3d0c517a	0.03425739
109	0x3d7edd0f	0.062222537
110	0x3cd8596f	0.026409833
111	0x3d597bb2	0.05309648
112	0x3c0889b1	0.008333609
113	0x3d8e67a5	0.069533624
114	0xbda43645	-0.080181636
115	0xbd056785	-0.032569427
116	0xbbef8811	-0.0073099216
117	0xbd8692d6	-0.065709755
118	0x3d4f4cb6	0.050610267
119	0xbd3950ea	-0.04524318
120	0xbd9020c0	-0.070374966
121	0x3c0807ac	0.00830261
122	0xbd09653a	-0.033543803
123	0xba572414	-0.0008206975
124	0xbda2d9ce	-0.07951699
125	0xbbfb367c	-0.007666407
126	0xbd8e59be	-0.06950711
127	0x3d5bc0cc	0.053650662
128	0x3d2c73f6	0.042102776
129	0x3d97f3d1	0.07419551
130	0xbc72d3e5	-0.014821027
131	0xbd48c843	-0.04901911
132	0xbd1742fb	-0.036929112
133	0x3bf78c40	0.007554561
134	0xbcfe6245	-0.031052718
135	0xbd4361f9	-0.047700856
136	0x3d52c0f7	0.051453557
137	0xbb7c01b2	-0.003845316
138	0xbd472844	-0.048622385
139	0x3d15d8e0	0.03658378
140	0xbd907e42	-0.07055332
141	0xbc39584e	-0.011312557
142	0xbbd4b536	-0.0064913286
143	0x3d248d71	0.04017395
144	0x3c260d38	0.0101349875
145	0x3c90faf6	0.017697793
146	0x3d0c9d57	0.03432974
147	0xbd67b645	-0.05657031
148	0x3d6ef667	0.058340456
149	0x3c7ec86c	0.015550714

weight f4 [150, 150]
0	0x3d410415	0.047123034
1	0x3d9a7e95	0.07543675
2	0xbaf14cae	-0.0018409693
3	0x3cf1d38b	0.029519817
4	0x3d924d50	0.071436524
5	0x3d027a3b	0.03185485
6	0xbc46c050	-0.012130812
7	0x3d8fcfcb	0.07022055
8	0x3d86bcbc	0.06578967
9	0xbd35055c	-0.044194564
10	0x3d59070f	0.052985247
11	0xbcc977ca	-0.024593253
12	0xbd7e265e	-0.06204831
13	0x3c69b306	0.014263874
14	0xbd827444	-0.06369832
15	0x3cae5134	0.021278955
16	0x3d7e22a5	0.06204476
17	0xbc8b25ed	-0.016985858
18	0xbcd2a0fc	-0.025711529
19	0xbc97a48e	-0.018511083
20	0xbc5b8e43	-0.013400617
21	0x3da11047	0.07864433
22	0x3d5d1540	0.053975344
23	0x3d8285de	0.063731894
24	0xbc87cbe9	-0.016576724
25	0xbcdd3f07	-0.027007593
26	0xbd39c00c	-0.045349166
27	0xbd6e1f19	-0.058135126
28	0xbc99344b	-0.018701693
29	0xbd8979e5	-0.06712703
30	0x3d522c53	0.051311802
31	0xbc951c0e	-0.018201854
32	0xbd62ddaf	-0.055387195
33	0x3c7143ff	0.014725684
34	0xbd8cec58	-0.068810165
35	0x3d6fe4b0	0.058567703
36	0xbd9bbdaf	-0.07604539
37	0xbd20e8ed	-0.039284635
38	0xbd95ccb9	-0.073144384
39	0x3d9a4ece	0.07534562
40	0x3da3e264	0.08002165
41	0x3d837dc3	0.064204715
42	0xbd188d0a	-0.03724388
43	0x3d30841f	0.04309475
44	0xbd070523	-0.032963883
45	0x3d0f3578	0.0349631
46	0xbd21b077	-0.03947493
47	0x3c992a9b	0.018697074
48	0x3d3edae1	0.046595458
49	0x3baecc64	0.005334424
50	0xbd98ea74	-0.074665934
51	0xbd13d395	-0.036090452
52	0x3da1766d	0.07883916
53	0xbb126be8	-0.002234215
54	0x3cc9d676	0.024638396
55	0xbd98c98d	-0.07460318
56	0x3d641759	0.05568633
57	0xbc0f7d76	-0.00875794
58	0x3d8ddf97	0.06927412
59	0x3d59c884	0.053169742
60	0x3d8b019f	0.067874186
61	0x3cfa1e95	0.03053216
62	0x3cb22b3e	0.021749135
63	0xbd10c740	-0.03534627
64	0xbce6f16c	-0.02819129
65	0xbd7ccf40	-0.061721087
66	0xbd14ea83	-0.03635646
67	0xbcda40bd	-0.026642198
68	0xbcbf7e89	-0.023375766
69	0xbd871228	-0.0659526
70	0x3d26960c	0.04067044
71	0xbda04369	-0.078253575
72	0xbc789bf7	-0.015173904
73	0x3cf920e5	0.030411193
74	0x3da11eda	0.078672126
75	0x3cdd2e8b	0.026999732
76	0x3b96abd9	0.0045981226
77	0x3d2b9c0c	0.041896865
78	0x3d3dc16f	0.04632705
79	0xbd803de4	-0.06261805
80	0x3cf1cf49	0.029517787
81	0xbd80c62f	-0.062878005
82	0xbd3c524b	-0.04597692
83	0xbd7de160	-0.061982512
84	0x3d936eb8	0.07198852
85	0x3c86337d	0.016381973
86	0x3d8afdc8	0.06786686
87	0x3c2e6420	0.010643989
88	0xbd711da1	-0.058866147
89	0x3cb4d570	0.022074431
90	0x3d68c0f2	0.056824632
91	0x3c2c4495	0.010514398
92	0x3d94e5ed	0.07270417
93	0xbd9ab8e0	-0.07554793
94	0xba230b3c	-0.00062196306
95	0xbd0eeddb	-0.034894805
96	0x3da4723f	0.08029603
97	0xbd2d88b2	-0.04236669
98	0xbc0b5dd3	-0.008506256
99	0x3cd174c7	0.02556838
100	0xbb32e706	-0.0027298345
101	0xbd85ddc4	-0.06536439
102	0x3cb5f186	0.022209894
103	0xbcff03e1	-0.03112978
104	0xba9a14b2	-0.0011755435
105	0x3bdfdd86	0.0068318276
106	0x3cf26582	0.029589418
107	0xbd95a727	-0.073072724
108	0xbcef32e8	-0.029199079
109	0xbc4d79e6	-0.01254127
110	0xbd93c7d0	-0.072158456
111	0xbd7edc41	-0.06222177
112	0x3bf2ea2f	0.0074131708
113	0xbd03d8b3	-0.032189082
114	0xb9cac66f	-0.00038676287
115	0xbda88200	-0.082279205
116	0xbd998e30	-0.07497823
117	0xbd612c20	-0.05497372
118	0xbd08a692	-0.03336198
119	0x3d5d88c7	0.05408552
120	0x3c3e4989	0.011614212
121	0xba0fc8cb	-0.00054849376
122	0x3d00a48b	0.03140692
123	0x3d0886b1	0.033331577
124	0xbd1d11a7	-0.038346913
125	0x3cbdbde0	0.023161829
126	0xbd60131c	-0.054705724
127	0xbd828fe6	-0.06375103
128	0x3b28de1d	0.0025767155
129	0xbd39c887	-0.045357253
130	0xbb9ed5f5	-0.004847283
131	0xbd325f37	-0.043547835
132	0xbc0e8483	-0.008698585
133	0x3d5ed590	0.054402888
134	0x3d882073	0.06646814
135	0x3d122729	0.035681877
136	0xbd4957d8	-0.04915604
137	0x3d970060	0.073731184
138	0x3d21c36e	0.039493017
139	0x3d9caa3e	0.076496586
140	0xbce5e5fd	-0.028063769
141	0x3cf1a641	0.029498221
142	0x3d2cee71	0.042219583
143	0xbccbe9f7	-0.024891837
144	0xbb5bafdc	-0.0033521568
145	0xbd8083aa	-0.06275113
146	0x3d0c3014	0.03422554
147	0x3d5ca783	0.05387069
148	0xbda8edb8	-0.08248466
149	0xbc965f63	-0.01835603
150	0x3d36d4eb	0.04463665
151	0x3cc8e738	0.024524316
152	0xbc222f66	-0.009898996
153	0xbd9c6650	-0.07636702
154	0xbd9b2446	-0.07575278
155	0x3d90cc7f	0.070702545
156	0x3cd88850	0.026432186
157	0x3d8a0be7	0.067405514
158	0xbd79e03f	-0.061004873
159	0xbccb3e91	-0.024810107
160	0xbbcb3f34	-0.0062026028
161	0xbd24539e	-0.040118806
162	0xbd23e9e3	-0.040017974
163	0x3d01c3d0	0.031680882
164	0x3d133036	0.03593465
165	0x3d4df254	0.05027993
166	0x3d92582d	0.071457244
167	0x3a61d1cd	0.00086143316
168	0x3d141ace	0.036158375
169	0xbcf06656	-0.029345673
170	0x3d24bb8d	0.040217925
171	0xbd391596	-0.0451866
172	0xbd4c6190	-0.04989773
173	0xbcabd096	-0.020973485
174	0xbd95df17	-0.07317942
175	0x3d99ee29	0.075161286
176	0x3d8255d5	0.063640274
177	0xbd087239	-0.033312056
178	0xbc692dd7	-0.0142321205
179	0x3d49e969	0.049294863
180	0xbb20ecd4	-0.0024555223
181	0xbd34a5bb	-0.044103365
182	0x3d8b56b7	0.06803649
183	0xbd6e4054	-0.058166817
184	0x3c5ca13a	0.013466174
185	0xbcaa2271	-0.020768376
186	0xbd9d04d8	-0.076669395
187	0xbd8fbc7c	-0.070183724
188	0xbd67c718	-0.056586355
189	0xbcaeb36f	-0.021325795
190	0x3d83649a	0.064156726
191	0xbce130c6	-0.027489077
192	0xbd582f65	-0.052779574
193	0xbc330d34	-0.010928441
194	0x3d395645	0.04524829
195	0x3b6ae249	0.0035840443
196	0x3d4abf5c	0.0494989
197	0xbd94dcbd	-0.07268665
198	0xbcd4a6a6	-0.02595837
199	0x3c32eab8	0.010920219
200	0x3cd5ae0c	0.026083969
201	0x3c7bfaeb	0.015379648
202	0xbd288862	-0.04114569
203	0x3c8e966a	0.017405707
204	0x3d37d201	0.04487801
205	0x3d782877	0.060585465
206	0xbd001fcb	-0.03128032
207	0x3d7ffa1d	0.062494386
208	0x3bc895f7	0.006121393
209	0xbbf9a0a9	-0.007618029
210	0xbcb2416a	-0.021759707
211	0xbd0e9d42	-0.03481794
212	0x3d1f6a79	0.0389199
213	0x3d984030	0.07434118
214	0xbb8d3213	-0.004308948
215	0x3da70c18	0.081566036
216	0xbd8e4ce1	-0.06948257
217	0x3d90909d	0.07058833
218	0x3d5ff4f5	0.05467697
219	0x3d375b84	0.04476501
220	0x3c814ba7	0.015783144
221	0x3d717849	0.058952603
222	0xbcc41859	-0.023937391
223	0x3da36277	0.07977765
224	0xbd8f7eb3	-0.07006588
225	0xbd30a689	-0.04312757
226	0xbc9e9b2d	-0.019361103
227	0xbc9544cb	-0.01822128
228	0xbc5530cd	-0.013012123
229	0xbcd4c6aa	-0.025973637
230	0x3c936a4a	0.017995019
231	0x3d9c5af5	0.07634536
232	0xba5c5189	-0.00084044837
233	0x3d42fbdb	0.04760347
234	0xbc9a01f6	-0.018799763
235	0x3da6cdc1	0.08144713
236	0xbd82b723	-0.06382587
237	0x3d739bf0	0.059474885
238	0x3d35b548	0.044362336
239	0xbba24868	-0.004952479
240	0xbcd8ac33	-0.026449298
241	0xbcd9a40f	-0.026567487
242	0xbadfe862	-0.0017082805
243	0xbd6d4228	-0.05792442
244	0xbd38f895	-0.04515894
245	0xbd838caf	-0.06423318
246	0xbd3f22ee	-0.04666417
247	0x3d327c87	0.04357579
248	0x3d2a18c9	0.041527543
249	0xbd82d83f	-0.06388902
250	0xbc3f8ac6	-0.011690801
251	0xbd02cb95	-0.031932432
252	0xbd61f2fb	-0.055163365
253	0xbc9a7b6f	-0.018857686
254	0xbda890a2	-0.082307115
255	0xbd9d1934	-0.07670823

bias f4 [150]
0	0x3d8f0393	0.069831036
1	0xbba6abf7	-0.005086418
2	0x3baae5eb	0.0052153966
3	0xbd59df7d	-0.05319165
4	0x3b2d2b71	0.0026423598
5	0xbccfef7d	-0.025382752
6	0xbd9aba26	-0.07555036
7	0x3ad160f1	0.0015974325
8	0x3c6277e4	0.013822529
9	0xbd1edfeb	-0.038787764
10	0xbb6fec42	-0.0036609326
11	0xbc1bbf40	-0.009506047
12	0xbd8def95	-0.06930462
13	0xbd9bd3ef	-0.076087825
14	0xbd082166	-0.033234976
15	0xbc3df198	-0.011593245
16	0xbd6da030	-0.058014095
17	0xbc64e328	-0.013970174
18	0x3ca9b230	0.02071485
19	0xbd8c83bd	-0.068610646
20	0xbd2fe8e2	-0.042946704
21	0x3d4d4187	0.05011132
22	0x3d5f56ad	0.05452602
23	0xbcb2d787	-0.021831287
24	0xbd62df83	-0.05538894
25	0xbd8446f8	-0.06458849
26	0x3c11b8e8	0.008894183
27	0x3d6fdf9d	0.058562864
28	0x3cd73dce	0.026274588
29	0xbcf9ef96	-0.030509751
30	0x3d04ac4e	0.032390885
31	0xbbd0834c	-0.006363308
32	0xba990b57	-0.0011676353
33	0xbd178894	-0.036995485
34	0x3d8791ce	0.06619607
35	0xbcdc7a1c	-0.026913695
36	0xbd7e5b63	-0.062098872
37	0xbd71ae59	-0.05900416
38	0xbcc10084	-0.023559816
39	0xbcf8001e	-0.030273493
40	0x3b23d54f	0.0024998968
41	0xbb8d6477	-0.004314955
42	0x3d033b44	0.032038942
43	0xbd981931	-0.0742668
44	0x3d2537ee	0.04033654
45	0xbc022a5d	-0.0079446705
46	0x3c73294a	0.014841387
47	0x3d1e82d0	0.03869897
48	0x3cdc0763	0.026858991
49	0x3c3941b5	0.01130717
50	0xbb096e7e	-0.00209704
51	0xbbb2c0db	-0.005455119
52	0xbd53db05	-0.051722545
53	0xbbff1b9d	-0.007785274
54	0xbd6e69c3	-0.05820633
55	0x3cd4f121	0.025993885
56	0xbd76e0c7	-0.060272958
57	0xbd0fae90	-0.035078585
58	0x3d94fca9	0.072747536
59	0x3c893567	0.016749097
60	0x3d9bfe5d	0.07616875
61	0x3ca079d1	0.019589337
62	0xbd89984f	-0.06718504
63	0x3d7255ef	0.059163984
64	0xbd8f0439	-0.06983227
65	0x3a9d6877	0.0012009282
66	0x3c35a997	0.011087797
67	0x3d43e3aa	0.04782454
68	0x3d85db32	0.06535949
69	0xbd08ca65	-0.033396143
70	0x3d369193	0.044572424
71	0x3d17b989	0.037042174
72	0x3c289a89	0.01029075
73	0x3d1b834f	0.037967023
74	0x3d745a12	0.05965621
75	0xbc1a14e8	-0.0094043985
76	0x3cde0f28	0.027106836
77	0x3d4fb7ce	0.0507124
78	0xbd54e3e2	-0.05197514
79	0x3cf9aaaa	0.030476887
80	0xbcbaf6b8	-0.022822723
81	0x3cf4c41a	0.029878665
82	0xbd9410e3	-0.072297834
83	0x3d2813b8	0.04103443
84	0xbc95cc49	-0.018285887
85	0x3c0c4a24	0.008562598
86	0x3b3338bd	0.002734705
87	0x3d925047	0.07144218
88	0xbcf5c837	-0.030002696
89	0x3d0c6204	0.034273162
90	0x3c26dea5	0.0101849185
91	0xbd9633ee	-0.073341236
92	0x3d965c06	0.07341771
93	0xbc0c9c66	-0.00858221
94	0xbd69d3d5	-0.057086784
95	0xbd8cafcc	-0.06869468
96	0xbd906a6b	-0.070515476
97	0xbd3117a2	-0.04323543
98	0xbd772873	-0.06034131
99	0x3b3882c9	0.0028154126
100	0x3d0b03c8	0.033939153
101	0x3c94d35c	0.01816719
102	0x3d6a2ba4	0.057170525
103	0xbd212e7c	-0.03935097
104	0x3d5c03ad	0.053714443
105	0x3bf37c57	0.007430594
106	0xbd761aef	-0.06008428
107	0xbd8a0648	-0.06739479
108	0x3be0c811	0.0068597873
109	0x3bf5b182	0.007497967
110	0x3d91abea	0.07112868
111	0xbca237c6	-0.019801985
112	0xbd482073	-0.04885907
113	0x3a8a228d	0.0010538861
114	0xbd50f641	-0.051016096
115	0xbcb6c41c	-0.02231031
116	0x3d64c93b	0.05585597
117	0xbcc095cf	-0.023508934
118	0xbd0f53aa	-0.034991898
119	0xbcf100d5	-0.029419342
120	0x3c3173b2	0.010830807
121	0x3c43db98	0.011954211
122	0xbc8b8360	-0.017030418
123	0xbd3b330a	-0.04570297
124	0x3d25e016	0.040496908
125	0x3c21eaff	0.009882688
126	0xbd3b3cbc	-0.045712218
127	0x3c4602ce	0.01208563
128	0x3d288c70	0.041149557
129	0xbd528aa9	-0.051401768
130	0x3d9ce71b	0.07661267
131	0x3d0c1c62	0.034206755
132	0xbd8465f4	-0.064647585
133	0xbda05789	-0.07829196
134	0x3cd2eb25	0.025746891
135	0x3d549282	0.051897533
136	0xbcdddd62	-0.027083103
137	0x3c6d0664	0.014466856
138	0x3d9d5438	0.07682079
139	0xbd8e9766	-0.06962471
140	0xbd9e31c6	-0.07724337
141	0x3c865ba5	0.016401121
142	0xbc3dc70a	-0.011583099
143	0xbd455be9	-0.048183355
144	0xbd490da8	-0.04908529
145	0x3d8dbac7	0.069203906
146	0xbc320b4f	-0.010866954
147	0x3d8df2bf	0.06931066
148	0x3c81bead	0.015837992
149	0x3da2324e	0.07919751

weight f4 [150, 150]
0	0x3bc78453	0.0060887723
1	0xbd889e10	-0.06670773
2	0x3cbe3ffd	0.023223871
3	0xbc9435e0	-0.018092096
4	0xbcdb3dbc	-0.026762836
5	0xbcfbd952	-0.030743275
6	0x3cb16ecb	0.021659276
7	0x3d819c04	0.06328586
8	0xbd279844	-0.040916696
9	0xbced1e39	-0.028945075
10	0xbcfce186	-0.030869257
11	0xbd9a99b3	-0.07548847
12	0x3d03ce7c	0.03217934
13	0x3d9f20c1	0.07769919
14	0x3d3889df	0.04505336
15	0xbd6f82c5	-0.05847432
16	0xbd424af5	-0.047434766
17	0xbd97b969	-0.07408411
18	0xbd0367a9	-0.03208128
19	0x3bf0d2b4	0.0073493365
20	0xbda44a22	-0.08021952
21	0x3d357f26	0.04431071
22	0xbd9dad7c	-0.07699105
23	0xbda6281f	-0.08113121
24	0x3ce0e1c5	0.027451405
25	0x3d823ed6	0.06359641
26	0xbc425f15	-0.01186349
27	0xb97e5bb3	-0.00024257488
28	0x3d9863a0	0.07440877
29	0x3c9f8719	0.0194736
30	0xbc7dfd10	-0.015502229
31	0xbd3778eb	-0.04479305
32	0xbd7d1250	-0.061785042
33	0x3c02e0e1	0.007988186
34	0xbd050097	-0.032471266
35	0xbb221fc2	-0.0024738167
36	0xbd84653d	-0.06464622
37	0xbd0d9248	-0.034563333
38	0xbd276e85	-0.040876884
39	0x3d71c36b	0.059024256
40	0x3d885bbc	0.06658122
41	0xbbf0f332	-0.00735321
42	0xbd7e1139	-0.062028144
43	0x3d559130	0.052140415
44	0x3ca00e78	0.01953815
45	0x3d4a1923	0.04934038
46	0x3da259ca	0.07927282
47	0x3d822882	0.063553825
48	0x3c94ee4e	0.018180039
49	0xbd218040	-0.03942895
50	0xbd59362c	-0.053030178
51	0x3d9b157b	0.075724564
52	0x3d7631a8	0.06010595
53	0xbd81899b	-0.06325074
54	0x3d871fa4	0.06597832
55	0x3cf8bde0	0.030363977
56	0x3aedf55c	0.0018154788
57	0x3c2955d2	0.010335403
58	0x3c25ad6b	0.010112147
59	0xbd4950d4	-0.04914935
60	0x3d0ce106	0.034394287
61	0xbcc7e1bc	-0.02439963
62	0x3d88e094	0.0668346
63	0xbba639e3	-0.0050728186
64	0xbd52c58e	-0.051457934
65	0x3d76d34e	0.06026011
66	0xbd97263a	-0.07380338
67	0xbd228390	-0.03967625
68	0xbd975904	-0.07390025
69	0xbc9dc872	-0.019260619
70	0xbda30651	-0.07960189
71	0x3d13eb39	0.036112998
72	0xbd61d57c	-0.055135235
73	0x3d8802d0	0.066411614
74	0x3da42f61	0.08016849
75	0xbd5f5aa0	-0.054529786
76	0xbce7e731	-0.028308483
77	0x3d188bf3	0.03724284
78	0x3d907760	0.07054019
79	0xbb778522	-0.0037768562
80	0x3d0f2b73	0.034953546
81	0x3d20201c	0.039093122
82	0xbd14ab71	-0.03629631
83	0xbd9c72d8	-0.07639092
84	0x3ce039ca	0.027371306
85	0xbd86d55a	-0.06583662
86	0xbd3e0537	-0.046391692
87	0x3d8e4ad1	0.06947864
88	0xbd570f47	-0.052504804
89	0xbd6b3c77	-0.05743071
90	0x3d408d66	0.047009848
91	0x3d441711	0.04787356
92	0x3d68c1c8	0.05682543
93	0xbd288499	-0.04114208
94	0xbd883995	-0.06651608
95	0xbd351d3c	-0.044217333
96	0x3d87806e	0.06616293
97	0xbd33775e	-0.04381501
98	0xbc92d4d6	-0.017923754
99	0x3d7a8c32	0.061168857
100	0xbd2a5b5c	-0.041591033
101	0xbbd5ee68	-0.0065286644
102	0xbd4164d3	-0.047215294
103	0xbd6aec31	-0.057354156
104	0x3ce43f76	0.027862292
105	0xbda20786	-0.07911591
106	0x3c8b41c2	0.01699913
107	0xbc56de87	-0.013114578
108	0x3d5b6043	0.0535586
109	0x3d55391c	0.052056417
110	0x3bc4f9c6	0.0060112206
111	0xbd256f90	-0.040389597
112	0xbd94f2d2	-0.07272877
113	0xbd2a0838	-0.041511744
114	0xbd9899c2	-0.07451202
115	0x3c5a69b5	0.013330867
116	0xbb357090	-0.00276855
117	0x3d895bfa	0.06706996
118	0xbd23e133	-0.04000969
119	0xbc5fda04	-0.013662819
120	0xbcb4955b	-0.022043874
121	0x3ca549f9	0.020176874
122	0x3caf92a2	0.021432225
123	0x3d8f7492	0.07004656
124	0xbd2254ef	-0.03963178
125	0x3d9e1320	0.077184916
126	0xbcb48996	-0.022038262
127	0x3d7c4822	0.06159223
128	0xbd1d760b	-0.038442653
129	0x3d4bdc6e	0.049770765
130	0x3d2d7d2d	0.042355705
131	0xbc48b42c	-0.012249988
132	0xbcdea9b6	-0.027180534
133	0x3d8aac1c	0.067711085
134	0xbc62f242	-0.013851704
135	0xbd8f057a	-0.069834664
136	0x3b811f3e	0.003940492
137	0xbd7df387	-0.061999824
138	0xbd58ce92	-0.052931376
139	0x3ce76ff8	0.028251633
140	0x3c9b8718	0.018985316
141	0xbd1d54a3	-0.038410794
142	0xbd759b9f	-0.059962865
143	0x3c1399a0	0.009008795
144	0x3c3fcc38	0.011706404
145	0xbc8280ec	-0.015930615
146	0x3ce2609e	0.027633961
147	0x3d965672	0.07340707
148	0xbd9bbb72	-0.07604112
149	0xbd4cf89f	-0.05004179
150	0xbcd17f7b	-0.025573483
151	0xbccb39e9	-0.024807887
152	0xbd5efd79	-0.05444095
153	0xbd29f650	-0.041494668
154	0x3c622448	0.013802595
155	0x3d5be4eb	0.05368511
156	0xbd9db0fc	-0.07699773
157	0x3c73886f	0.014864071
158	0x3d8a8b9a	0.06764908
159	0xbd8f4450	-0.069954515
160	0x3d9a4ad5	0.07533804
161	0xbd8d8d77	-0.06911748
162	0x3d01de5b	0.031706195
163	0xbcceff0c	-0.0252681
164	0x3d822be6	0.06356029
165	0xbd953121	-0.07284761
166	0xb9d80ef7	-0.0004120988
167	0xbc15c9ad	-0.009142322
168	0xbd89a6d6	-0.067212746
169	0xbd357975	-0.044305284
170	0xbc57bfb6	-0.013168266
171	0xbd5a64b4	-0.053318694
172	0x3caac352	0.02084509
173	0xbc81da57	-0.015851183
174	0xbcf4b44f	-0.029871134
175	0x3d7dc561	0.061955813
176	0xbcf30737	-0.029666526
177	0xbd94a993	-0.07258906
178	0x3d044ee4	0.0323018
179	0x3d5c175b	0.05373321
180	0x3d8d54f3	0.069009684
181	0x3ccf6a21	0.02531916
182	0x3c055ba9	0.008139529
183	0x3b19a631	0.0023445005
184	0x3ca2d8f8	0.01987885
185	0xbd6ea0ff	-0.058259007
186	0x3b9ab438	0.004721191
187	0x3d863123	0.06552341
188	0x3d3a1d18	0.045437902
189	0x3d8c71e9	0.06857664
190	0x3cf5a9f5	0.029988268
191	0x3d5424c4	0.051792875
192	0xbd8afe75	-0.06786815
193	0x3cd7772c	0.026301943
194	0x3c342286	0.010994559
195	0x3d8ae3b1	0.0678171
196	0x3a619403	0.00086051243
197	0x3bb4b2ee	0.005514494
198	0x3d222aa2	0.03959144
199	0x3b1237da	0.0022311122
200	0xbd64b0ee	-0.055832796
201	0xbd884dde	-0.06655477
202	0xbc8bfe07	-0.017088903
203	0x3d8e0b07	0.06935697
204	0x3d8c7b30	0.06859434
205	0x3d1c50c4	0.03816296
206	0xbd3c49ba	-0.04596875
207	0xbd247b68	-0.040156752
208	0x3c8fa79d	0.017535979
209	0xbd7844b9	-0.060612414
210	0x3b8d3245	0.004308971
211	0xbcf83492	-0.030298505
212	0x3bbdcb4d	0.0057920576
213	0x3d2ab7e5	0.04167928
214	0x3d10953e	0.03529858
215	0x3d9ddbcd	0.07707939
216	0x3d4afdd7	0.049558487
217	0xbd049f4c	-0.03237848
218	0x3da776ce	0.08176957
219	0x3d939b6e	0.0720738
220	0xbd594048	-0.05303982
221	0x3d2010d7	0.03907856
222	0x3d53f336	0.051745616
223	0x3d829664	0.06376341
224	0xbbd3670e	-0.006451494
225	0xbd1f924a	-0.03895787
226	0x3da1e093	0.07904162
227	0x3d3c4ae0	0.045969844
228	0x3c88d7d6	0.016704481
229	0x3d447112	0.047959395
230	0xbb9e988d	-0.004839963
231	0x3d8bf8c2	0.06834556
232	0xbd8d90ac	-0.069123596
233	0x3d201d6b	0.039090555
234	0x3d9e25ed	0.077220775
235	0xbd169bc7	-0.036769655
236	0xbca1d6a3	-0.019755667
237	0xbc34b7ef	-0.011030181
238	0x3c380468	0.011231519
239	0x3d618a84	0.05506374
240	0x3bd4e7f1	0.006497376
241	0x3c4b593d	0.012411413
242	0xbd6510f1	-0.05592436
243	0xbcfef9f0	-0.031125039
244	0xbd1987c0	-0.037482977
245	0x3d9b9f27	0.07598715
246	0x3d167abf	0.036738154
247	0x3d3edf79	0.04659984
248	0xbd66869a	-0.05628071
249	0xbd2abc5a	-0.041683532
250	0x3d82324e	0.06357251
251	0x3d1db454	0.038502052
252	0x3dab18dd	0.08354352
253	0x3d58ef58	0.05296263
254	0x3da5eb8c	0.081015676
255	0xbd901991	-0.070361264

bias f4 [150]
0	0x3d3e3654	0.04643853
1	0xbcdbdc95	-0.02683858
2	0xbd6de852	-0.058082886
3	0xbcf9193b	-0.030407539
4	0x3b8d9c33	0.004321599
5	0xbc5a5d60	-0.013327926
6	0xbc307303	-0.010769608
7	0xbd3ed3a9	-0.046588574
8	0x3d673c2a	0.05645386
9	0xbd412c8a	-0.047161616
10	0x3c8cc31a	0.017182875
11	0x3d204b93	0.039134573
12	0xbd845a24	-0.064625055
13	0x3d02b421	0.031910066
14	0x3b7d0ce4	0.003861242
15	0xbd1c1709	-0.038107906
16	0x3d8ab6c1	0.06773139
17	0xbd38619c	-0.045014963
18	0xbd8d3523	-0.06894901
19	0xbd929cf9	-0.071588464
20	0xbd3081c5	-0.043092508
21	0x3d422a21	0.04740346
22	0x3d0551b3	0.032548618
23	0x3d8a2b00	0.06746483
24	0x3d95e7eb	0.073196255
25	0x3d8b1443	0.06790974
26	0xbb0eb6f8	-0.0021776538
27	0x3d562244	0.052278772
28	0xbce8d323	-0.02842099
29	0x3d07d209	0.03315929
30	0xbd906cde	-0.07052015
31	0x3d66b928	0.056328923
32	0x3d697452	0.056995697
33	0x3d674e7b	0.05647133
34	0xbd516a00	-0.05112648
35	0xbd9d0e94	-0.07668796
36	0x3d9a5394	0.075354725
37	0x3d614219	0.054994676
38	0x3d18d564	0.03731288
39	0x3ca1e326	0.019761633
40	0x3d15d017	0.036575403
41	0xbd90b88c	-0.070664495
42	0x3cd61a4e	0.02613559
43	0xbc35186f	-0.011053189
44	0xbcdf4ef5	-0.02725933
45	0x3ba13034	0.0049190763
46	0x3d4599d8	0.04824242
47	0xbd181ede	-0.037138812
48	0xbcd203e3	-0.025636619
49	0xbd9f9f34	-0.077940375
50	0x3c59adf3	0.013286102
51	0xbd447a58	-0.04796824
52	0xbcc2b043	-0.023765689
53	0x3d7f60ef	0.062348302
54	0xbcf82122	-0.030289236
55	0x3c76cd7b	0.015063639
56	0x3d8d8067	0.069092564
57	0x3d3bcde8	0.045850664
58	0xbd57fdb1	-0.052732173
59	0x3d701a2b	0.058618706
60	0x3c96c0b3	0.018402433
61	0xbd934407	-0.071907096
62	0xbd682b42	-0.05668188
63	0x3d6fc2d4	0.058535412
64	0xbd58e98f	-0.052957114
65	0xbd5ccb2e	-0.053904705
66	0xbd7913bd	-0.06080984
67	0x3cd1cd46	0.025610577
68	0xbd80a4ae	-0.0628141
69	0x3c098539	0.008393579
70	0x3ce76a9b	0.028249076
71	0xbd335c40	-0.04378915
72	0x3c3596dc	0.011083331
73	0x3d13d993	0.036096167
74	0x3d29cf8d	0.0414577
75	0x3d65a861	0.05606878
76	0x3c861f45	0.016372332
77	0xbd904b98	-0.07045668
78	0x3d9c2377	0.07623952
79	0xbd4670b5	-0.04844733
80	0xbc0e9a80	-0.008703828
81	0x3c704ccf	0.01466675
82	0x3da447ef	0.08021533
83	0xbd73382b	-0.059379738
84	0xbbe96dd8	-0.00712369
85	0x3d90bf4f	0.07067739
86	0x3bc86311	0.0061153253
87	0xbd8b5e77	-0.06805127
88	0x3d9db431	0.077003844
89	0xbcf466a3	-0.029834097
90	0x3c8e9f64	0.017409988
91	0x3d0e679c	0.03476678
92	0xbd2ba95b	-0.041909557
93	0xbcdb09d4	-0.026738085
94	0x3bc14fea	0.005899419
95	0xbd7dff29	-0.062010918
96	0xbd5d253c	-0.053990588
97	0xbd5a6c86	-0.053326152
98	0xbd6a2f0f	-0.057173785
99	0xbd7c92d8	-0.06166348
100	0x3d3b181c	0.04567729
101	0xbd91c782	-0.07118131
102	0xbb90a501	-0.0044142012
103	0x3d91d1f4	0.071201235
104	0xbd71a989	-0.058999572
105	0x3b681459	0.0035412519
106	0x3da481e3	0.080325864
107	0x3d95caa9	0.07314045
108	0x3c8d03c6	0.017213713
109	0xbd9f5c76	-0.077813074
110	0xbd725b82	-0.0591693
111	0x3d566a21	0.052347306
112	0xba87c5c1	-0.0010358618
113	0x3d8ec6c5	0.06971506
114	0x3d0dc8f2	0.034615465
115	0x3d8688c5	0.065690555
116	0xbbffdedc	-0.0078085493
117	0xbba1a11f	-0.004932537
118	0x3d43324e	0.047655396
119	0x3cc74806	0.024326336
120	0x3da84bad	0.08217559
121	0x3d8ee449	0.06977136
122	0x3d3eaf4a	0.046553887
123	0xbd431b7a	-0.047633626
124	0xbccf6e91	-0.025321277
125	0xbd50d8d9	-0.050988052
126	0x3b588d0d	0.0033043057
127	0x3c9f998c	0.019482397
128	0xbd850e5a	-0.06496878
129	0xbd693ef6	-0.05694481
130	0x3d7bb70f	0.061453875
131	0x3d901a82	0.07036306
132	0xbd79eaca	-0.061014928
133	0x3d95c770	0.0731343
134	0x3daf5bbe	0.0856242
135	0x3d721893	0.059105467
136	0x3cf1f2b7	0.02953468
137	0x3aa0a718	0.0012256829
138	0x3ca27333	0.019830322
139	0x3d515eeb	0.05111591
140	0x3cd5fa6f	0.026120393
141	0xbd2b6c91	-0.041851584
142	0x3d0bb240	0.03410554
143	0x3cd87a93	0.026425635
144	0xbcceb6d4	-0.025233664
145	0xbca13a3e	-0.019681092
146	0x3c226ead	0.0099140825
147	0xbd36f3c1	-0.044666056
148	0x3d27598c	0.040856883
149	0x3cb14835	0.021640876

weight f4 [1, 150]
0	0xbd922100	-0.071352005
1	0xbd63e809	-0.055641208
2	0xbd765d15	-0.060147364
3	0xbc8e1a62	-0.017346565
4	0x3dc12fe4	0.094329625
5	0x3d1980c0	0.0374763
6	0xbd3e1e1a	-0.046415426
7	0x3c8aa1d5	0.01692287
8	0xbd6b4abb	-0.057444315
9	0xbcedbc3f	-0.029020427
10	0xb9846c8e	-0.00025257881
11	0xbd591108	-0.052994758
12	0xbe140242	-0.14453986
13	0x3bb77860	0.0055990666
14	0xbd910065	-0.070801534
15	0xbd3bcf19	-0.0458518
16	0x3dec7c4a	0.11547144
17	0xbd6e9f4b	-0.058257382
18	0xbd9ca5ba	-0.07648797
19	0x3ce83acc	0.028348349
20	0xbd84bdeb	-0.064815365
21	0x3b02e3af	0.0019972136
22	0x3da2f530	0.07956922
23	0x3d1b9e8a	0.03799299
24	0xba63cc02	-0.00086897623
25	0xbce94782	-0.02847648
26	0x3d073658	0.03301081
27	0xbd4abd1f	-0.049496766
28	0x3d54e8a9	0.051979695
29	0xbd09131d	-0.033465493
30	0x3ccf4d0b	0.025305292
31	0xbdee159c	-0.116252154
32	0x3dc0072c	0.09376368
33	0xbd712f4f	-0.058883008
34	0xbd4245c1	-0.047429804
35	0xbc42aca2	-0.011881979
36	0xbd228a77	-0.03968283
37	0xbb79228f	-0.0038014983
38	0x3d25cdf3	0.04047961
39	0x3d9ceea2	0.07662703
40	0xbd58eb12	-0.052958556
41	0xbd466edc	-0.048445567
42	0xbd865346	-0.06558852
43	0xbc0a25fa	-0.008431906
44	0xbda19dc0	-0.078914165
45	0xbd657724	-0.056021824
46	0xbd459dee	-0.048246317
47	0xbd27208a	-0.040802516
48	0xbcd9a76c	-0.02656909
49	0x3c8404b0	0.016115516
50	0xbd9fca1c	-0.07802221
51	0x3d4dee1d	0.05027591
52	0x3da72fe5	0.08163432
53	0x3dd561c3	0.10419037
54	0xbd5f29f5	-0.054483373
55	0xbcd9afad	-0.026573027
56	0xbd1ce974	-0.038308576
57	0x3dbbfd14	0.0917913
58	0x3d4b09b9	0.04956982
59	0x3dc269b8	0.094928205
60	0x3de2ee10	0.11080563
61	0xbd441584	-0.04787208
62	0xbd3e80c7	-0.04650953
63	0xbcab8bac	-0.020940624
64	0xbd765557	-0.06013998
65	0xbd7160ab	-0.05893008
66	0x3cdd7236	0.027032
67	0x3d753ac3	0.059870493
68	0xbcf0f738	-0.029414758
69	0xbd44f6cb	-0.048086923
70	0x3d94de63	0.072689794
71	0x3dd92794	0.10603252
72	0xbdba1e67	-0.0908783
73	0x3d4ef01f	0.050521966
74	0xbd83f9d1	-0.06444133
75	0xbd8aae27	-0.06771498
76	0xbdc04f72	-0.09390153
77	0x3d8f4295	0.069951214
78	0x3d8ffa12	0.07030119
79	0xbcc9fa4b	-0.024655482
80	0xbd570738	-0.05249712
81	0x3d672664	0.056433097
82	0x3d57d036	0.0526888
83	0xbc9ba5f9	-0.01900004
84	0x3dc7c10d	0.097536184
85	0xbd6a6419	-0.057224367
86	0x3de3dc15	0.11125962
87	0x3c6c40df	0.014419763
88	0x3db8906d	0.09011922
89	0xbcfa8e07	-0.030585302
90	0xbd0294f3	-0.03188033
91	0x3d76db83	0.060267936
92	0xbd9f3a68	-0.07774812
93	0xbb52ca85	-0.0032164168
94	0x3d4b7fad	0.049682308
95	0x3d0bcfd9	0.034133766
96	0xbdb08d8b	-0.08620747
97	0xbd5e089a	-0.05420742
98	0xbc724cbf	-0.0147888055
99	0xbd1d94b4	-0.038471892
100	0x3de906e1	0.11378265
101	0xbb8b8ea8	-0.0042589493
102	0xbd0af06a	-0.033920683
103	0xbd9daab9	-0.076985784
104	0xbd038f17	-0.032118883
105	0xbd9c234d	-0.076239206
106	0x3d8672dd	0.06564877
107	0xbdbb3e33	-0.09142723
108	0x3e0078f4	0.1254614
109	0x3d096f27	0.03355327
110	0xbc56590c	-0.013082754
111	0x3d140b64	0.036143675
112	0xbd744d8d	-0.05964427
113	0xbc90b261	-0.017663183
114	0x3d0d1c45	0.034450788
115	0xbdab3cb6	-0.08361189
116	0x3db7a411	0.0896684
117	0xbbab2ac1	-0.0052236025
118	0x3d275368	0.040851027
119	0x3d82fb6d	0.06395612
120	0x3d4b5e9a	0.049650766
121	0xbd666ccf	-0.05625611
122	0x3d243950	0.04009372
123	0x3ceaaedd	0.028647834
124	0xbc3bb940	-0.011457741
125	0xbd87683d	-0.06611679
126	0xbda63afd	-0.0811672
127	0x3d90abdd	0.0706403
128	0xbd8d71c8	-0.06906468
129	0x3c34d6e5	0.011037563
130	0xbb37f939	-0.0028072132
131	0xbd1135ad	-0.03545158
132	0xbd16d3b3	-0.036822986
133	0xbd4b2991	-0.049600188
134	0x3d9a5a00	0.075366974
135	0x3d6a26c6	0.057165883
136	0x3d3edbdc	0.046596393
137	0x3a446b4b	0.00074927945
138	0x3dab7703	0.08372309
139	0xbc8ba793	-0.017047679
140	0xbd8c7f9a	-0.068602756
141	0x3c0f719a	0.008755112
142	0x3cafb7a2	0.021449868
143	0xbdcdceef	-0.10049235
144	0xbdc1d56e	-0.094645366
145	0x3d6a34af	0.05717915
146	0xbcc31109	-0.023811834
147	0x3dd4177f	0.10356044
148	0xbdc636a6	-0.09678392
149	0x3b7b8877	0.00383809
