Backgammon2/pub_stomper_repository/nn_pg_2_pgmodel.pt (torch_old, 86468 bytes, 3 tensors)

weight f4 [100, 200]
000000 19 74 05 3c d7 4c c5 3c 61 67 6e bd 98 00 02 bc
       0.008145356 0.024084492 -0.05820406 -0.007934712
000010 82 ee 22 bd 11 6c 10 3d 94 0a d6 bc 72 d2 64 bd
       -0.03977824 0.03525931 -0.02612809 -0.05586476
000020 f5 83 57 bb 64 a5 55 3c 0f 01 00 bd 4e de 93 3d
       -0.003288505 0.0130399205 -0.03125101 0.07220136
000030 80 16 2a bc 8d c4 0e bd 44 3c 59 bd b4 b6 2d 3d
       -0.010381341 -0.034855414 -0.05303599 0.042410567
000040 0e 07 c1 3c 79 b8 63 bd 0f 5b ab bc 17 b4 2a 3c
       0.023562934 -0.05559585 -0.020917444 0.010418913
000050 45 2f 0f 3d df 62 03 3d a3 f5 c1 bb 24 df 55 3c
       0.03495719 0.032076713 -0.0059191748 0.013053689
000060 c1 83 99 bc 62 bc 6c 3d f2 e8 74 3c f1 67 9d 3c
       -0.018739583 0.057796843 0.014948117 0.019214602
000070 e2 37 d5 3b 46 20 3f 3c 65 c4 37 bd d7 f4 2b ba
       0.006506906 0.011665409 -0.04486503 -0.00065596163
000080 6b 48 1d bc 1f d2 f0 3c bb 67 4a 3d 9a 03 c2 3c
       -0.009599785 0.029397069 0.04941533 0.023683358
000090 a9 87 f9 3c d8 d7 81 3d 14 ad 5f bc 3a ee ef bc
       0.030460196 0.06339997 -0.013652105 -0.0292884
0000a0 3e 49 08 bd 0f cb e8 bc 37 a5 44 bd f3 31 9c 3c
       -0.033272974 -0.028417138 -0.048009124 0.019066786
0000b0 69 a8 f1 bc 0c 4c 8c 3b 7a d6 fa bc 4b c3 86 3d
       -0.02949925 0.0042815264 -0.030619849 0.06580218
0000c0 0f 32 9a 3c a6 02 d7 bb 6e df 4f bd 3f 1a 24 bd
       0.018822698 -0.006561595 -0.05075019 -0.040064093
0000d0 92 15 3a 3d 6c 00 00 3d 9b a7 3c bb 13 28 e6 bc
       0.045430727 0.031250402 -0.0028786424 -0.02809528
0000e0 4a c8 15 bd 8a fa 8f 3c 77 9e 82 3d e6 2b 47 3c
       -0.036567964 0.017575521 0.06377881 0.012156462
0000f0 95 47 f0 bc da 99 0f 3d bb 29 14 3d 22 29 27 3d
       -0.029331008 0.035058834 0.03617261 0.04081071
000100 d4 12 60 3c 60 2d 26 bd b7 00 a4 3c 83 08 1b bd
       0.013676364 -0.040570617 0.020019872 -0.037849914
000110 92 17 ef 3c 23 d7 2f bd b5 b8 39 3d a3 cb 8a 3d
       0.029186044 -0.04292978 0.045342166 0.06777122
000120 2a ec 84 bd a1 61 1e 3b 3c 0e e0 3b a8 e1 00 bc
       -0.06490357 0.0024167078 0.0068376344 -0.007866301
000130 46 60 f6 bc 67 09 7c 3d 45 2b bc bc b4 3a 9d 3a
       -0.030075204 0.061532404 -0.022969851 0.0011995644
000140 10 3b 5c bd fb 62 7b bd 53 85 89 bc 7f 3a 68 3b
       -0.053767264 -0.061373692 -0.016787207 0.0035435257
000150 f8 b9 33 3d 13 92 4b 3d 12 13 6f 3d 0d 16 34 bd
       0.043878525 0.049699854 0.058367796 -0.04396634
000160 c5 d6 87 3d ab 39 5b bd 93 83 59 bd 40 8e 9f 3c
       0.06632761 -0.053521793 -0.053103995 0.01947701
000170 ed 7f 37 bc c2 6b e3 3b 8d a8 d8 3c 28 85 09 3d
       -0.0111999335 0.006940336 0.026447559 0.033574253
000180 a7 d2 22 3d dc bb be 3b bc 6b 1f bd e2 ec 58 3d
       0.039751675 0.0058207344 -0.038921103 0.052960284
000190 0f be 70 bd 23 7a 87 bd 93 5c 10 bd f1 d3 34 3d
       -0.058775004 -0.066150926 -0.035244536 0.044147436
0001a0 fb 6a 00 bc 67 4c 16 bc a0 9c 69 3d 28 c1 d1 bc
       -0.007838006 -0.009173489 0.057034135 -0.0256048
0001b0 2b d7 69 bd 48 df 6a bd a1 fb 6c 3c 66 08 04 bd
       -0.057089966 -0.057341844 0.01446429 -0.032234572
0001c0 e3 ac 90 3c 90 17 47 3a 61 83 dc 3b ba ee 53 3c
       0.017660564 0.00075947586 0.006729529 0.012935335
0001d0 4b c8 a5 3c bc d9 fc 3c f1 42 61 bd 1f 6c fc ba
       0.020237109 0.030865543 -0.05499548 -0.0019258297
0001e0 0a 64 12 3c 04 27 67 3d 73 20 8b bb fa 35 0b 3d
       0.008934984 0.056433693 -0.0042458116 0.033987023
0001f0 51 01 c4 3c 5c 19 8d 3d 29 35 2c bd 6c 48 15 bd
       0.023926409 0.068896025 -0.042042885 -0.03644602
000200 b8 d4 5a 3d 78 6e 5b bd 57 60 f2 3c 89 9f 5d bd
       0.05342552 -0.053572148 0.029586954 -0.054107223
000210 6c 97 18 3d a1 82 1c 3d 04 53 79 3d d2 4b 07 bd
       0.037253782 0.038210515 0.060870185 -0.033031292
000220 00 b7 29 bc ca dd 4c bb b1 98 13 3d 56 62 46 3d
       -0.010358572 -0.0031260126 0.03603429 0.048433624
000230 05 b9 eb 3c f7 65 44 bd 9d 1c 4e 3d 15 5f 98 bc
       0.028774748 -0.047948804 0.050320257 -0.018600026
000240 fb 60 8b 3d 35 99 84 3d c1 cf 29 bd 6c ee 53 bd
       0.06805607 0.064745344 -0.041457895 -0.05174105
000250 79 df 8a 3b 8d 52 48 bd a0 ee 1a bd b7 73 81 3d
       0.004238066 -0.04890685 -0.037825227 0.06320899
000260 c6 1c a7 3b fa 7c 98 3d 62 08 a5 3c 5e 8d 6e 3d
       0.0050998656 0.074457124 0.020145599 0.058240287
000270 6c 9c 66 3c 8d f3 81 bd 48 9f 76 3c 2d 20 86 3d
       0.01407538 -0.06345282 0.015052624 0.06549106
000280 56 d3 27 bd 1f d9 3f bd fe 15 81 bd 5b 88 9f bc
       -0.04097303 -0.046837922 -0.06303023 -0.019474199
000290 ed 7c 4b 3d 6b 93 f6 bc 18 82 63 bd 20 00 68 bd
       0.049679685 -0.030099591 -0.05554399 -0.056640744
0002a0 11 06 d7 bc 4b 14 f8 bb 9c 3c 09 3d fe ab 8b bc
       -0.02624801 -0.0075707785 0.033505067 -0.017049786
0002b0 1f 40 0c 3d 1f 36 d7 3c ef 8d 2e bd 67 9e 34 bd
       0.03424084 0.026270924 -0.042615827 -0.044096377
0002c0 6e 9c ce bc 8a 69 31 3c cc 30 8b 3d 3c 05 80 3d
       -0.025221076 0.010828385 0.06796417 0.062509984
0002d0 8d 3a ca bc c9 34 4c 3a 16 be be 3c 7d 70 89 3b
       -0.024686122 0.0007789848 0.023284 0.004194318
0002e0 f7 88 e0 bc 61 fb 08 bd 82 b6 fd bc 53 3f 24 bd
       -0.02740906 -0.03344286 -0.030970816 -0.040099453
0002f0 43 7c ba 3c be c7 67 bd c0 2d 6d bc 46 7c 77 3d
       0.02276433 -0.056586973 -0.01447624 0.06042125
000300 21 2f 51 3d 08 b1 67 bd c9 4e 05 bd 11 1a 02 bd
       0.051070336 -0.056565315 -0.03254584 -0.03176314
000310 70 19 27 bd ca 0e 52 3c a3 be 5f 3c 82 76 41 3d
       -0.040795743 0.012820909 0.013656291 0.04723216
000320 97 05 02 3c 29 3d 8b bd 1a 83 65 bd 9d ca 05 3d
       0.007935903 -0.06798775 -0.05603323 0.03266393
000330 60 da 1c bd 57 f3 ec bc 0e 4c 8e 3d 09 8d c9 3c
       -0.038294196 -0.028924627 0.069481 0.024603384
000340 e2 67 91 bd ef 34 45 bd b4 8a 72 3d 54 47 7b bd
       -0.07099892 -0.048146185 0.05921431 -0.06134732
000350 bb 84 de bc 6f 9c 0e 3a 03 8a e1 3b b1 07 35 bd
       -0.0271629 0.00054401805 0.0068829074 -0.04419679
000360 cb 8d dd 3c 74 b6 af bc 4b fa 74 bd f2 8b fa bb
       0.027045151 -0.021449305 -0.05980901 -0.0076460773
000370 5e c1 7f 3b 77 42 71 bd 13 c5 15 3c 48 b4 39 bd
       0.0039025168 -0.058901276 0.009141224 -0.045337945
000380 47 f8 91 bc 00 a5 86 3d 42 eb 7b 3c 88 3d 08 bd
       -0.017818583 0.0657444 0.015375914 -0.033261806
000390 b7 56 69 3d f7 7a 4f 3d c7 fb 31 bc ab cf 93 3d
       0.056967463 0.050654378 -0.010863251 0.07217344
0003a0 dd 12 8c bd bd d7 04 3d 99 c6 82 bd b0 85 e9 3a
       -0.068395354 0.032432307 -0.06385536 0.0017816331
0003b0 c8 57 a6 3b f7 a8 ed 3c 81 0a 58 3d 3e b5 3f 3d
       0.0050763823 0.029011233 0.052744392 0.046803705
0003c0 ba 77 82 3d 5b 5e 56 3c 48 04 80 3d c9 81 c9 bc
       0.06370492 0.0130840195 0.062508166 -0.02459802
0003d0 71 f2 00 bd 4b 50 b1 bb 7a 10 2f bd 70 5d aa b9
       -0.03148121 -0.005411183 -0.042740323 -0.00032494543
0003e0 1c b4 4d bc 88 26 57 bc f3 93 a8 3a 2a 23 45 3d
       -0.012555148 -0.013131745 0.0012861475 0.04812924
0003f0 3f e6 7a 3d dc d3 df 3c 27 67 bb bb 1e 71 e0 bc
       0.061254736 0.027322702 -0.005719084 -0.027397688

bias f4 [100]
000000 c6 aa 45 bd 62 4f fa bc 6d 81 8d 3d 62 75 e1 bc
       -0.048258565 -0.03055543 0.06909452 -0.027521793
000010 88 49 21 3c bd 67 86 bd a6 29 b7 bc 20 b0 51 bb
       0.009844191 -0.06562755 -0.022358727 -0.0031995848
000020 d2 01 8f bc 63 65 82 3d 30 4f 2b bc 80 e9 f2 ba
       -0.017456923 0.06366994 -0.0104558915 -0.0018532723
000030 d0 29 e8 bb c8 b8 3b bd b0 fd 00 3c 93 87 8c 3d
       -0.0070850626 -0.045830518 0.007872984 0.06861796
000040 1c 96 0e 3d 00 a6 28 bd b4 bd 70 bc 7b 0e 8a bd
       0.034811124 -0.041173935 -0.014693666 -0.06741043
000050 dd ea a2 bb 87 a0 8e 3d 80 3f 84 bc 3d a9 09 bd
       -0.0049718455 0.06964212 -0.01614356 -0.033608664
000060 18 a2 2b 3c 80 19 04 bc e8 f6 75 3c 74 8c 0c bc
       0.010475658 -0.00806272 0.01501248 -0.0085784085
000070 00 2b a7 3c 9c 70 35 bd 6a 1d ad 3a 78 2f 83 3c
       0.020406246 -0.044296846 0.0013207619 0.016013846
000080 94 61 10 3d 3e 35 44 bd 14 ef d4 3c a0 63 0a bd
       0.035249308 -0.04790234 0.025992908 -0.033786416
000090 76 1c 16 3d 6e 45 18 3d 20 c0 d1 bb 60 de 43 3b
       0.036648236 0.03717559 -0.006401077 0.0029887185
0000a0 88 4c 3d 3c 5d 32 78 bd 24 3a cf 3c fc c8 ce 3c
       0.011553891 -0.060594905 0.025296278 0.025242321
0000b0 96 16 32 3d 80 41 ca 3b 00 b9 3d 3d 00 73 db bc
       0.04347857 0.006172359 0.046319008 -0.026788235
0000c0 dc f6 a1 3c aa 1c bc 38 d8 a5 d3 3c 14 10 c0 3c
       0.019771032 8.969878e-05 0.025835916 0.023445167
0000d0 50 79 da 3b c0 a0 33 bc 00 0d fe bc e2 4c 78 3a
       0.0066672936 -0.010963619 -0.031012058 0.00094719057
0000e0 fe 02 5c 3d a8 76 9b bc 0f e6 17 bd 44 ee 51 bd
       0.05371379 -0.018977478 -0.037084635 -0.05125262
0000f0 20 d5 33 3d 8e 53 33 bd d0 7d 5e bc ce fb 85 bc
       0.043904424 -0.043780856 -0.013579801 -0.016355421
000100 49 d3 9e 39 20 42 e4 bc 7a 8f 8e bd 4b aa 15 bd
       0.00030293528 -0.027863562 -0.0696096 -0.036539357
000110 00 04 cb bc 96 19 5e 3d 90 47 e8 3c f1 61 80 3d
       -0.02478218 0.05422362 0.028354436 0.06268681
000120 e8 78 05 3d 70 fb 2c 3c de 11 00 3d 5f 0a cf bb
       0.03258601 0.010557994 0.03126704 -0.006318375
000130 1e cc 57 3d 04 56 1d bd 54 e9 34 3b 2b 2e 08 bd
       0.052684896 -0.03841211 0.0027604895 -0.033247154
000140 a4 99 80 bc 50 ab d3 3c f0 b6 48 bc be 4c c2 bc
       -0.015698262 0.025838524 -0.012250647 -0.023718234
000150 4a f3 40 3d 3c d7 53 bc 1f d3 34 bb 78 02 90 bd
       0.04710702 -0.012929734 -0.0027591658 -0.07031721
000160 af f5 89 3d 3b f0 58 bd 2f 80 84 bd 8e 3f 72 bd
       0.067363136 -0.052963477 -0.064697616 -0.05914264
000170 4a 20 0b 3d 90 da 5f bd ee 91 f0 bc 20 90 58 bb
       0.03396634 -0.054651797 -0.02936646 -0.003304489
000180 08 1d 00 bc be 1e 73 3d 02 53 36 3d 64 5e b4 bc
       -0.007819422 0.05935549 0.044512756 -0.022017665

weight f4 [1, 100]
000000 b0 e1 b1 bd 17 fa 96 3d 0f a2 9d 3d 42 f6 aa 3d
       -0.086856246 0.073719196 0.07696926 0.08347751
000010 1e d2 4b bd 71 8c e2 bd a8 f2 22 3d 26 8f 0c bd
       -0.04976093 -0.11061943 0.039782196 -0.034316204
000020 cd b3 8b bc 6b e3 88 bd b5 c1 4e 3d bb 6c 6e bc
       -0.01705351 -0.066840015 0.050477702 -0.014552291
000030 53 d5 e5 bb 00 0c 9e 3b ca 76 1b 3d 0d b1 68 bd
       -0.0070139556 0.004823208 0.037955083 -0.056809474
000040 9d 5f 9b 3d f9 36 fe bd f1 eb e8 3d 21 ca 6a 3d
       0.07586596 -0.12412829 0.11373127 0.05732167
000050 e9 2a 8a bd ba d9 5f 3d 08 81 95 3d e9 12 bc bd
       -0.06746466 0.054651 0.073000014 -0.09183294
000060 ae 1e 9a 3d 4d 0e 08 be ef aa 6c bc 71 8e 05 3c
       0.07525383 -0.13286705 -0.014445051 0.008151636
000070 9f 9d ef bc ae 7d c8 3c 0f eb d4 3c 33 d9 1a bc
       -0.029249964 0.024473991 0.02599099 -0.009451198
000080 d1 9e bc 3c 79 07 d4 3d 56 35 e3 bc f1 ef d8 3d
       0.023024948 0.10352988 -0.027735393 0.1059264
000090 56 56 b1 3d 6f 96 6c 3c 25 31 30 bd 2e 4b eb 3c
       0.086590454 0.014440163 -0.043015618 0.028722372
0000a0 2f 9f 9e bd 2f 3f 04 3c 7e 01 99 3d 3d 42 f9 bd
       -0.077452056 0.008071705 0.07470988 -0.12170837
0000b0 97 4f 05 bd 10 a8 90 bd 1d 6b a9 3d 24 3e 1c 3d
       -0.032546606 -0.070633054 0.08272383 0.0381452
0000c0 0c 8e 9c 3c 66 08 8c bd 44 79 a2 3c 45 42 82 3d
       0.019110702 -0.068375394 0.019833215 0.06360296
0000d0 7a 7a 3c 3d 5a ac 53 3d 20 fa 13 3e a0 c7 84 bd
       0.04601524 0.05167804 0.14450884 -0.06483388
0000e0 1b 28 85 bd 88 e2 62 3d f5 57 f0 3d 4c 13 50 bc
       -0.0650179 0.05539182 0.117355265 -0.012699913
0000f0 b6 c5 8e bd 40 9e 5d bd 24 c5 a9 bd 1d 69 1a 3d
       -0.06971304 -0.054105997 -0.08289555 0.0376979
000100 d8 c6 e3 3d 7c 82 2e 3d 00 38 21 3d 32 08 0a 3c
       0.11121911 0.04260491 0.039360046 0.0084248055
000110 bc a2 9e bd c3 64 e1 bd 87 30 02 3d 3a d6 d1 bd
       -0.07745883 -0.11005547 0.03178456 -0.102459386
000120 b6 58 27 bd da 49 f5 3d 99 48 01 be cb 7d 92 bd
       -0.040856086 0.11976977 -0.1262535 -0.07152899
000130 03 88 10 3d ba 13 57 3c 33 9d 11 bd db 4c d2 bc
       0.03528596 0.013127262 -0.035550307 -0.025671413
000140 2e 08 e3 bd a3 da 50 3d 0f dc 5b bd 14 65 33 bb
       -0.110855445 0.05098976 -0.05367666 -0.002737348
000150 14 70 55 bd 82 01 ad 3d 36 54 6b 3d 1a d3 be bd
       -0.05210884 0.08447553 0.057453357 -0.09317608
000160 1e aa 06 3d 2b aa b9 3d dd 50 2c bd 4d 01 cd 3d
       0.03287708 0.0906566 -0.042069305 0.10010014
000170 32 45 8d 3d 71 25 0f 3d 5e 78 24 bd 5f 8d 41 bc
       0.068979636 0.034947816 -0.040153854 -0.011813491
000180 4f 48 51 3d f8 58 d2 3c d7 c9 64 bd 0e 58 26 bd
       0.05109435 0.02567719 -0.055856552 -0.04061132
