Backgammon2/pub_stomper_repository/nn_pg_2_valuefunction.pt (torch_old, 6205 bytes, 1 tensors)

weight f4 [1, 200]
-0.06789689 -0.06890485 -0.03207062 0.14127132 -0.029811483 0.04215972 -0.09256748 -0.0037165398
-0.009499029 -0.056236677 -0.059574857 -0.08027767 0.061681695 0.1412236 0.01574092 0.020507853
0.0583371 -0.10387882 0.10804984 -0.093834646 0.0019972366 -0.04333425 0.03406902 0.09132006
-0.12857364 -0.060897395 -0.053035676 -0.08060637 -0.031111233 0.015244962 -0.06891594 -0.03098279
0.002156584 0.09723906 -0.015648225 -0.0056319595 -0.03224975 -0.04705957 0.045589514 0.08948075
-0.06819843 -0.0051715476 0.07661352 0.052800547 -0.047173575 -0.029584656 -0.027241495 -0.029397855
0.0093346285 -0.13107048 0.09049214 0.02892776 0.014664479 0.11285921 -0.049612172 0.009242577
-0.06398019 0.10083056 -0.010110271 -0.03358442 0.042801544 -0.0033001357 0.017578587 0.012489055
-0.105099864 -0.03786822 0.03458154 -0.012496266 -0.029298052 0.096309535 -0.0016228002 0.11214327
0.04786234 -0.034059487 0.004951847 -0.010936341 0.07637461 -0.062277663 0.11073547 -0.042453803
0.03803407 0.01957817 -0.021498913 0.021284163 -0.013041416 -0.041605506 0.01592229 -0.11037631
-0.04599117 0.018206885 -0.0059674704 0.09091725 -0.032862294 0.021509467 -0.03997197 0.06347611
-0.05767905 0.037562527 0.008161342 -0.029233232 0.017548775 0.079159275 0.03333156 0.0014702154
0.10903764 -0.020034999 0.065545894 -0.0415352 -0.06150199 0.11871826 -0.06905478 -0.019573882
0.09780205 0.022865776 0.11711743 0.034548365 0.11620637 0.119319715 -0.06775177 -0.079289965
0.12889075 0.0041377484 -0.13160773 -0.069965675 -0.042451 -0.02767464 -0.03693377 -0.036696717
0.0029204686 0.08205007 0.026371416 -0.02480167 0.030070057 0.020401083 -0.016486274 -0.08459885
-0.08199103 -0.01758347 -0.09288484 -0.011010296 0.038593814 0.0009847011 -0.10271774 -0.027538927
0.0072044553 0.07417213 -0.0897494 -0.035803422 -0.08010451 -0.081167035 -0.008876516 -0.0015990235
0.005721504 -0.013595842 -0.062262803 -0.12947066 -0.06182045 -0.03229428 0.14450029 -0.1188108
-0.04520045 0.099609755 -0.023990255 0.042519353 -0.032565318 0.06451524 -0.014665241 0.07819136
0.09413578 -0.07277415 0.05201575 0.040732883 -0.11521214 -0.07862387 -0.08255794 -0.09017711
-0.11966199 0.0016236798 -0.0041573 -0.10463164 0.03861875 0.09365637 0.14055075 0.077759035
-0.043835603 0.044740457 -0.07600808 -0.06364062 -0.06279338 0.011709192 0.109387174 -0.061328813
0.00042708966 0.011817926 0.04104822 -0.08707384 0.03357218 0.06962394 -0.07120273 0.11467059
00000000: 860d 8bbd fc1d 8dbd 7c5c 03bd 6ea9 103e
00000010: 3637 f4bc acaf 2c3d 0594 bdbd 3191 73bb
00000020: d1a1 1bbc 6e58 66bd c404 74bd 9e68 a4bd
00000030: f2a5 7c3d eb9c 103e 1af3 803c 1600 a83c
00000040: e2f2 6e3d 6bbe d4bd 3c49 dd3d 612c c0bd
00000050: 12e4 023b 417f 31bd f58b 0b3d 0306 bb3d
00000060: cfa8 03be 8c6f 79bd f03b 59bd f414 a5bd
00000070: fcdc febc 01c6 793c cd23 8dbd 9fcf fdbc
00000080: 7a55 0d3b 4625 c73d b530 80bc 4d8c b8bb
00000090: 5018 04bd 89c1 40bd 12bc 3a3d af41 b73d
000000a0: 9eab 8bbd 1676 a9bb 8de7 9c3d 6345 583d
000000b0: 1439 41bd 855b f2bc 8e29 dfbc c5d3 f0bc
000000c0: 45f0 183c 5737 06be f153 b93d e9f9 ec3c
000000d0: 4843 703c bb22 e73d 2236 4bbd 2d6e 173c
000000e0: 0c08 83bd 4180 ce3d 8da5 25bc d18f 09bd
000000f0: ac50 2f3d 1747 58bb f800 903c e59e 4c3c
00000100: 993e d7bd b51b 1bbd 5fa5 0d3d 23bd 4cbc
00000110: 7802 f0bc ef3d c53d 24b4 d4ba 5fab e53d
00000120: 4d0b 443d f681 0bbd 1a43 a23b 572e 33bc
00000130: 4b6a 9c3d dd16 7fbd 47c9 e23d 0ae4 2dbd
00000140: 9dc9 1b3d 6662 a03c 7d1e b0bc 205c ae3c
00000150: aaab 55bc 896a 2abd 766f 823c fa0c e2bd
00000160: 3d61 3cbd 9b26 953c c58a c3bb d332 ba3d
00000170: 9d9a 06bd 9f34 b03c a6b9 23bd c3ff 813d
00000180: de40 6cbd 2adb 193d 26b7 053c 887a efbc
00000190: 73c2 8f3c 421e a23d ad86 083d 3eb4 c03a
000001a0: 204f df3d 7020 a4bc ed3c 863d d020 2abd
000001b0: 83e9 7bbd 8f22 f33d 986c 8dbd 6859 a0bc
000001c0: 714c c83d 0251 bb3c 43db ef3d 9682 0d3d
000001d0: 9bfd ed3d e55d f43d 71c1 8abd c762 a2bd
000001e0: f0fb 033e f395 873b 2dc4 06be 2a4a 8fbd
000001f0: 1ae1 2dbd edb5 e2bc dd47 17bd 4c4f 16bd
00000200: 5565 3f3b de09 a83d de08 d83c df2c cbbc
00000210: 7b55 f63c 2c20 a73c 390e 87bc 2942 adbd
00000220: eaea a7bd 360b 90bc 683a bebd 8764 34bc
00000230: 8c14 1e3d 1611 813a ae5d d2bd 5199 e1bc
00000240: 5a13 ec3b 8fe7 973d 89ce b7bd 9ca6 12bd
00000250: d50d a4bd e73a a6bd ce6e 11bc 5396 d1ba
00000260: 747b bb3b 18c1 5ebc 4807 7fbd f593 04be
00000270: 7137 7dbd 0247 04bd e2f7 133e 1453 f3bd
00000280: 1b24 39bd 3300 cc3d 3687 c4bc c628 2e3d
00000290: 3663 05bd 9120 843d 7b46 70bc cb22 a03d
000002a0: 43ca c03d 9d0a 95bd 780e 553d 86d7 263d
000002b0: 58f4 ebbd 8d05 a1bd 2314 a9bd c7ae b8bd
000002c0: 5811 f5bd a7d1 d43a f639 88bb 1d49 d6bd
000002d0: b22e 1e3d e9ce bf3d 89ec 0f3e 2140 9f3d
000002e0: f68c 33bd c541 373d 20aa 9bbd 0356 82bd
000002f0: d199 80bd e9d7 3f3c 6206 e03d ec33 7bbd
00000300: 01eb df39 f99f 413c 2e22 283d c553 b2bd
00000310: fb82 093d ff96 8e3d bdd2 91bd 6ad8 ea3d
