Backgammon2/pub_stomper_repository/nn_pg_model.pt (torch_old, 466132 bytes, 6 tensors)

weight f4 [150, 464]
0.03657132 -0.0050334483 -0.038079794 0.037747364 0.00028126687 0.037733648 -0.025340999 0.043406557
-0.0126051605 -0.0021805838 0.013311494 0.022745337 -0.02328805 -0.036793187 -0.019871237 0.017361626
0.042013127 0.0004811279 0.033659212 0.021238817 0.05016835 -0.0066659516 0.019587748 -0.011924299
0.030754926 -0.013874578 0.007990772 -0.033939432 -0.007689705 -0.027731756 -0.005455692 -0.002819257
-0.027882712 -0.03538827 0.0034197434 -0.030848103 0.02145062 0.0069683413 0.028474169 -0.014884874
-0.017164642 -0.042726126 0.021382391 0.012063169 -0.008058727 -0.031110007 0.03670422 -0.031595815
-0.027581694 -0.0010360416 -0.011497019 0.039060112 -0.0031415948 -0.03369167 0.037604608 -0.031204721
0.02808534 -0.03656645 0.015789442 0.030080067 -0.0011261826 -0.021690631 0.03367201 -0.005709743
0.033671286 0.025071925 0.012286785 -0.040818773 -0.017451365 -0.022937013 0.028513758 -0.009398477
-0.0007550563 -0.016817698 0.02058492 -0.04996593 -0.026399989 -0.026968498 0.022019554 0.009463271
-0.021521637 -0.016980002 -0.00922908 0.05016311 0.026353894 0.0131949065 -0.01741395 0.017394952
-0.028622145 -0.0061099245 0.023808654 -0.05238569 -0.034498133 -0.015460527 0.018608283 0.0119528975
-0.014542998 0.037635136 -0.031446125 -0.019088965 0.013123604 0.008151417 0.020393414 -0.010727788
-0.010101171 -0.01235965 0.043248918 0.009938729 0.0051697055 0.016956393 0.010592413 0.005711384
0.027101813 0.020429242 0.038065497 0.023154916 0.04762932 0.031892374 0.029001726 -0.028900616
-0.041450668 0.032233924 0.029496681 -0.03757401 -0.0023154179 -0.0159546 -0.026789926 0.03562118
-0.00034016228 -0.016008588 -0.034360155 -0.03343993 -0.028566994 0.029195333 0.018991278 0.00042490568
-0.0052580214 -0.012776343 -0.00086109457 -0.012793546 -0.04535334 0.010264801 0.039654654 -0.024123592
-0.0010540825 0.027570259 0.0061988346 -0.0006855758 -0.0054213586 -0.027452447 0.0061581475 0.02680638
0.002380491 -0.0065084216 0.014296574 0.022094712 -0.03363964 -0.048600327 0.008732276 -0.01671443
-0.015654944 0.041289445 -0.006844606 -0.027103394 -0.0023239718 0.04237225 -0.008421336 -0.0023854992
-0.008527789 0.025838384 -0.027944706 -0.045913935 -0.045584027 -0.04794012 0.014899716 0.032574542
0.034201533 -0.023052929 0.019504009 -0.0070328405 -0.04289177 0.03860985 -0.022510713 0.020263199
0.039424066 -0.030644283 -0.020639457 0.04035913 0.016130686 -0.023395097 -0.044642016 -0.008268003
0.040167343 0.042348437 -0.014070414 0.015501278 0.013009081 0.021341413 0.0053496133 0.037804615
0.018603055 -0.038804024 -0.022116002 0.004935944 0.0039874953 0.009632737 -0.011462317 0.016564803
0.013664471 0.003253433 0.023112148 0.047012266 -0.009849954 0.039222755 -0.026519679 0.01613637
0.0005770429 -0.030292911 -0.040042195 -0.023377826 -0.04832313 -0.011523996 0.023997268 0.0056496644
-0.03544995 -0.017145682 -0.017802307 0.030152896 -0.019756777 -0.036687054 -0.016295046 0.012835421
0.034012903 0.017663972 0.037293956 0.0013789056 -0.012004734 0.00021875429 -0.02751853 0.013118118
0.015602017 0.037638206 -0.025590535 -0.006986334 -0.0077076675 -0.0060985982 0.0068141446 -0.03660709
0.022103624 0.017800193 -0.04305361 0.011598391 -0.046502646 0.040428333 0.026245872 0.0048109735
00000000: cfcb 153d a0ef a4bb 8ff9 1bbd fb9c 1a3d
00000010: 0077 9339 998e 1a3d ed97 cfbc 13cb 313d
00000020: e085 4ebc 20e8 0ebb 7418 5a3c 6e54 ba3c
00000030: 95c6 bebc 74b4 16bd 01c9 a2bc f839 8e3c
00000040: f515 2c3d e53f fc39 3ede 093d 07fd ad3c
00000050: 547d 4d3d 0e6e dabb 7c76 a03c 235e 43bc
00000060: c1f1 fb3c 3352 63bc baeb 023c 1304 0bbd
00000070: ecf9 fbbb b52d e3bc a9c5 b2bb 49c3 38bb
00000080: 496a e4bc 4af3 10bd c61d 603b 29b5 fcbc
00000090: 36b9 af3c af56 e43b a942 e93c b0df 73bc
000000a0: dd9c 8cbc 9701 2fbd 202a af3c 99a4 453c
000000b0: c008 04bc 6ada febc 2a57 163d 9d6a 01bd
000000c0: 01f3 e1bc cacb 87ba fe5d 3cbc 7ffd 1f3d
000000d0: 37e3 4dbb 4700 0abd 4a07 1a3d 0ba1 ffbc
000000e0: 3a13 e63c b4c6 15bd dc58 813c 796a f63c
000000f0: 6b9c 93ba 8db0 b1bc a9eb 093d cc18 bbbb
00000100: e7ea 093d a363 cd3c 834e 493c 9631 27bd
00000110: 2af6 8ebc 67e6 bbbc af95 e93c 12fc 19bc
00000120: f8ee 45ba 45c5 89bc b5a1 a83c 13a9 4cbd
00000130: ca44 d8bc 0aed dcbc 5a62 b43c d60b 1b3c
00000140: 254e b0bc a519 8bbc 9135 17bc d577 4d3d
00000150: 1fe4 d73c 732f 583c b3a7 8ebc dc7f 8e3c
00000160: fd78 eabc c335 c8bb 5e0a c33c 6192 56bd
00000170: ea4d 0dbd 264e 7dbc 6670 983c 16d6 433c
00000180: c145 6ebc 4d27 1a3d a7cd 00bd 7660 9cbc
00000190: 6204 573c 858d 053c 1710 a73c 9bc3 2fbc
000001a0: 627f 25bc 2180 4abc c725 313d 0dd6 223c
000001b0: a266 a93b 22e8 8a3c cd8b 2d3c 9026 bb3b
000001c0: 9f04 de3c 3a5b a73c 91ea 1b3d 61af bd3c
000001d0: f616 433d 94a1 023d 0795 ed3c fcc0 ecbc
000001e0: 2dc8 29bd b807 043d 06a3 f13c 35e7 19bd
000001f0: 44be 17bb 39b3 82bc 8c76 dbbc 84e7 113d
00000200: cf57 b2b9 7124 83bc 3cbd 0cbd 4ff8 08bd
00000210: 5405 eabc 0d2b ef3c 9993 9b3c e0c5 de39
00000220: 7b4b acbb de53 51bc 14bb 61ba 059c 51bc
00000230: 6dc4 39bd b22d 283c eb6c 223d d79e c5bc
00000240: 2429 8aba 06db e13c 981f cb3b 37b8 33ba
00000250: a7a5 b1bb f4e3 e0bc 49ca c93b 0e99 db3c
00000260: 0302 1c3b 9944 d5bb 2d3c 6a3c f8ff b43c
00000270: b8c9 09bd 2311 47bd d211 0f3c b3ec 88bc
00000280: cc3e 80bc 1f1f 293d b748 e0bb f007 debc
00000290: c74d 18bb 868e 2d3d a5f9 09bc 0956 1cbb
000002a0: 24b8 0bbc 05ab d33c 4cec e4bc 4010 3cbd
000002b0: 51b6 3abd dc5c 44bd f01d 743c e26c 053d
000002c0: e816 0c3d 7fd9 bcbc dfc6 9f3c be73 e6bb
000002d0: 48af 2fbd 5d25 1e3d 6368 b8bc 02ff a53c
000002e0: 217b 213d b809 fbbc 1414 a9bc 9d4f 253d
000002f0: 8024 843c 13a7 bfbc 8cda 36bd 8576 07bc
00000300: 8386 243d 8e75 2d3d 9887 66bc 13f9 7d3c
00000310: 0a24 553c 30d4 ae3c cf4b af3b 03d9 1a3d
00000320: 6f65 983c f8f0 1ebd 9e2c b5bc b3bd a13b
00000330: 89a9 823b a1d2 1d3c 71cc 3bbc e9b2 873c
00000340: f2e0 5f3c 8c37 553b b055 bd3c ef8f 403d
00000350: b461 21bc 0aa8 203d cc3f d9bc 6c30 843c
00000360: b244 173a d728 f8bc 4903 24bd db82 bfbc
00000370: 79ee 45bd 24cf 3cbc eb95 c43c d220 b93b
00000380: f733 11bd 1a75 8cbc 25d6 91bc 3503 f73c
00000390: f7d8 a1bc 2a45 16bd 307d 85bc a84b 523c
000003a0: 1d51 0b3d 09b4 903c 8cc1 183d 65bc b43a
000003b0: 81af 44bc 6861 6539 8a6e e1bc 60ed 563c
000003c0: 9a9f 7f3c 852a 1a3d 3ea3 d1bc 9eed e4bb
000003d0: 9a90 fcbb c0d6 c7bb 3049 df3b 51f1 15bd
000003e0: a912 b53c b6d1 913c fb58 30bd 2e07 3e3c
000003f0: 8f79 3ebd 2e98 253d 9501 d73c 5fa5 9d3b

bias f4 [150]
-0.021565568 0.024160001 -0.0476687 -0.032221086 0.040141754 0.027397295 -0.03727176 -0.02770215
-0.015061936 -0.00016869976 -0.032008104 0.002564258 0.036260687 -0.026827058 -0.028787961 -0.032565508
-0.006985224 -0.017148731 0.03611478 -0.008617871 -0.015909115 -0.032499958 -0.009797235 -0.0107095735
-0.023187257 0.012641329 0.01044158 0.035964824 -0.04244263 -0.010937034 0.011765743 -0.029802447
0.030702762 0.016580528 0.03143728 -0.03180174 -0.0041234023 -0.022975001 0.005146701 0.025280934
0.036036737 0.021872358 -0.03524813 0.045595225 0.035398185 -0.014171355 -0.010409307 -0.014525726
0.034402486 0.04299123 -0.020667681 -0.030409513 0.00812804 -0.0027929735 0.045192596 -0.042030055
0.026941378 0.030983394 -0.029540272 -0.0015474244 -0.004516894 0.030832307 0.035338182 0.022289298
-0.03803813 -0.032492027 0.04234077 -0.047609147 -0.03135253 0.025264513 0.015425995 -0.014713119
-0.032555073 -0.03823707 -0.024244973 -0.025660483 0.02616051 0.032171972 0.01468348 0.03788401
-0.014115903 0.041693103 -0.030317096 0.0069505684 0.030554423 0.026543688 -0.0024096782 0.021448268
-0.008212747 0.0046031177 -0.023478895 0.038437597 -0.011465534 0.028096609 -0.030383958 -0.031125788
-0.033001862 0.00032305974 -0.038775127 0.007828979 0.005827026 -0.0015898524 -0.0139856 0.015148946
0.025926707 0.020359 -0.009473305 0.0050301324 0.033091094 0.002918188 0.0089345435 0.045667868
0.041478943 0.022588644 0.036128994 -0.019936731 0.030373001 0.017937755 0.0071511026 -0.02871831
0.016270585 0.009017658 -0.0333524 0.01978147 0.043823313 0.015456073 0.045258306 0.0095847165
-0.0114457365 -0.03465718 -0.034234256 0.029895918 0.006101682 0.034783535 -0.03275825 -0.017243756
0.023868827 -0.02937622 -0.011655504 0.008881235 4.7294052e-05 0.0021804208 -0.033997107 -0.024428273
-0.041770026 0.0071491757 0.025988953 -0.0093986895 0.01991587 -0.032924823
00000000: 46aa b0bc 32eb c53c 4140 43bd 42fa 03bd
00000010: ae6b 243d 4b70 e03c 46aa 18bd 9fef e2bc
00000020: 57c6 76bc ffe4 30b9 ee1a 03bd 1c0d 283b
00000030: 1686 143d 6bc4 dbbc bbd4 ebbc 6963 05bd
00000040: 4ee4 e4bb 7f7b 8cbc 17ed 133d f931 0dbc
00000050: d553 82bc ad1e 05bd 9584 20bc 3577 2fbc
00000060: 34f3 bdbc 941d 4f3c 2913 2b3c da4f 133d
00000070: 53d8 2dbd 3f31 33bc 1ac5 403c 4324 f4bc
00000080: 5c84 fb3c e3d3 873c 61c4 003d 8b42 02bd
00000090: 9b1d 87bb 1236 bcbc a8a5 a83b f619 cf3c
000000a0: 429b 133d a92d b33c 5860 10bd 0fc2 3a3d
000000b0: b0fd 103d f92e 68bc cc8b 2abc 50fd 6dbc
000000c0: 9fe9 0c3d 9217 303d 454f a9bc 5f1d f9bc
000000d0: 782b 053c 520a 37bb df1b 393d b527 2cbd
000000e0: 2ab4 dc3c e3d0 fd3c 71fe f1bc f2d2 caba
000000f0: 7402 94bb 0994 fc3c c5be 103d 0c98 b63c
00000100: dfcd 1bbd 5c16 05bd 846d 2d3d cf01 43bd
00000110: 836b 00bd 86f7 ce3c 50bd 7c3c 4b0f 71bc
00000120: 7858 05bd 799e 1cbd 659d c6bc ef35 d2bc
00000130: 914e d63c c2c6 033d fb92 703c 432c 1b3d
00000140: 6346 67bc 63c6 2a3d 8f5b f8bc 98c1 e33b
00000150: 454d fa3c 2672 d93c b1eb 1dbb 47b4 af3c
00000160: c28e 06bc c0d5 963b d056 c0bc be70 1d3d
00000170: efd9 3bbc dc2a e63c c7e7 f8bc 82fb febc
00000180: f62c 07bd 5860 a939 abd2 1ebd 1e45 003c
00000190: a3f0 be3b 9862 d0ba dc23 65bc 4933 783c
000001a0: 3f64 d43c ebc7 a63c ec35 1bbc cfd3 a43b
000001b0: 878a 073d 123f 3f3b 3162 123c 3b0e 3b3d
000001c0: d3e5 293d d20b b93c fffb 133d 5b52 a3bc
000001d0: cdd0 f83c 33f2 923c cc53 ea3b a942 ebbc
000001e0: e449 853c cdbe 133c 879c 08bd c00c a23c
000001f0: 1380 333d 783b 7d3c c660 393d 3709 1d3c
00000200: e686 3bbc b0f4 0dbd 3839 0cbd 49e8 f43c
00000210: 9ef0 c73b 2e79 0e3d 842d 06bd c742 8dbc
00000220: 8f88 c33c 66a6 f0bc baf6 3ebc 9982 113c
00000230: 9a5d 4638 64e5 0e3b 8d40 0bbd cd1d c8bc
00000240: 0c17 2bbd a243 ea3b c9e6 d43c f6fc 19bc
00000250: 9b26 a33c 2edc 06bd

weight f4 [150, 150]
-0.04624705 -0.018275052 -0.08210438 0.06580941 -0.07568385 0.0011207723 -0.012640003 0.03894595
0.073136315 0.074599765 0.006971237 -0.030088576 -0.011978427 -0.054594915 -0.060386572 -0.009097513
0.005053292 0.043478917 -0.00065088435 0.056510184 -0.015685359 -0.019270008 0.072066285 -0.031401824
-0.013485599 -0.07175077 -0.050854128 0.009557564 0.0760309 -0.07797583 -0.051754724 0.023399636
0.013834068 0.0040605175 -0.040033534 0.018091178 -0.017602243 -0.073458835 -0.058393303 0.051931113
0.034043983 0.072696686 0.075504854 -0.021721637 -0.038426787 0.033115286 0.068785176 -0.00866423
-0.06887397 0.027175069 0.034200583 0.07561884 0.04346291 -0.078322 0.032136142 -0.046521336
0.02147779 0.028616607 -0.039786663 -0.036514413 -0.0247712 0.025863107 -0.018675052 -0.0009961864
0.016549235 0.065545596 0.07762683 0.001363739 -0.051807377 0.025353046 0.024224637 -0.017689962
-0.07061041 0.06584687 0.040962774 -0.021736933 0.00017465877 -0.047331255 0.046500243 0.06160398
-0.027030626 -0.0028410547 -0.02024799 0.011150377 -0.03309924 -0.018098691 0.044787124 -0.035366215
-0.023131251 -0.06063335 0.048990432 0.0019222158 -0.0001503039 0.07735105 0.00757751 0.041359544
0.017517822 0.021977209 0.01791361 0.053098187 -0.037269127 -0.05528203 -0.017039537 0.07249484
0.048295744 -0.0626943 -0.009910866 0.06686158 0.08246805 0.025744569 0.041633844 0.030498017
-0.07977573 -0.07039177 -0.043746613 0.078163184 -0.0133210905 -0.020880163 0.002124393 -0.0110667795
0.048972387 -0.06221308 -0.004352876 -0.043319196 -0.0007988975 -0.043258224 0.06579797 -0.064056866
0.0720258 0.024132028 0.00834315 -0.030567588 -0.081916764 0.04626087 0.0509686 -0.0076892846
0.027253928 -0.06627442 -0.052492004 0.025128089 0.01534791 0.033518694 -0.064118266 0.03915241
-0.05761607 0.054580927 -0.016831832 0.042251874 0.017644763 -0.016684504 0.07414203 0.033103906
-0.007189676 0.041231517 0.053791795 -0.036076736 0.0029651362 -0.02597363 0.023895228 -0.025171371
-0.028937154 0.054053362 -0.008973689 -0.006869175 -0.0064350753 -0.05422276 -0.04937421 0.00976008
-0.02061008 -0.03366235 -0.031203998 0.03681026 0.023094034 0.014047118 -0.0783383 -0.015672892
0.010631452 -0.066799045 -0.04688069 -0.009448938 -0.05235045 -0.056901935 -0.03456069 0.025083773
-0.051155336 -0.04477232 -0.022880903 -0.034069214 0.06888831 -0.029339598 -0.013402224 0.061371762
-0.041911513 -0.034529477 0.03962972 0.013937622 -0.037988454 -0.008990216 0.086564995 -0.04274824
0.04242363 0.027418476 0.040112387 -0.009524261 -0.00978072 -0.025292551 -0.021589668 0.051397253
-0.058064017 -0.038466703 0.012436818 -0.072908156 0.0044317176 -0.018929968 0.06479223 -0.040954296
0.04125203 -0.020270225 -0.016949633 -0.02682862 -0.06373029 -0.032983936 0.025182642 0.032205094
0.032910876 0.04003831 0.064897 0.04060463 -0.058579426 -0.028634094 -0.032029204 0.07553946
-0.060392477 0.037607238 0.05259275 0.004807447 0.04960328 0.0705594 0.07116492 0.0021744347
0.007016538 -0.0038821676 -0.065095685 0.05317174 -0.06617518 0.051158376 0.02363083 0.02587697
-0.005926859 0.04095489 -0.010943411 -0.058444418 0.0032852553 -0.03476389 -0.039551064 0.025693722
00000000: 8c6d 3dbd 90b5 95bc 5726 a8bd 15c7 863d
00000010: 2200 9bbd e1e6 923a 0418 4fbc ca85 1f3d
00000020: 7ec8 953d c3c7 983d f96e e43b 517c f6bc
00000030: 2a41 44bc eb9e 5fbd e957 77bd bc0d 15bc
00000040: 1696 a53b f316 323d 1ca0 2aba 3977 673d
00000050: 957e 80bc 23dc 9dbc 7d97 933d 339f 00bd
00000060: b4f2 5cbc 11f2 92bd 6b4c 50bd 5497 1c3c
00000070: 17b6 9b3d cbb1 9fbd c3fc 53bd 98b0 bf3c
00000080: 49a8 623c 170e 853b 34fa 23bd f333 943c
00000090: 9432 90bc 9671 96bd d12d 6fbd b8b5 543d
000000a0: b471 0b3d 00e2 943d 4aa2 9a3d 93f1 b1bc
000000b0: 6865 1dbd e5a3 073d 3edf 8c3d 6af4 0dbc
000000c0: cc0d 8dbd 409e de3c e915 0c3d 0dde 9a3d
000000d0: 2a06 323d 4967 a0bd 30a1 033d 288d 3ebd
000000e0: 31f2 af3c 606d ea3c 57f7 22bd 2390 15bd
000000f0: f9ec cabc dede d33c 6cfc 98bc 7892 82ba
00000100: 4392 873c c53c 863d d1fa 9e3d 7dbf b23a
00000110: f933 54bd 31b1 cf3c bf72 c63c 8aea 90bc
00000120: 319c 90bd b9da 863d 95c8 273d a711 b2bc
00000130: 9b24 3739 6bde 41bd 0a77 3e3d 7454 7c3d
00000140: 556f ddbc fd30 3abb 1ddf a5bc 12b0 363c
00000150: 1293 07bd b543 94bc b472 373d 2adc 10bd
00000160: c07d bdbc ad5a 78bd 31aa 483d dcf2 fb3a
00000170: e59a 1db9 3a6a 9e3d c34c f83b a068 293d
00000180: 8981 8f3c 8c09 b43c 90bf 923c 7c7d 593d
00000190: 83a7 18bd 696f 62bd 8096 8bbc 2d78 943d
000001a0: c2d1 453d df65 80bd 2f61 22bc b9ee 883d
000001b0: 02e5 a83d 46e6 d23c 4088 2a3d fad6 f93c
000001c0: 7561 a3bd 8f29 90bd a62f 33bd 0514 a03d
000001d0: b440 5abc e00c abbc 6639 0b3b 7051 35bc
000001e0: 4597 483d 24d3 7ebd 92a2 8ebb 786f 31bd
000001f0: 1b6d 51ba 892f 31bd 16c1 863d 3f30 83bd
00000200: 4382 933d 88b0 c53c b5b1 083c e168 fabc
00000210: fac3 a7bd 0a7c 3d3d 73c4 503d 65f6 fbbb
00000220: a143 df3c e2ba 87bd db01 57bd 6cd9 cd3c
00000230: cd75 7b3c e64a 093d 7050 83bd 475e 203d
00000240: d4fe 6bbd 4090 5f3d e9e2 89bc 4d10 2d3d
00000250: c08b 903c f1ad 88bc c7d7 973d f697 073d
00000260: 6097 ebbb 61e2 283d c954 5c3d 33c5 13bd
00000270: bb52 423b a6c6 d4bc edbf c33c 3134 cebc
00000280: 9c0d edbc 0f67 5d3d 6106 13bc d116 e1bb
00000290: 53dd d2bb af18 5ebd 9d3c 4abd bee8 1f3c
000002a0: 78d6 a8bc 88e1 09bd 879f ffbc 5bc6 163d
000002b0: b32f bd3c e225 663c d56f a0bd 7064 80bc
000002c0: 8b2f 2e3c f0cd 88bd f705 40bd b8cf 1abc
000002d0: 6d6d 56bd 0112 69bd 838f 0dbd 7c7c cd3c
000002e0: 4288 51bd 2e63 37bd bb70 bbbc 298c 0bbd
000002f0: 5015 8d3d 9959 f0bc 0095 5bbc f560 7b3d
00000300: 68ab 2bbd c86e 0dbd c652 223d a05a 643c
00000310: c899 1bbd b34b 13bc fd48 b13d c718 2fbd
00000320: 66c4 2d3d b69c e03c e34c 243d a50b 1cbc
00000330: 503f 20bc 5332 cfbc d1dc b0bc ed85 523d
00000340: 89d4 6dbd 438f 1dbd ccc3 4b3c df50 95bd
00000350: f137 913b 0513 9bbc cab1 843d b1bf 27bd
00000360: e3f7 283d be0d a6bc f5d9 8abc b2c7 dbbc
00000370: 0785 82bd 2a1a 07bd d44b ce3c 7de9 033d
00000380: 8ecd 063d 36ff 233d b8e8 843d 0a51 263d
00000390: fbf0 6fbd 0c92 eabc 0e31 03bd 6fb4 9a3d
000003a0: 1a5e 77bd 0c0a 1a3d 7f6b 573d ca87 9d3b
000003b0: cf2c 4b3d 7281 903d eabe 913d f680 0e3b
000003c0: fdea e53b f76b 7ebb e350 85bd 9cca 593d
000003d0: da86 87bd 728b 513d 7195 c13c f0fb d33c
000003e0: 1936 c2bb 51c0 273d fe4b 33bc 6a63 6fbd
000003f0: 704d 573b 9564 0ebd 4c00 22bd a47b d23c

bias f4 [150]
-0.06603079 -0.053516384 -0.013174675 0.00032931918 -0.010704677 -0.060365275 0.064131126 -0.041364864
-0.041070253 0.033694662 0.043226145 -0.018998954 -0.010166995 -0.07310348 0.06764037 0.05738516
0.00046040086 0.03420009 0.06855645 -0.07373424 0.024812765 0.04188043 0.03136718 0.005860849
-0.010483798 0.046745904 0.049342446 -0.06847943 0.059204854 0.026885828 -0.0030362536 0.071445785
0.03827141 0.06719462 0.05989095 -0.030092342 0.01920128 -0.03741376 0.029832441 0.057780482
-0.041785065 -0.07746036 0.06989695 0.07791143 -0.015975872 -0.025007788 0.029032923 -0.044636942
-0.045896325 0.030086355 0.073749684 0.0063449084 -0.012030231 -0.0007410927 0.07300803 -0.051859494
-0.027981333 0.053423848 0.022764247 -0.020277567 0.027598122 -0.041789614 -0.03826486 -0.018303273
0.024663262 -0.045968227 -0.034926515 0.07656918 0.058403857 0.039100684 -0.028043343 -0.00017129678
0.04124008 -0.03253608 -0.0060808193 -0.029147541 0.034040306 0.01514147 0.03779859 0.024866143
0.056195196 0.051677484 -0.04876193 -0.05867353 -0.011905741 0.030621791 0.05718513 0.011347196
0.0084653245 0.009520575 -0.01540374 0.021768995 -0.042995486 -0.02560641 -0.05003321 0.0708895
-0.057714313 0.01298581 0.06714104 0.027781583 0.07149813 -0.07633695 0.015441315 0.043267213
0.019464513 0.009530601 -0.014432829 0.033299856 -0.07087279 0.07821072 -0.08091175 -0.03275916
-0.07841299 -0.053475413 0.031448677 -0.051235445 0.017648328 -0.06466092 -0.06306612 0.06730948
-0.053860582 0.042363986 -0.012361708 0.04005013 -0.004880693 -0.024620237 0.06856344 0.079949744
0.0019427142 0.035426874 0.01955073 -0.083799385 0.0047630724 -0.03566144 -0.04053193 -0.070081346
-0.047404926 0.002243458 -0.0357609 0.047744792 -0.055039052 0.048023134 -0.0046124486 0.013865024
-0.044043534 0.07490148 0.03997817 -0.07692997 -0.015059816 0.06765505
00000000: 273b 87bd ff33 5bbd 98da 57bc 79a8 ac39
00000010: ab62 2fbc 9441 77bd 2e57 833d 346e 29bd
00000020: 4839 28bd 6a03 0a3d e60d 313d b2a3 9bbc
00000030: 7893 26bc 47b7 95bd 0987 8a3d b40c 6b3d
00000040: f561 f139 6515 0c3d 5367 8c3d fa01 97bd
00000050: 2444 cb3c d08a 2b3d df7a 003d 5d0c c03b
00000060: 3cc4 2bbc a278 3f3d 4e1b 4a3d f23e 8cbd
00000070: ca80 723d ab3f dc3c e2fb 46bb 2b52 923d
00000080: 7bc2 1c3d 559d 893d 3650 753d 3784 f6bc
00000090: 014c 9d3c 2c3f 19bd 2a63 f43c 3aab 6c3d
000000a0: d126 2bbd 8aa3 9ebd 2226 8f3d 0790 9f3d
000000b0: d5df 82bc 22dd ccbc 74d6 ed3c 3ad5 36bd
000000c0: c9fd 3bbd a977 f63c 130a 973d f3e8 cf3b
000000d0: 721a 45bc e445 42ba 3c85 953d 9f6a 54bd
000000e0: 1c39 e5bc f7d2 5a3d 167c ba3c 241d a6bc
000000f0: 7515 e23c 962b 2bbd 9dbb 1cbd bff0 95bc
00000100: 9c0a ca3c 2e49 3cbd 1b0f 0fbd 4dd0 9c3d
00000110: e238 6f3d 0a28 203d 27bb e5bc 219e 33b9
00000120: 5ceb 283d 8d44 05bd 9c41 c7bb d3c6 eebc
00000130: d96d 0b3d ee13 783c b2d2 1a3d 15b4 cb3c
00000140: ef2c 663d c5ab 533d 97ba 47bd a853 70bd
00000150: 4c10 43bc 8dda fa3c f43a 6a3d 97e9 393c
00000160: 25b2 0a3c 30fc 1b3c f85f 7cbc e454 b23c
00000170: 091c 30bd 89c4 d1bc a0ef 4cbd 842e 913d
00000180: d865 6cbd 6fc2 543c 3e81 893d 3496 e33c
00000190: 9d6d 923d 8c56 9cbd 92fd 7c3c f638 313d
000001a0: 0b74 9f3c 3d26 1c3c ac77 6cbc 6e65 083d
000001b0: c125 91bd f12c a03d 0fb5 a5bd 782e 06bd
000001c0: fd96 a0bd 0909 5bbd 54d0 003d 42dc 51bd
000001d0: 3a93 903c f26c 84bd cf28 81bd 8dd9 893d
000001e0: ea9c 5cbd dc85 2d3d c388 4abc 9b0b 243d
000001f0: 38ee 9fbb 61b0 c9bc fd6a 8c3d b1bc a33d
00000200: aca2 fe3a c51b 113d da28 a03c 039f abbd
00000210: 8c13 9c3b bb11 12bd cf04 26bd cf86 8fbd
00000220: ab2b 42bd fb06 133b 057a 12bd 0b90 433d
00000230: a170 61bd e8b3 443d 0624 97bb 202a 633c
00000240: fe66 34bd f265 993d 26c0 233d 768d 9dbd
00000250: 72bd 76bc bb8e 8a3d

weight f4 [150, 150]
0.035038542 -0.058731303 0.006229417 0.04576156 -0.00082465966 0.013841392 -0.0029852344 -0.008256695
0.08036762 0.017926637 -0.07214151 0.069517374 0.036770493 0.03733807 0.023943458 -0.062069308
0.046843447 -0.035714652 -0.023792394 -0.034863368 -0.033327695 0.048414875 0.048287235 -0.05192916
0.07660933 0.0050064847 -0.011422817 -0.07541348 0.0056916988 0.053221717 -0.03388817 0.08357721
0.01405733 -0.06859655 0.01788603 -0.008239123 0.027133793 -0.0478392 0.07275448 0.03737122
0.015219417 0.031037984 0.062682986 -0.075266205 0.06832355 0.07486106 -0.07540607 -0.053561367
-0.049902905 0.07579827 0.082650796 0.0044497233 -0.046836637 -0.054266997 -0.05510904 -0.032717984
0.004417614 0.047303777 0.05582907 -0.012198766 0.070876114 -0.027790925 -0.062220667 0.057433695
-0.04884268 0.048223946 -0.0072930884 0.029505294 0.069432504 0.0644063 -0.035529856 -0.036442038
0.06437682 -0.06615532 0.009406638 0.0011316601 -0.06619635 -0.08564198 -0.038253784 0.033701662
-0.012484982 -0.014323063 -0.004373841 -0.026480142 -0.016618373 -0.038742825 0.037084367 0.015188277
0.063800916 -0.054011848 0.071040295 0.0060680686 -0.08180026 0.027417377 -0.02142089 0.036624797
-0.031736005 0.01939441 -0.06452225 0.07318905 0.020711705 -0.083073005 -0.058406126 -0.07219864
0.04710599 -0.0065406836 -0.07577857 0.07147974 0.063494585 -0.06366704 2.2250017e-05 -0.016214872
0.07396091 -0.06137885 0.014749738 0.03752908 -0.028402396 0.055005487 0.04369876 0.021408765
0.008673512 -0.05398294 -0.06675458 -0.0068860166 -0.03827425 0.045265265 0.06933961 0.055231806
-0.0778873 -0.006778402 0.0288898 -0.05724952 -0.04700379 -0.0036720533 0.07931424 -0.018882785
0.061735224 0.03242959 0.015198679 0.023592576 0.05018916 0.018156163 0.057538874 -0.04373302
-0.0043596877 0.029298794 0.0062426724 -0.04342676 -0.03231531 -0.0052998774 0.010946448 0.0068476605
0.0009593954 -0.078728974 -0.018845141 -0.04830324 -0.014682572 0.047789074 0.06669261 0.056611963
0.045551386 0.048205126 -0.051948264 0.07216793 0.012090969 -0.060112692 -0.023526052 -0.040353734
0.024027491 0.08229082 0.07142286 0.036125917 -0.043058485 -0.056640517 0.07592802 -0.06574813
-0.04618853 0.07459811 0.029296227 -0.025321376 0.011984417 -0.04928464 -0.042792603 -0.060839985
-0.05151472 -0.0010334925 0.03208215 -0.0654092 -0.04236438 -0.04984187 0.06587858 -0.039812315
-0.062266123 0.03541842 -0.05321759 -0.07061298 0.06626591 0.079308204 0.04558424 -0.029230857
0.012173122 0.019457638 -0.045439634 0.005197587 -0.045492284 -0.035785172 -0.073406726 0.0015811668
0.020824367 0.04220188 -0.048340127 -0.010538867 -0.028077072 0.07851841 -0.05586685 -0.06200557
0.013230961 -0.0047024526 0.07434469 -0.020095555 0.05360073 -0.07801306 -0.060873974 0.052575354
0.014226401 0.040766913 0.030319896 -0.051988933 0.039619427 0.05315418 0.012132644 0.07045405
0.027078934 -0.0037414364 0.06617727 -0.045486365 0.02595516 0.018974539 0.0684126 0.028595448
0.06525487 0.07053086 0.05952232 0.022988666 0.04696075 0.06522883 0.004135928 -0.07294576
0.049759805 -0.056244034 -0.034028072 -0.08058725 -0.057374015 0.022663958 0.059414953 0.056078352
00000000: 9384 0f3d 3c90 70bd 2320 cc3b 7970 3b3d
00000010: f92d 58ba 01c7 623c eca3 43bb 1747 07bc
00000020: c797 a43d e2da 923c eebe 93bd 205f 8e3d
00000030: a89c 163d ceef 183d 1225 c43c 633c 7ebd
00000040: eade 3f3d 8749 12bd 44e8 c2bc e4cc 0ebd
00000050: 9f82 08bd ad4e 463d d6c8 453d acb3 54bd
00000060: 5ae5 9c3d 700d a43b c426 3bbc 6272 9abd
00000070: 6e81 ba3b 04ff 593d 52ce 0abd 872a ab3d
00000080: b750 663c 597c 8cbd b985 923c 63fd 06bc
00000090: b047 de3c 09f3 43bd 4d00 953d 9012 193d
000000a0: dd5a 793c 5f43 fe3c f05f 803d 2b25 9abd
000000b0: 38ed 8b3d c150 993d 7f6e 9abd 2a63 5bbd
000000c0: fd66 4cbd 203c 9b3d d244 a93d fcce 913b
000000d0: c6d7 3fbd 1247 5ebd 04ba 61bd 4b03 06bd
000000e0: a2c1 903b 9bc1 413d 06ad 643d 55dd 47bc
000000f0: 7f27 913d cba9 e3bc 19db 7ebd 983f 6b3d
00000100: 430f 48bd 7986 453d dcfa eebb 16b5 f13c
00000110: a132 8e3d 73e7 833d c187 11bd 3f44 15bd
00000120: ffd7 833d 717c 87bd 4d1e 1a3c 3654 943a
00000130: f491 87bd 1065 afbd 00b0 1cbd c10a 0a3d
00000140: cf8d 4cbc 48ab 6abc 7052 8fbb e2ec d8bc
00000150: 4123 88bc ccb0 1ebd c7e5 173d 40d8 783c
00000160: 0eaa 823d 873b 5dbd 937d 913d a6d6 c63b
00000170: e586 a7bd 689a e03c dd7a afbc e203 163d
00000180: 9dfd 01bd 07e1 9e3c 3e24 84bd 24e4 953d
00000190: 98ab a93c 2e22 aabd 433b 6fbd e1dc 93bd
000001a0: 36f2 403d 3b53 d6bb cb31 9bbd f863 923d
000001b0: 7309 823d dd63 82bd 8ca5 ba37 0dd5 84bc
000001c0: d178 973d 6468 7bbd e3a8 713c 18b8 193d
000001d0: 24ac e8bc 6f4d 613d 79fd 323d 6f61 af3c
000001e0: 591b 0e3c 371d 5dbd a0b6 88bd 18a4 e1bb
000001f0: 76c5 1cbd 1268 393d ed01 8e3d bf3a 623d
00000200: 6083 9fbd 5b1d debb 4daa ec3c 797e 6abd
00000210: 0c87 40bd d5a6 70bb 816f a23d 12b0 9abc
00000220: 13de 7c3d e4d4 043d e103 793c 3845 c13c
00000230: 2693 4d3d 3cbc 943c e2ad 6b3d 6521 33bd
00000240: b6db 8ebb 0604 f03c 558f cc3b 42e0 31bd
00000250: 0f5d 04bd 98aa adbb bb58 333c 5762 e03b
00000260: ef7f 7b3a a83c a1bd 2061 9abc 9ed9 45bd
00000270: 2c8f 70bc 7abe 433d 2396 883d f2e1 673d
00000280: 1794 3a3d bd72 453d b4c7 54bd c8cc 933d
00000290: 3319 463c ba38 76bd b5b9 c0bc f549 25bd
000002a0: 4dd5 c43c 1788 a83d 2646 923d c5f8 133d
000002b0: 185e 30bd e3ff 67bd 2680 9b3d f5a6 86bd
000002c0: 2f30 3dbd e5c6 983d a4fe ef3c c66e cfbc
000002d0: 4a5a 443c b1de 49bd 4c47 2fbd 5933 79bd
000002e0: 1901 53bd 4176 87ba 9368 033d 42f5 85bd
000002f0: 4686 2dbd fd26 4cbd 59eb 863d 3d12 23bd
00000300: c30a 7fbd e812 113d b0fa 59bd 8a9d 90bd
00000310: 6cb6 873d 576c a23d 8ab6 3a3d 8d75 efbc
00000320: c671 473c a065 9f3c e91e 3abd 8550 aa3b
00000330: 1e56 3abd 7993 12bd 4456 96bd 273f cf3a
00000340: dd97 aa3c e1db 2c3d 4c00 46bd 36ab 2cbc
00000350: e301 e6bc 43ce a03d a3d4 64bd 8df9 7dbd
00000360: acc6 583c 0817 9abb 0742 983d 6f9f a4bc
00000370: 708c 5b3d 50c5 9fbd fd56 79bd 4159 573d
00000380: da15 693c 35fb 263d 6e61 f83c 59f2 54bd
00000390: fb47 223d 33b8 593d ffc7 463c 374a 903d
000003a0: a4d4 dd3c e332 75bb f387 873d e94f 3abd
000003b0: ea9f d43c 7e70 9b3c e81b 8c3d 0041 ea3c
000003c0: 58a4 853d 7c72 903d adcd 733d ba52 bc3c
000003d0: ea59 403d b196 853d ae86 873b 9664 95bd
000003e0: f0d0 4b3d 2560 66bd 0561 0bbd ee0a a5bd
000003f0: 0401 6bbd c4a9 b93c 185d 733d 6ab2 653d

bias f4 [150]
0.06337671 -0.053598143 -0.029411972 -0.04628593 0.04224992 -0.023551159 -0.0035413327 -0.022348272
0.0016031178 -0.01077876 0.007623551 -0.07341443 -0.012636959 0.0268282 -0.073092245 0.01063059
0.08286704 0.07812395 -0.01644069 -0.06896331 -0.030075917 0.055528827 -0.0604929 0.021077149
0.049426056 0.055578165 -0.080229305 -0.020700997 0.05061195 0.029725082 -0.03903331 0.05087925
-0.074394435 0.043888852 -0.008004117 -0.032922614 -0.057962514 0.06261444 -0.044601746 -0.07090481
0.043773934 0.0035924197 -0.03486291 0.07490114 0.035614118 -0.074612424 -0.02262073 -0.051756058
0.024614254 -0.02417316 -0.05644967 0.072707884 0.0639927 0.04564062 -0.034633078 0.025887154
-0.006535432 0.051602628 -0.047127753 0.042406067 -0.072691716 -0.059013937 0.034563348 -0.0072093117
0.032843612 0.019737558 -0.016118867 0.07725883 0.016100533 0.059719723 -0.036798436 -0.00440002
-0.032770637 -0.021805773 0.03506424 0.0008371484 -0.002103405 -0.01161714 0.021965776 0.024030043
0.0507654 -0.08387105 -0.051524162 0.049389504 0.043775454 0.040299736 -0.02270091 0.004780403
-0.0742143 0.014742783 0.02494209 -0.066948466 0.048880026 0.07401451 -0.034613602 -0.031496413
-0.076621145 0.06441714 0.056758545 0.0748006 0.07874834 -0.054965902 -0.05037268 -0.024204466
0.057678245 -0.0130476765 -0.033362195 0.014580728 0.01843679 -0.009665723 0.062163766 -0.07966189
-0.038982227 -0.031494576 0.018609827 -0.05131451 -0.047320727 -0.07952591 -0.022057785 -0.03958732
0.027032848 0.020898521 0.06257991 -0.006765658 -0.016832752 -0.0049915 -0.039409686 0.046689082
-0.0010787483 -0.007257115 0.07460263 -0.03344276 -0.00074083 -0.038683202 0.03860966 -0.0389211
0.011091013 -0.06544521 0.014141968 0.024862925 -0.028998585 0.05162257 0.025977854 -0.026267843
0.071705356 0.07205421 -0.036489252 -0.07840784 -0.025213271 -0.00083181285
00000000: a6cb 813d ba89 5bbd 60f1 f0bc 5196 3dbd
00000010: 410e 2d3d 5cee c0bc b415 68bb b913 b7bc
00000020: b51f d23a 6599 30bc fbce f93b 4e5a 96bd
00000030: 3f0b 4fbc d0c6 db3c 63b1 95bd ed2b 2e3c
00000040: 32b6 a93d 73ff 9f3d a0ae 86bc a33c 8dbd
00000050: c561 f6bc 3272 633d 67c7 77bd fca9 ac3c
00000060: fa72 4a3d eea5 633d 434f a4bd 2395 a9bc
00000070: 7a4e 4f3d 0482 f33c 64e1 1fbd c366 503d
00000080: 1c5c 98bd ccc4 333d b323 03bc ddd9 06bd
00000090: 1a6a 6dbd 003c 803d 52b0 36bd 8b36 91bd
000000a0: 4c4c 333d cd6e 6b3b 69cc 0ebd c565 993d
000000b0: 1ce0 113d 66ce 98bd 1c4f b9bc 29fe 53bd
000000c0: d5a3 c93c ca06 c6bc c537 67bd dfe7 943d
000000d0: 9b0e 833d a9f1 3a3d 6adb 0dbd 4c11 d43c
000000e0: 2d27 d6bb 475d 533d 0809 41bd fcb1 2d3d
000000f0: 65df 94bd 99b8 71bd 4c92 0d3d 173c ecbb
00000100: 0687 063d a9b0 a13c b70b 84bc e139 9e3d
00000110: 44e5 833c ab9c 743d f5b9 16bd 0b2e 90bb
00000120: 813a 06bd 05a2 b2bc 859f 0f3d 1474 5b3a
00000130: 48d9 09bb d155 3ebc 92f1 b33c a7da c43c
00000140: 61ef 4f3d 96c4 abbd 000b 53bd a64c 4a3d
00000150: e44d 333d 5611 253d 42f7 b9bc eda4 9c3b
00000160: abfd 97bd b78b 713c 5b53 cc3c 471c 89bd
00000170: 6c36 483d eb94 973d fec6 0dbd 6202 01bd
00000180: 8ceb 9cbd 22ed 833d a67b 683d 0f31 993d
00000190: cf46 a13d ed23 61bd 9553 4ebd 7248 c6bc
000001a0: 0640 6c3d ecc5 55bc cca6 08bd 01e4 6e3c
000001b0: c008 973c fb5c 1ebc 6f9f 7e3d c625 a3bd
000001c0: d4ab 1fbd 7500 01bd a373 983c 2a2f 52bd
000001d0: 61d3 41bd 7bde a2bd 87b2 b4bc 5026 22bd
000001e0: fe73 dd3c 6033 ab3c e529 803d 74b2 ddbb
000001f0: d7e4 89bc bd8f a3bb 0d6c 21bd 0d3d 3f3d
00000200: c964 8dba 18cd edbb 44c9 983d 47fb 08bd
00000210: 4234 42ba 4772 1ebd 2a25 1e3d bb6b 1fbd
00000220: 15b7 353c 2308 86bd b7b3 673c 55ad cb3c
00000230: 718e edbc 3072 533d 82cf d43c a92f d7bc
00000240: 42da 923d 2891 933d c175 15bd 4a94 a0bd
00000250: 108c cebc 040e 5aba
