Backgammon2/pub_stomper_repository/nn_pg_2_model.pt (torch_old, 699532 bytes, 6 tensors)

weight f4 [200, 464]
00000000: c9de 283d 1db6 193d 50b8 eebc b2d4 f0bc
00000010: d97f d2bc b174 10bd 1cbd 3bbc 59b9 283d
00000020: 808d 953a 1fda 1cbd 48ac a2bb 9002 9e3b
00000030: 00c2 ed38 1e86 b23c 9667 d33c 4125 cbb9
00000040: 3554 223d 6413 3c3c 8b62 37bd 683d e4bb
00000050: 4f48 0a3c ee46 cdbc 93e3 fcbc af08 3e3c
00000060: d07f 4e3c 006f f1ba 0412 003d d18a a93c
00000070: b39c e7bc 94a5 f43c b3e5 0ebd 2437 2239
00000080: 5942 123d 6523 aa3c a27c 71bb a550 283c
00000090: ad62 123d e29e 963c b251 94bc 32d9 f03c
000000a0: 267f 243b a4c1 2cbd 5aa8 653c cdd3 323b
000000b0: 22cc 03bd fcef d7bc b9c7 f6bc 2b85 303d
000000c0: ba99 653c f873 d9bc 0f45 053d 6183 36bd
000000d0: 5982 e7bb a9f8 2abd 72c9 023a 6504 be3b
000000e0: 0d28 103c 0917 33bd 6af1 323d 4901 013d
000000f0: d602 b33c 15f5 803c ba7c 29bc 52b1 16bd
00000100: c4ad 7bbb 3590 bdbb 8879 023d a273 58bc
00000110: d484 39bd 53b2 1c3d 38e8 f8bc 66d5 1abc
00000120: 37ac 2dbd 4d7e 07bd e280 c3bb 27e0 fbbb
00000130: 2fe7 07bc e798 0c3b e45b 2abd f6f5 0a3d
00000140: c43c f73c 7b7d 88bc ab6f 8bbc 1ad5 92bc
00000150: 7030 05bd 7d22 8bba dba6 133b c4ea c6bb
00000160: ca66 26bd 3a35 db3c d88a 163d 0ccd 03bd
00000170: 4f00 3a3d c846 463d 74e3 febc 47f4 4fbb
00000180: 6def 913c a472 cc3a 8d39 b23c e430 a6bc
00000190: a6f2 e13c d844 ba3b 9b0e 153d 1836 d0bb
000001a0: a643 09bc d620 c2bb 4328 0dbd f803 e13c
000001b0: f0f7 d4bc c85b 6a3c d47d 88bb 5f5b 433d
000001c0: de78 c53b bade c63c e6d4 d23c 8bc7 d33c
000001d0: 44a7 2c3d 6e8b 003d da78 e63c 7a1b bc3c
000001e0: 80f9 1ebc ce6e bf3c 405c 97bc 8963 193d
000001f0: af31 b83c b9b2 17bd 5f87 8abc 29dd 983c
00000200: 684e 423d babb 04bd 599e e33c 988f 083d
00000210: 456c bbb9 2281 d6bc f4dc f0bc 0e39 f83c
00000220: f939 b0bc 7c72 063d 6647 e93c b4a4 df3c
00000230: 9fb1 85bc 9381 98bc 61ef a5bc ea90 84bc
00000240: 9dab 103d eb54 bd3b cefe 32bd 071a 39bd
00000250: b10d 113d 87f4 f7bc b069 02bb 1843 883b
00000260: ebab 46bc 67b1 37ba c71e 073d daba 9abb
00000270: 1ec1 7cbc 233c 343c 989d 7d3c a95d 43bc
00000280: 4f7f e83a 7af6 1e3d 97ac 1e3d 30c9 d23c
00000290: ae18 cebc b89f f63c 6e77 1bbd 2bd5 31bd
000002a0: 3a11 893c bdac 2f3d b737 883c bc81 2fbc
000002b0: 66cf 2c3d 3e8d d5bc 0349 81ba b45e 2ebd
000002c0: 6001 c83b 9057 e93c c7cc c63c 0879 b63c
000002d0: e53a 863c ea32 ed3c 120d fd3c a65a ff3c
000002e0: 7688 3bbd 102c b4ba 982d bc3b d6b0 b4bc
000002f0: 8cfb e9bc b5bc b43c 4ccd b4bc d0dc ac3c
00000300: 7657 293b bccd 42bd 1483 debc c1b3 163d
00000310: 69c9 1ebd 90a8 103c 80aa e7bb c2ad 453c
00000320: a659 febc 1fd0 303c 0817 0f3d ee34 7d3c
00000330: b017 093b 4088 0f3c 748b 633c 219c 8abc
00000340: 2b2a 50bb 2688 eabc 46f1 0cbd 8cc1 48bd
00000350: d9f3 083d 5867 e83c 3b90 303c 072e 343d
00000360: 4a16 823c f6a9 a23c a452 d83c 7e93 b2bb
00000370: 08c5 153d 461d e43c 9608 d33c f49c 393c
00000380: 019c 12bc 1447 fb3c 6f4a 853c 32b1 9e3a
00000390: 75dc 38bd 3b12 bfbc 5161 1ebd 7ca8 183c
000003a0: 4b94 1dbd e035 113b aada febc af7f f1bb
000003b0: 2766 f0bc 6efc 5e3c 035c 173d 4580 1b3d
000003c0: fc77 32bd 1db7 6cbc b57b 3cbd 8c38 a9bc
000003d0: 086f 383d 47cf c43c 08f0 4d3b 1a15 393c
000003e0: b155 1a3d a2a0 ad3c 8ada d1bc d832 2a3d
000003f0: 4de3 d23c c54f 15bd 4d7a 293c bb41 69bc
0.04122809 0.037527192 -0.029140621 -0.029398296 -0.025695728 -0.035267536 -0.011458661 0.041192386
0.0011409968 -0.038293954 -0.004964385 0.004822083 0.00011337176 0.021792468 0.02580623 -0.00038746934
0.039631087 0.011479232 -0.044771712 -0.006965328 0.008440091 -0.025058236 -0.030870235 0.01159875
0.012603715 -0.0018419921 0.03126718 0.020696076 -0.028272962 0.02986411 -0.034887027 0.00015470065
0.035707805 0.02076883 -0.0036847969 0.010273133 0.035738636 0.018386308 -0.018105362 0.029400442
0.00251002 -0.042176858 0.014017189 0.0027286888 -0.032177098 -0.02635955 -0.030124532 0.04309575
0.014013702 -0.026544556 0.032536563 -0.044558886 -0.007065099 -0.041741047 0.0004989124 0.0057988637
0.008798611 -0.04372314 0.04368726 0.031495366 0.021851938 0.015741864 -0.010344679 -0.0367902
-0.0038403133 -0.005785013 0.031854182 -0.013211163 -0.04529269 0.038256 -0.030384168 -0.009450292
-0.042400565 -0.033079434 -0.0059662918 -0.007686633 -0.008294865 0.0021453442 -0.04159154 0.033925973
0.030180342 -0.016661396 -0.01702102 -0.01792388 -0.032516897 -0.0010615137 0.0022529874 -0.0060704667
-0.04062537 0.026758779 0.036753505 -0.03217797 0.04541045 0.048407346 -0.031114317 -0.0031731294
0.017814362 0.001559813 0.021755958 -0.020286985 0.027581524 0.0056844763 0.036390882 -0.0063541047
-0.008377945 -0.0059243245 -0.034462225 0.027467713 -0.025997132 0.014304109 -0.0041653905 0.04769456
0.0060263714 0.024276126 0.025736284 0.025851985 0.042151704 0.03138297 0.028133798 0.02296232
-0.00970304 0.023368265 -0.018476605 0.03744844 0.022484628 -0.037035678 -0.016910253 0.018660145
0.047438055 -0.032405593 0.027785467 0.033340067 -0.00035748087 -0.026184622 -0.029402234 0.030300643
-0.021512019 0.032824025 0.028476428 0.027300216 -0.016320048 -0.018616473 -0.020255746 -0.016182382
0.035319913 0.0057779453 -0.043700032 -0.045190837 0.035413448 -0.030267967 -0.001989942 0.004158389
-0.012125949 -0.0007007331 0.032988336 -0.0047219815 -0.015426902 0.011000666 0.015479468 -0.011924186
0.0017738136 0.038809277 0.038738813 0.0257307 -0.025158253 0.030105457 -0.037955694 -0.043416183
0.016731847 0.042889345 0.01662813 -0.010712083 0.042189978 -0.026068326 -0.0009863678 -0.042570785
0.0061036795 0.028484136 0.024267567 0.02227451 0.016385505 0.028954942 0.030890021 0.031171154
-0.045784436 -0.0013746042 0.00574274 -0.022056978 -0.02856233 0.022062639 -0.02207055 0.021101385
0.0025839484 -0.047559485 -0.027162112 0.03679252 -0.0387663 0.008829251 -0.0070698857 0.012065353
-0.031048607 0.010791807 0.034934074 0.015454514 0.002091866 0.008760512 0.013888229 -0.016920151
-0.0031763415 -0.028629374 -0.034409784 -0.049012706 0.033435676 0.02836959 0.010776575 0.043989208
0.015879769 0.019856434 0.026406594 -0.0054497113 0.036564857 0.02784599 0.02576093 0.011328924
-0.008948327 0.030673541 0.016270844 0.0012107252 -0.04513212 -0.023324123 -0.038667027 0.009317514
-0.0384715 0.0022157356 -0.031110127 -0.0073699574 -0.029345585 0.013609989 0.036952984 0.037964124
-0.043571457 -0.0144479545 -0.046016414 -0.020656846 0.045027763 0.024024619 0.0031423587 0.011296535
0.037679378 0.02119476 -0.025616903 0.041552395 0.025743151 -0.036453027 0.0103441 -0.014236863

bias f4 [200]
00000000: aa2c fcbb f29f 22bc aaf1 bb3c 965b c53b
00000010: aaed 20bd d134 0f3d e873 0c3d 17ed a2bc
00000020: fb92 91bc 66ff 88b9 1c31 df3c 6230 3bbc
00000030: a5cf 29bd ebbd 9c3c 14af 8b3c e636 bcbc
00000040: 32f6 713b 60a9 d8b9 d3c8 28bd 6645 3c3d
00000050: f937 883c 2590 eb3c 8fee 5ebc fb89 343c
00000060: 0dcc 2ebb 5810 2abd 1c7d dbbc cc22 79bc
00000070: 239f 0abd 6f4d bcbb f386 ea3c fe97 df39
00000080: 94b2 92bc fb57 31bd a1ac f43c c26e 803c
00000090: 6841 2ebd 99f4 0e3b e766 f33c b652 d5bb
000000a0: 1cba 983c 5398 e0ba 89e3 e2bc 090d a53c
000000b0: a993 493c ef87 003d 922a 093d 41bb ce3c
000000c0: ee0e c93c 2ae4 123c c6a1 e23c 3218 85bc
000000d0: e766 103d b6fe 523b 8ec4 07bd df5e 043d
000000e0: c981 24bd beb7 21bd d9ca 02bd e787 8aba
000000f0: 5644 0b3d 602e 3b3b f988 fbbc 7107 dd3c
00000100: ff60 24bd 9107 d4bb 6c2e 2ebd 8c62 293d
00000110: b268 d9bc e4bf 1a3c 5eab 0a3d 5632 8dbc
00000120: ec2d 703c a637 38bc 9081 48bc 1712 dc3c
00000130: f533 38bb b0c9 8d3c 0c2f 30bd 6608 27bd
00000140: 4c3c 763c 0b33 753c e4e3 933c d367 09bd
00000150: e309 11bc 310b 7dbb e75d 583c ac9b 0dbd
00000160: e9f9 013d c042 b03c c23e 193d d59d 09bd
00000170: e109 77bc 938f 1bbd 243a 26bb 341a 0fbc
00000180: 8718 023b ec60 073d cb31 573a 81be 093d
00000190: d9d5 30bd 0cb1 c3ba 94e6 c73b 2e2f e4bc
000001a0: a72b 113d 89bd 193d 3242 093d 8e42 7f3b
000001b0: 7c62 ecbc ea14 063d 4790 2abd 371e 53bc
000001c0: a47f ebbc a037 ffbc 6d2a 1c3d 7a6b 2f3d
000001d0: 580a c9bc 6db9 34bd f348 f73c 1fc4 343d
000001e0: 4a7a 3bbd c7fa 66bc 0833 f7bc 9b02 3d3d
000001f0: e67b 1dbc 30b6 8abc 021c 19bd a5f5 14bd
00000200: b99b 483c 0c1f 263d cf95 b13b 50dc 103c
00000210: 968c 2cbc bd18 7bbb 7613 1a3d a915 953c
00000220: 648d 11bd 17a5 b63c bea8 303d 60fd 193c
00000230: 07ad 153d 6c47 92bb f65a 113c c6ee c83b
00000240: 0aed 2dbd 13b0 d23b 3477 2cbd e879 343c
00000250: 0603 34bd 5282 963c 7a63 a1bb 7916 e7bb
00000260: fcba ad3c f57f 0d3d 2c4d 153d 2ef6 a63c
00000270: f00d 493c da22 0b3c 5639 e4bc 2808 aebc
00000280: 139e 133d d9a9 3abd 266e 65bc 1a3f c43c
00000290: 29c0 9abc cb2a 4cbd 2769 1d3d b7d4 92bc
000002a0: 8a53 07bd 7174 d1bc 8ce1 0d3b 4bba f63b
000002b0: da6e 653c 3f90 b8bc dc1b a53c 0ee0 2f3d
000002c0: 8778 fc3c 0eb5 a2bc ddd5 b83c 4fa2 1dbd
000002d0: f45b 3ebd d1ac c63c 5415 3a3d 5c1c 163a
000002e0: 7b30 c1bb e650 a9bc 9a9d 383d 9930 07bd
000002f0: 466c f6bc 2e94 363d 0716 233d e2ef 643c
00000300: bb7c efbc 9552 f63c cae4 ef3c 2e43 12bd
00000310: 8a9a 303d 10fb 88bb bed0 37bd eb24 ca3c
-0.007695754 -0.009925829 0.022942383 0.006022881 -0.039289154 0.03496248 0.034290224 -0.019888444
-0.017770281 -0.00026130228 0.027245097 -0.01142511 -0.04145779 0.019133529 0.017051257 -0.022975396
0.0036920425 -0.00041324925 -0.041207146 0.04596462 0.016628252 0.028755257 -0.0136066815 0.011019225
-0.0026671917 -0.041519493 -0.026793055 -0.01520605 -0.03384317 -0.0057465355 0.028628802 0.00042647118
-0.017907418 -0.043296795 0.029867472 0.015677813 -0.042542845 0.0021813272 0.029712154 -0.006510104
0.018643431 -0.001713524 -0.027696388 0.020147817 0.012303271 0.031379636 0.033487864 0.025235774
0.024543252 0.008965531 0.02766503 -0.016246889 0.035254385 0.0032195277 -0.033146434 0.03231704
-0.040162835 -0.03948187 -0.03193173 -0.0010569067 0.034000717 0.0028561577 -0.030704962 0.026981087
-0.040131565 -0.0064706285 -0.04252474 0.041353747 -0.02653918 0.009445164 0.033854835 -0.017235916
0.014659386 -0.011243736 -0.012237921 0.026864095 -0.002810714 0.017308086 -0.043013617 -0.040779494
0.015029024 0.014965783 0.018053003 -0.03354628 -0.008852455 -0.0038611407 0.013205982 -0.03457229
0.031732474 0.021516204 0.037413366 -0.033597786 -0.015078039 -0.03797872 -0.0025364244 -0.008734275
0.0019851045 0.033051416 0.0008209019 0.033628944 -0.04317269 -0.0014930083 0.006100485 -0.027854528
0.03544202 0.03753427 0.033510394 0.0038949582 -0.028855555 0.03273479 -0.0416415 -0.012885622
-0.028747387 -0.031154454 0.038126398 0.042827107 -0.024541065 -0.04412215 0.030186152 0.04413235
-0.04577092 -0.014097876 -0.0301757 0.046145063 -0.009612059 -0.016932577 -0.037380226 -0.036367077
0.012244158 0.040556952 0.00541947 0.008841589 -0.010531565 -0.0038314306 0.037616216 0.018198805
-0.03553523 0.022295518 0.043129675 0.009398788 0.036541965 -0.0044640806 0.008871784 0.0061319796
-0.042462386 0.006429681 -0.04210587 0.011015393 -0.043948196 0.018372688 -0.0049251886 -0.0070522395
0.021207325 0.034545857 0.03645055 0.02038106 0.012271389 0.008492196 -0.027859371 -0.021244124
0.036039423 -0.045572136 -0.014003312 0.02395587 -0.018890457 -0.049845498 0.03843036 -0.017923696
-0.033038653 -0.025568219 0.002164933 0.007529532 0.01400348 -0.02252972 0.020154886 0.042938285
0.03081919 -0.019861724 0.022562915 -0.038484868 -0.046474412 0.024252327 0.045430496 0.0005726272
-0.005895672 -0.020668458 0.045072176 -0.03300533 -0.030080926 0.04457491 0.03981593 0.013973208
-0.02923428 0.030068675 0.0292839 -0.0357086 0.04311613 -0.0041803196 -0.044876806 0.024675807

weight f4 [200, 200]
00000000: 3199 1bbd dd92 2fbd 6b39 5e3d c6e8 89bd
00000010: caee 263d e59d e5bc e24a d53c 05d4 00bd
00000020: d8fd 87bd 1793 263d 95e7 79bd b958 8d3d
00000030: 5964 283d 3bb1 da3b 1c7b dd3b b1c7 7b3d
00000040: 41c8 fbbc 8bc1 85bb b214 033c 8faf 3bbd
00000050: 34da b33c 20a4 2ebc b1da 183c 3bfe 4cbb
00000060: e445 b83c 1927 6e3d b468 2a3c e697 a33c
00000070: f300 80bd 54ba 2dbd 025e 183d 7626 e6bc
00000080: 512c acbc 9fa9 803d 2d8c 8c3d 580a 833d
00000090: f42a 3bbb 0d8f ebbc 23d1 623d 834f cbbc
000000a0: 1219 05bd 9c54 6f3c 58d6 bcbc 23f8 75bd
000000b0: 64cb 9c3b 212b d73c cc9b fa3c 6a64 4f3d
000000c0: dc53 3ebd 7c5b 673d 2ad6 61bd 6715 203d
000000d0: 7897 2ebd 3ecd e7bb 5a54 60bd 0241 033d
000000e0: e127 8d3d 681a 07bd 85b4 9d3c c8f5 093c
000000f0: 5e83 103d 9d0c 96bc 10c6 c6bc d0fa c9bb
00000100: 926c 903d f0cd 81bc 3095 54bc 4ec5 c6bc
00000110: 81ac a23c e5f7 893d 11e5 253b daea 863d
00000120: 848a 5f3d a2db 46bd 4329 6abd d255 583d
00000130: 1c3f 8dbd 65e1 92bd 80e3 543b 7943 803d
00000140: 741c a13b 3dde 8a3d 6075 313d e705 5abc
00000150: 1589 923c 79a0 4abd 113e 633d be40 60bd
00000160: 0116 b03c b452 93bc fc72 a23b 5fe4 3cbd
00000170: 3789 9bbc fecb 883c a42f debc 98a9 50bd
00000180: 150c 1dbd be1d 8e3d 5305 4bbc d833 5abc
00000190: 2995 2b3d ac29 f43c f681 3a3d e349 7b3d
000001a0: c65d cc3c d448 b7bc 2377 07bd 9f95 873d
000001b0: 1fa2 863d d2d2 b7bc 3a69 643d 27a3 b9bc
000001c0: 0219 3d3d af5a 69bd 87eb 8ebd 41ce 723d
000001d0: 9445 0e3d 2305 533d 035e d63c 51d7 6f3c
000001e0: f3d7 b13a e5cc c63c 3117 ea3b 7f0b 263d
000001f0: a2ca ba3c a209 8c3d ae1b 0d3d 22d3 2d3d
00000200: 0a6a 5e3d 7a9e 52bd b057 aebc 882b 303d
00000210: 661a b3bc 3a9d 5dbd 3d34 133c 6731 5e3d
00000220: 3426 7c3d 3088 703d c6ca 1e3b ad2a 20bc
00000230: d5e6 9e3c c71c 363d ef45 84bc 4c0d 15bd
00000240: 13aa 033d 3c75 093d f36f 663c 0a83 e83c
00000250: 7596 79bd 6164 d33c f718 f7bc 3ed4 56bd
00000260: ea7a 80bd 5a7f 693d d5a9 d2bc 2a30 d33c
00000270: 5fc9 843d 6646 483d 3604 8a3c 4db3 1a3d
00000280: baf7 743c 95c6 b5bc eba2 80bd 67af 773d
00000290: 902f 00bd 48fd c03c 0254 45bc e526 043d
000002a0: 7c54 65bd 4340 4c3d 66b0 2a3c b49d 77bd
000002b0: 41d2 c8bc 2c79 87bd 2578 37bd 20a4 0b3d
000002c0: 7a2a c2bc c135 ab3c e45c b93c 9cef 47bc
000002d0: 5e8a 113d 94c9 8fbd 8c00 5c3d 1494 09bd
000002e0: 8001 3bbd cbe5 713c 2718 8e3d 5c4b 2ebd
000002f0: 7f71 d0bc bd54 bf3c 9196 073d b30a 63bd
00000300: 3b08 2dbc 47f6 a93a 3e62 2fbd 727c 343d
00000310: ec1f 243d a67c 62bc 09bb a33c febd 69bd
00000320: dbdc 863d 1ded 33bd 105a 90bd 08ae 09bd
00000330: 52f4 693d 0804 bfbc c229 b43c 427f 763d
00000340: 3ab3 39bd e039 8c3d 7cfd 8b3c b70f 483c
00000350: 906a a93b f79d 52bd a3ed d53c f21f aabc
00000360: 284d 713b 269d 83bd d101 0f3d cda8 90bc
00000370: a059 c8ba 00cf a4bc 01ca c93c a3a1 7fbb
00000380: 4ea4 1cbd 236b 52bd d8d1 0fbd 1912 c13c
00000390: 677e e63c 4c82 803d fa07 083d f1c1 74bd
000003a0: 18e9 0cbd 7104 58bc c48b 62bd bb40 8cba
000003b0: ea3e 763d 0e33 f5b9 6b25 88bd 5222 073b
000003c0: 1679 993a 6931 85bd 2275 0f3b bffe a2bc
000003d0: 32ed 4a3d e455 47bd 4e7e b4bc 9a4b 5cbd
000003e0: 99f2 d13c 4ab0 e33c e1a1 19bc 5353 493d
000003f0: d89a 853c ca8f 2fbb a31f 44bd 5cc8 d3bb
-0.03798789 -0.04286467 0.054253977 -0.06733851 0.04075507 -0.028029392 0.026036683 -0.031452198
-0.06640214 0.04066762 -0.06101187 0.06901688 0.041111324 0.0066739595 0.0067590605 0.061469737
-0.030735137 -0.00408191 0.00800054 -0.045821723 0.021954633 -0.010659248 0.009329484 -0.0031279463
0.022494264 0.058142755 0.01040094 0.019969892 -0.06250181 -0.042414024 0.037199028 -0.028094511
-0.021017225 0.06282353 0.06862674 0.06398457 -0.0028559538 -0.028754735 0.05537523 -0.024818188
-0.032494612 0.014607575 -0.023051426 -0.060051095 0.0047849882 0.026265683 0.030591868 0.05063287
-0.046466693 0.05648373 -0.055135883 0.03908291 -0.04262492 -0.0070740273 -0.054767944 0.03204442
0.06892372 -0.032984167 0.019251117 0.008420415 0.03528153 -0.018316561 -0.024264365 -0.0061639324
0.07051958 -0.015845269 -0.012975022 -0.024264004 0.019857647 0.06736735 0.0025313536 0.06587763
0.05457546 -0.048549302 -0.057168256 0.05281622 -0.06896803 -0.07171897 0.0032484233 0.062628694
0.004916722 0.0678067 0.04332483 -0.013307071 0.017887631 -0.049469445 0.055479113 -0.054749243
0.021494867 -0.017983772 0.004957555 -0.04611623 -0.018986328 0.016698834 -0.027122326 -0.050942987
-0.0383416 0.069392666 -0.012391406 -0.013318025 0.041890297 0.029805027 0.045534097 0.06134976
0.024947058 -0.022373594 -0.033072602 0.06620335 0.06573891 -0.022439394 0.055764414 -0.022660805
0.046166427 -0.05697125 -0.06978517 0.05927873 0.034734324 0.05151857 0.026167875 0.014638738
0.0013568386 0.024267623 0.007143878 0.040538307 0.022801701 0.06837775 0.034450226 0.04243768
0.054300345 -0.051420666 -0.021282047 0.043010265 -0.021863174 -0.05410502 0.008984623 0.054246332
0.06155987 0.05872363 0.002422975 -0.0097758 0.019397179 0.044461038 -0.016146628 -0.036389634
0.032144617 0.03355907 0.014064777 0.028382797 -0.060934503 0.0258047 -0.030163271 -0.052448504
-0.06273444 0.057006218 -0.025715748 0.025779802 0.06483721 0.048895262 0.016847711 0.03776865
0.014951641 -0.022189418 -0.06281074 0.06047001 -0.03129536 0.023558274 -0.012043955 0.032263655
-0.055988774 0.049865972 0.010418033 -0.06045313 -0.02451432 -0.066149086 -0.044792313 0.03409207
-0.023701895 0.020899655 0.022627302 -0.012203123 0.035532348 -0.0702087 0.05371146 -0.033588484
-0.045655727 0.01476426 0.069382004 -0.042552337 -0.025444744 0.023355836 0.033102576 -0.055430125
-0.010561044 0.0012967073 -0.0428183 0.044063993 0.040069506 -0.013823664 0.019986646 -0.057065956
0.065850936 -0.0439273 -0.07048428 -0.033613235 0.057117768 -0.023317352 0.021992568 0.060179956
-0.04533694 0.06846976 0.017088644 0.012210778 0.005170174 -0.05142018 0.02611429 -0.020767186
0.003681967 -0.06426458 0.03491384 -0.017658615 -0.0015285499 -0.020118237 0.024632456 -0.0039006255
-0.03824263 -0.051371705 -0.035112232 0.0235682 0.028136445 0.06274852 0.033210732 -0.05975527
-0.034401983 -0.013184653 -0.055309072 -0.0010700444 0.060118593 -0.0004676808 -0.06647762 0.0020619822
0.001170906 -0.06503565 0.0021889885 -0.019896863 0.049542613 -0.048665896 -0.022032883 -0.053783037
0.025628375 0.027794022 -0.009376974 0.04915173 0.016309187 -0.0026788586 -0.047881734 -0.0064630937

bias f4 [200]
00000000: 5697 1bbd 5511 953c 083e 54bc 9130 4bbc
00000010: bfa5 593d bd50 83bd 6c74 abbb 339b 59bd
00000020: bb8c 7dbd 3895 76bd 1f35 d23c 10ad 4a3d
00000030: 1551 8e3d 8d6c 083d 4a78 e4bc 4ec8 2cbd
00000040: 78f8 87bc ea4d 5a3d 02f7 3d3c 8f20 5e3b
00000050: b60d 153d db48 96bd 8568 84bd 190c 4dbd
00000060: 8d4f 79bc 8b52 813d c56f cabc 8886 513d
00000070: 1895 8ebd 65c4 fa3b 6173 9fbd a260 7cbd
00000080: 87fd 3fbd 4a83 d2bb 026d d03c 3a75 283d
00000090: 5565 8dbd eba3 50bd ba3f a9bc 4b13 b7bb
000000a0: e7e8 093d 8b0b 973d e14d 44bd 7111 7b3c
000000b0: 5529 123d b1b9 75bb 6269 ac3c 79f6 a3bc
000000c0: 9c67 973d 231f 74bd 162a 283d ccf0 443d
000000d0: 7d10 b23c 3e69 5b3d bbb3 cf3c 5566 c13c
000000e0: c1be ca3c fc46 1cbd 2ea1 e0bc 9e34 0b3d
000000f0: ffe1 383d 0f3d 6e3d e56d 6d3d 41b3 16bd
00000100: d96d 423d f134 99ba ba27 e9bc 7fc3 7d3d
00000110: 5e86 c4bc 43c2 ae3a 95cc 353c fc68 c23c
00000120: 8071 c4bc 4772 15bd e333 1cbd b4a6 18bd
00000130: 670c 413d cc4a 643d e609 64bd 5d80 cabc
00000140: 1c99 f639 670b e23c 2150 733d 32f7 823c
00000150: f1ec 313d 69f0 9fbc f701 2d3d afbc d93c
00000160: d46d 99bc 79fa eabc 1c0e 88bd 1f3f b93c
00000170: 2b1e 573c a30a c53c 7f5b 6e3d 63d0 e83a
00000180: 42a2 643c eaa9 76bd cd08 913c 83d9 29bd
00000190: 4a0b 683c 9167 70bd acfd ec3c ea35 6fbd
000001a0: b73e 783d cc04 90bd 9d76 bcbc 6237 843d
000001b0: df48 043d a7dd 2bbd e3d6 8a3a a0cb dd3c
000001c0: b7af 01bd 7558 7e3d bff4 1e3d b138 b4bc
000001d0: 2675 a1bc 0f7c 12bd 90e1 83bd a9a1 273c
000001e0: d29c 843b 8a1e fcbb 7568 dc3c 4182 26bd
000001f0: 6dd0 c3bb 8d0d dbbc e514 86bd 3603 81bd
00000200: 67b8 65bd c21c 693d 14f7 e4bc 06c0 003d
00000210: fa2e 22bd f5bd 263d d50d e9bb f16f c4bb
00000220: 6787 76bd ccb3 163d 05d3 45bd d1a5 55bd
00000230: eca7 ce3c 9fe6 883d a572 763c 22e8 20bd
00000240: 1d79 603c 2841 84bd 24ca 1e3c b167 c6bc
00000250: 7384 fd3c 5a15 a0bc 1533 263d 7a37 2dbd
00000260: 801e 11bd 744a 0f3c c8b2 31bd bd51 7bbb
00000270: 993a aebc b5a6 863d 2628 863d f3f3 d63c
00000280: 0b14 723d 03e8 703c 3085 d93c 224a 503c
00000290: 57de bb3c 68b1 20bd 9658 813d 41cb 8b3d
000002a0: 4e51 7c3d 746d 7b3b 09d1 04bd dc7d 34bd
000002b0: f836 eabc 2911 ddbc 0019 73bd 9e02 02bd
000002c0: a661 2d3d 65ff 5ebc 01c3 df3c f3c8 973c
000002d0: 6e6f 463d 480b 343d ab5b 333b 99f6 443d
000002e0: 2294 0d3b 2de7 603c a62b 77bd 44ef 61bd
000002f0: 22ed 363d 6a46 503c 62f9 263d 2a93 99bc
00000300: 187b 713d 17c2 16bd 4812 41bb 2d18 9fbb
00000310: acfc 703d 0a26 25bd 4725 4e3c 724d 72bd
-0.037986122 0.018196741 -0.0129542425 -0.012401716 0.053136583 -0.06411884 -0.0052323844 -0.053126525
-0.06190179 -0.0602009 0.025660096 0.04948145 0.06949059 0.033306647 -0.02788939 -0.042183213
-0.016597971 0.05329696 0.011594536 0.0033893918 0.03639003 -0.07338115 -0.06465248 -0.050060365
-0.01521672 0.06314572 -0.024711499 0.05115369 -0.06962031 0.0076528066 -0.07785679 -0.061615594
-0.046872642 -0.0064243423 0.025442604 0.04112742 -0.06904093 -0.050937574 -0.02066027 -0.0055870167
0.03366938 0.073752485 -0.047925834 0.015323983 0.03568395 -0.0037494714 0.021046344 -0.020014988
0.07392809 -0.059600007 0.04105576 0.048081204 0.021736378 0.053567164 0.025354257 0.023608366
0.024749162 -0.038153633 -0.027420606 0.033985727 0.0451374 0.0581637 0.05796613 -0.036792044
0.04746804 -0.0011688751 -0.028461326 0.061954018 -0.023989853 0.0013333041 0.011096139 0.023731701
-0.023979902 -0.036485936 -0.03813542 -0.037268355 0.04713097 0.055735394 -0.055673502 -0.024719412
0.00047034852 0.027593328 0.05940259 0.015987013 0.043438856 -0.019523816 0.042238202 0.02657923
-0.018729128 -0.028683888 -0.06643316 0.022613106 0.013129751 0.024052924 0.058192726 0.0017762299
0.013954701 -0.060220636 0.017704392 -0.0414672 0.014162848 -0.05869252 0.028929554 -0.058401026
0.060606685 -0.07032165 -0.023005778 0.06455876 0.032296058 -0.04195943 0.0010592606 0.027074635
-0.031661715 0.062096078 0.038807627 -0.021999689 -0.019709181 -0.035762843 -0.06439507 0.010231414
0.0040470148 -0.00769407 0.026905278 -0.040651564 -0.005975774 -0.02673986 -0.06546954 -0.062994406
-0.056084063 0.05691219 -0.027949847 0.031433128 -0.03959558 0.0407085 -0.0071122446 -0.00599479
-0.060187723 0.03679256 -0.048296947 -0.052160088 0.025226556 0.066846125 0.015041982 -0.03928388
0.013700751 -0.0645774 0.009691749 -0.024219366 0.030946946 -0.019541431 0.04057606 -0.042289235
-0.035429478 0.008745778 -0.04338339 -0.003834828 -0.021268176 0.065747656 0.065506265 0.02623937
0.059101146 0.014703753 0.026552767 0.012712987 0.022933168 -0.039231688 0.063157246 0.06825877
0.061600976 0.00383648 -0.032425914 -0.04406534 -0.028590664 -0.026985722 -0.059350014 -0.031740777
0.042329453 -0.0136106955 0.027314665 0.018528437 0.04844611 0.04395607 0.002736787 0.048086736
0.0021603187 0.013726992 -0.06034436 -0.055159822 0.04465974 0.0127121005 0.040765174 -0.018746931
0.058955282 -0.036806192 -0.002946036 -0.004855177 0.058834717 -0.04031948 0.01258213 -0.05915589

weight f4 [200, 200]
00000000: ff8e ab3c 097d 1e3a c812 80bd 0a1e 3ebd
00000010: 952f 3e3c e045 d13b 552f 04bd 9298 5bbd
00000020: 4fd2 033c 956c fbbc 9d13 5a3c e305 5cbd
00000030: 5fbc 85bd 53e9 eb3c 49ac 833d 86c3 5b3d
00000040: 8386 b7bc 6258 843d 225f 963d 2603 1c3d
00000050: 93f9 033d 665f c83c 15c9 80bd 9668 e6bc
00000060: a483 2dbc f36b 393d c01e f33c ab07 873d
00000070: eee5 4fbd 786a 79bd 7eea 86bd 269a 29bd
00000080: 1bbd 143d 1478 003d e8b6 1dbb cf1e a73c
00000090: affe 163d 8002 4fbd 85ad 98bc e16b 49bd
000000a0: 1115 8cbc 6d4a 163d 15ff d3bc c785 05bb
000000b0: 8925 f63c b082 4d3d ce42 b23c eab9 a13c
000000c0: 2ccf 093d 09d7 0f3d 2d28 443d 9f1d 703d
000000d0: 2b4b ac3c ee01 f83c d38f 1b3c 83ce 80bd
000000e0: 44ca 7cbd 09ba 70bd 9d49 23bd 0f45 29bd
000000f0: 82a9 e1bc 0686 0a3d 9aa2 e6bb 537c 223c
00000100: 863a 0a3d a0d2 4e3d 1e9e 9539 9345 55bd
00000110: 4151 673d f2f2 39bd e446 65bd b608 cabc
00000120: 888d b13c f956 b9bc 8841 eb39 46ed 723d
00000130: 47f9 74bd ed64 c03c cee5 b73c a71f 77bd
00000140: 42a4 27bd ed2e e8bc e7a4 89bc f1da 52bc
00000150: f592 4c3c ebb1 0d3d 2d60 0ebd cbfc 03bd
00000160: eafb 7dbc 50c4 38bc ee25 03bc 94dc 6bbd
00000170: 9304 4dbd a9c2 83bd ed19 6b3c f91b 5e3d
00000180: 2dbd faba 5e13 823d aa5b 42bd 4d65 053c
00000190: 0f5f 80bb ebda 4dbc 5258 dfbc e5a2 3cbc
000001a0: be38 b13c 85c8 723d 2a2c 04bd c478 3d3b
000001b0: 62cd 5ebd b71b 59bd 472d 89bc f4db 2dbd
000001c0: 081d 713d e80b 36bc 2582 1d3d 4d7e 433b
000001d0: b23c 84bc 8f44 453d 526e 03bd bace bf3a
000001e0: cf99 a33c 523e 40bd 0dc4 88bd 1360 4fbd
000001f0: 4132 6e3d 8a6f 90bd 4fd0 033d f5cd 883d
00000200: acf0 75bd 8a7a 7bbd 9e27 693d a2c6 f0bc
00000210: 44bc ebbb e61c 8f3d 4d53 c53c dc9b c53c
00000220: 0ac9 463d 4852 54bc f871 85bc d580 8f3c
00000230: d610 803d 2538 76bc c96b 04bd 9bae 52bd
00000240: d718 413c 0bcf 24ba 8550 f2bc eb0d 1f3a
00000250: 987f 72bd d64d 5bbd ec49 523d 8714 063d
00000260: 6df6 29bd 16dc 12bd 9d1c 7cbd b763 2abd
00000270: e0cb 17bd 5309 29bb 1d3d ceba 5fb0 89bc
00000280: e815 7b3d 678d b43c 369b 1e3d 9697 44bd
00000290: 7ff4 633d 8da5 383d ab64 9abc 50e8 893d
000002a0: 10ab 22bd 3e81 873b 25c4 85bc 34a9 51bc
000002b0: bbcc 2a3d 2313 65bc 7cd5 5dbd 4f08 29bd
000002c0: ab45 0c3d d1bc 7bbd b3d0 4fbb 6359 6a3d
000002d0: fb3c 1c3d 92f8 483d da72 b43c c916 813d
000002e0: 9449 79bd 1e60 393d 9da5 723d 5b1b 07bc
000002f0: 76c0 09bd c95d 3f3d 9ede d63c dbe2 653a
00000300: 3124 993c 1ed4 2a3c 5732 2ebd 2d6b 273d
00000310: 3941 6f3d c180 5cbd 0538 823c 1ef7 443d
00000320: fe5e e83c 52c8 303d 88dd 6cbc 7a4e f13a
00000330: 8de9 bfbc 3960 a1bc ec24 5a3d 80c9 793d
00000340: 7924 61bd 3fde 283c ac3a 7dbd 3c73 043d
00000350: 62fb 863d 4ea9 803b eeea 583d 7a05 50bd
00000360: 1556 da3c f232 533d 8f76 073d 8682 ccbc
00000370: 313b 89bd 298d 213d 054e b8bc 9f4e 5f3d
00000380: b26d 8ebd 483d 633d e9e3 783d f96b a23b
00000390: 5ccd fa3c b4a0 a53c c017 1bbd aa5c a0bb
000003a0: 947b 313c a08d dfbb 0e98 47bb daae 7abb
000003b0: 8211 fd3c 6bdf 453d 499b 1ebd 8a67 4c3d
000003c0: b022 a53b 352e 0ebc 1ea8 23bd 56d8 74bd
000003d0: 71f0 52bd cfb4 f23c 9f6c 133d 1f0c 6dbc
000003e0: 89fb 5ebd e3c6 033c 6918 163d e0dd 353d
000003f0: d6a1 3bbd db4e 1b3d 14bb 83bd 4c35 853d
0.02094221 0.00060458534 -0.06253582 -0.046415366 0.011608024 0.0063865036 -0.0322717 -0.0536123
0.008045747 -0.030691424 0.01331034 -0.05371655 -0.065300696 0.028797781 0.06429345 0.053653263
-0.022403007 0.0646217 0.07342364 0.03808894 0.032220434 0.024459552 -0.06288353 -0.028126042
-0.010590468 0.045268964 0.029677749 0.065932594 -0.050756387 -0.060892552 -0.065876946 -0.041406773
0.036313158 0.031364515 -0.002406532 0.020400433 0.03686398 -0.050539494 -0.018637428 -0.049175147
-0.017099889 0.03669207 -0.025878469 -0.0020373927 0.030047195 0.05017346 0.02176037 0.019741971
0.03364484 0.035117183 0.047889877 0.058622 0.021031937 0.030274358 0.00949474 -0.06289389
-0.061716333 -0.058771167 -0.039865125 -0.041325625 -0.027546648 0.03381922 -0.0070384266 0.0099173365
0.03374722 0.050493836 0.000285373 -0.052068304 0.056473974 -0.045397706 -0.05597581 -0.024662357
0.021673933 -0.02262448 0.00044871517 0.059308313 -0.059808042 0.023485625 0.022448447 -0.06033292
-0.040928133 -0.028342688 -0.016802264 -0.0128695825 0.012486209 0.034593504 -0.03475969 -0.032223504
-0.0155019555 -0.011277273 -0.008004649 -0.057583407 -0.05005319 -0.06433613 0.014349443 0.054225896
-0.0019129865 0.0635135 -0.0474507 0.008141828 -0.003917582 -0.012564401 -0.027263794 -0.011513446
0.021633502 0.05927326 -0.03226868 0.0028911093 -0.054395087 -0.053004947 -0.016745223 -0.04244609
0.058865577 -0.011111237 0.038454194 0.002982992 -0.016142223 0.048161086 -0.03208763 0.0014633753
0.019970803 -0.046934433 -0.06678019 -0.050628733 0.058153395 -0.070525244 0.03218108 0.06679908
-0.060043976 -0.06139616 0.056922548 -0.02939159 -0.007194074 0.06987934 0.024087572 0.024122171
0.04853157 -0.0129590705 -0.016289696 0.017517487 0.06253211 -0.015028034 -0.032329354 -0.051436048
0.011785707 -0.00062869553 -0.02957941 0.00060674426 -0.059203714 -0.053541027 0.05134003 0.03273442
-0.041494776 -0.03585442 -0.061550725 -0.041599 -0.037059665 -0.0025792911 -0.0015734766 -0.016807733
0.06130019 0.022040082 0.03872224 -0.047996126 0.05565309 0.045079757 -0.01884683 0.06733763
-0.03971392 0.00413528 -0.01632888 -0.012796689 0.041699152 -0.013981613 -0.054158673 -0.04126769
0.034246128 -0.061459366 -0.0031710088 0.057214152 0.038144093 0.04906518 0.022027422 0.06303174
-0.060861185 0.04525768 0.059239972 -0.008246268 -0.03363081 0.0467203 0.026229199 0.0008769461
0.018694015 0.010426549 -0.042528477 0.040873695 0.05841181 -0.053833727 0.015895853 0.04808723
0.028365608 0.04315979 -0.014457114 0.0018410229 -0.023426795 -0.019699203 0.053257868 0.06098318
-0.054966424 0.010306894 -0.061823532 0.03233646 0.06590916 0.0039264327 0.05295842 -0.050786473
0.026652375 0.051562257 0.03307205 -0.024964582 -0.06700743 0.03944126 -0.02249814 0.05451834
-0.069545165 0.055478364 0.060764227 0.004956719 0.030615501 0.02021823 -0.037864447 -0.004893859
0.010832686 -0.006822303 -0.0030455622 -0.0038251192 0.030892137 0.04830877 -0.03872231 0.04990343
0.0050395355 -0.008678009 -0.03995525 -0.059776627 -0.051498834 0.029627232 0.03599226 -0.014468222
-0.0544391 0.008043024 0.036644373 0.04440105 -0.045808636 0.037917 -0.06432167 0.06504306

bias f4 [200]
00000000: defd 2c3d c908 f93b 5fa4 71bd 454e efbc
00000010: ecc1 283d b324 7f3d 5bc9 8d3d 3a36 41bc
00000020: 2a9a 643d e767 1e3c 78c6 e93c 8f96 aebb
00000030: 9030 68bd 60ec 2dbd 62a4 06bd a7c9 4dbd
00000040: 2c83 8bbd d09c 903d 2668 6dbd 65d7 64bd
00000050: 7982 163d 68eb 603c 3149 8cbd c9ac 77bd
00000060: 916a c9bc d237 3b3d d88b 25bd 02a3 403b
00000070: 9847 b4bc e69d 93bd 5590 0d3d cc63 f93b
00000080: a020 8c3d b6e4 8bbc fcfc b33c aec7 403d
00000090: 6493 113d cca2 52bc 324d 3cbd 04ff dbbb
000000a0: 0bea 723d 574a d0bc 87fa 01bd 1af0 183d
000000b0: 1a78 6b3c caf8 11bd e430 7dbd 4841 6abb
000000c0: b712 f93c 5b64 563d 654e cfbc d619 6b3d
000000d0: 169e 3d3d cd9e 823b ee33 873d e51b 2a3d
000000e0: 0501 2c3d 93ee 16bd 07bc 86bd 3ebe e33c
000000f0: bbae 593d 248f 66bd 7bc3 8b3c 8831 993c
00000100: d111 06bd eb60 c93c 110f 93bd 94fc 88bd
00000110: d6e1 f53c 6dbb d73a 5cf6 dbbc 1436 94bd
00000120: 9621 14bd c9e9 4ebd 2261 733d d9b3 30bd
00000130: d308 07bd 4238 fbbb 23ec 613d f5ea 30bc
00000140: d2a5 debc 420c 533d c8ee 80bc e756 31bd
00000150: 0699 e9bc 4676 403c 7e78 47bc 53c2 0c3d
00000160: f930 de3c 2f7d b43c 8595 59bd eb94 043d
00000170: b137 20bd 908c 27bd 7fd4 093c f18d 49bd
00000180: 311b bc3c 48f2 fb3c 09bf 643b 2498 813c
00000190: e0b5 503d 9bc2 7bbd c714 8d3c 130f adbc
000001a0: cf40 19bd 4c7c a3bc db24 f5bc 8049 8b3d
000001b0: b3ea 173c 9342 213d 949e 0b3d d130 92bd
000001c0: ebb3 53bd 8ff6 35bd 6ef6 e53c 5987 0c3d
000001d0: 453b 3c3d fc40 363d bac6 22bd c3d6 263d
000001e0: 2217 d8bc 8ef6 5fbd 047b e63c af39 813d
000001f0: 53d6 653d 9301 84bd 374a 7bbd dfac 923d
00000200: 2fc9 12bd 3e36 60bc 57ed cbbc fdbc 83bc
00000210: 346f 6cbd a1e8 72bb 12e2 e8bc e23c 67bd
00000220: 73f3 1e3c f0cb 8f3d 4db7 713b e889 d33b
00000230: 8f04 1dbc 67f9 08bd 04cf 5d3d f7a6 893c
00000240: b1fd b7bc 925c 783d c44d 4b3d 074e 67bd
00000250: 63fa 453c c7da 37bd bba8 e43b 035d 323d
00000260: 912b 8abc b58b 6dbd 303e fdbc 5823 903d
00000270: 5818 9dbc 159f 3a3d 2345 8ebd c67e a23d
00000280: fb5f 2cbd 4b13 22bd 3a99 b03c 92f4 98bd
00000290: 16db fdbc 15b8 34bc a562 953c cbdd b63c
000002a0: 7a6c 403c 1d67 5d3d 5c6e 3cbd f5d0 7fbd
000002b0: 17a5 8a3d 71ca adbc 2c59 6dbd 3ed8 b23c
000002c0: bb92 9a3d 4c0b e53b 731b d23b 42ce 0a3d
000002d0: 60b0 5c3d c4fd 8c3c 980d 6ebd 22d6 863c
000002e0: 2998 163b cb58 03bd fc9b 163c 8c7a 553d
000002f0: c26a 843d e8c6 6e3d 3815 77bd a142 babc
00000300: 3651 d5bc 3a94 a7bc 3222 90bd 2880 2ebd
00000310: baf5 563d 1856 9abd 47a9 84bc ec65 b63b
0.042234294 0.007599924 -0.058994647 -0.029212127 0.041200563 0.06229086 0.06923171 -0.011792714
0.055811085 0.009668327 0.02853702 -0.0053280066 -0.056686938 -0.042461753 -0.03287161 -0.05024114
-0.068121284 0.070611596 -0.05796065 -0.05586948 0.036745522 0.013728 -0.06849898 -0.060467515
-0.024586948 0.04570753 -0.04041657 0.0029394035 -0.022006795 -0.07207851 0.034561474 0.0076107737
0.0684216 -0.017076831 0.021971218 0.04706543 0.035540953 -0.012856197 -0.045972057 -0.00671375
0.059305232 -0.025426073 -0.031733062 0.037338354 0.014371896 -0.035637654 -0.061814204 -0.0035744477
0.030404432 0.0523418 -0.025305936 0.057397686 0.04629334 0.0039862157 0.06601702 0.04153051
0.04199316 -0.036848616 -0.06578832 0.027800675 0.05314515 -0.056288853 0.017060986 0.018700376
-0.032731835 0.024582347 -0.07180608 -0.066888005 0.030014914 0.0016459055 -0.026850872 -0.07236877
-0.036164843 -0.050515924 0.059418805 -0.043140266 -0.0329674 -0.0076666186 0.05515684 -0.010798206
-0.027178679 0.05152536 -0.01573886 -0.043295767 -0.02851535 0.011746949 -0.012174724 0.03436501
0.027122961 0.022032348 -0.05312111 0.03236858 -0.03911561 -0.040905535 0.008412479 -0.04920763
0.022962185 0.030755177 0.0034903905 0.015819617 0.0509547 -0.061464887 0.017221821 -0.021125352
-0.037415322 -0.01995673 -0.0299248 0.068011284 0.009272265 0.03937013 0.03408678 -0.07138217
-0.051685255 -0.04442459 0.028071608 0.034308765 0.04595496 0.044495568 -0.0397403 0.040732156
-0.026378218 -0.054678492 0.02813483 0.063098304 0.0561126 -0.06445613 -0.061350074 0.07161879
-0.035836395 -0.013684807 -0.024893446 -0.016081328 -0.05772324 -0.0037064927 -0.028428111 -0.056454547
0.0097015975 0.0702132 0.0036882937 0.0064556487 -0.009583606 -0.033440974 0.054152504 0.016803248
-0.022459837 0.060635157 0.04963471 -0.056470897 0.012083623 -0.044886377 0.006978122 0.043545734
-0.016866477 -0.057994563 -0.030913442 0.07037991 -0.019176647 0.04556187 -0.069467805 0.07934336
-0.04208372 -0.03956918 0.02155744 -0.07468523 -0.030988257 -0.011030217 0.018235514 0.022322556
0.011744613 0.054053415 -0.046003684 -0.062455136 0.0676977 -0.021214696 -0.05794637 0.021831628
0.07547518 0.006989872 0.0064119636 0.03388811 0.05387914 0.017210849 -0.058118433 0.016459528
0.0022978878 -0.0320671 0.009192463 0.052118823 0.06465675 0.05829516 -0.06032297 -0.02273685
-0.026039701 -0.020456422 -0.07037772 -0.042602688 0.052480437 -0.07535952 -0.016193999 0.0055663493
