Backgammon2/pub_stomper_repository/nn_pg_model.pt (torch_old, 466132 bytes, 6 tensors)

weight f4 [150, 464]
00000000: cfcb 153d a0ef a4bb 8ff9 1bbd fb9c 1a3d
00000010: 0077 9339 998e 1a3d ed97 cfbc 13cb 313d
00000020: e085 4ebc 20e8 0ebb 7418 5a3c 6e54 ba3c
00000030: 95c6 bebc 74b4 16bd 01c9 a2bc 3c9b cb3c
00000040: 471d 423d 5260 7a3b 9291 133d 0292 c63c
00000050: 5cbd 593d ff1b bebb 19b1 a73c f534 44bc
00000060: f5df ef3c a2c6 85bc bbcd af3b 9a05 19bd
00000070: 9bc5 45bc b3cb 04bd 1297 92bb e2e0 813b
00000080: dd05 cfbc f658 0fbd 20ea 713b 3d69 efbc
00000090: 58f9 bc3c ed74 133c 0503 003d fc84 47bc
000000a0: b1c2 72bc 4781 28bd 40d4 ac3c 1128 293c
000000b0: d7a1 43bc 1404 12bd 103d 113d 03e2 f8bc
000000c0: b1b8 dabc cb9e 9038 b547 35bc abba 293d
000000d0: 8c1d 973a f292 f8bc e1ac 273d 47ee e2bc
000000e0: 1916 f73c 3649 12bd a104 723c 6ec0 dc3c
000000f0: 0feb d5bb 9115 cabc 312b 033d e086 ccbb
00000100: d0a8 103d 7a6f dd3c ad5a 583c a450 1cbd
00000110: b8ad 66bc a93d 9ebc bed6 033d 1928 e4bb
00000120: da42 8039 df42 9abc 34ef 8d3c 8a56 5dbd
00000130: 20f0 f5bc c873 ebbc afec b33c 778b 2b3c
00000140: 5ef6 96bc a77d 68bc 3e2b cebb ddc6 5c3d
00000150: e6be f23c a0b5 843c a719 82bc b46b 823c
00000160: efca fabc cc3e 25bc 6b90 953c 974d 62bd
00000170: 7dfb 0bbd c9ff 62bc 4c65 a23c 3917 413c
00000180: 53b3 61bc 7393 183d 94a2 ffbc 93b7 95bc
00000190: ee71 693c b4d3 303c 0bb5 c53c bbe1 d3bb
000001a0: a105 08bc 0d5d 32bc c440 2f3d f818 013c
000001b0: 6ec5 593b c6f5 753c 0980 2a3c 0c71 533b
000001c0: 3848 e13c d637 ac3c dbde 1f3d 2958 dc3c
000001d0: 41d8 573d 334a 1e3d a102 003d 2b4e e1bc
000001e0: 71ea 2cbd 50e2 fa3c 7fa1 d93c a3a9 24bd
000001f0: 5058 66bb 31cc 81bc 586f e2bc 3b53 023d
00000200: fc8e 6c39 7a40 73bc ea64 07bd 7665 ffbc
00000210: c5d3 cfbc 023e 033d 1556 b33c 85b3 353b
00000220: 5905 bfbb 161a 4abc d042 e5ba ffd8 72bc
00000230: 93d4 41bd 42d2 243c f0f0 1b3d b564 d8bc
00000240: 798e 0f3a fee6 ec3c 6bac 1f3c 4d1b 593b
00000250: ae27 6ebb 4919 ddbc c8e3 cb3b 627e db3c
00000260: 5466 1d3b 01da ecbb 6a0d 663c eb15 b43c
00000270: 44e5 0ebd 7b1f 47bd 7dd6 fb3b 6fbf 98bc
00000280: 6667 73bc 030d 2c3d e34b 61bb 687e cabc
00000290: 6483 363a 0e42 2f3d c1b1 02bc 5fd3 1dbb
000002a0: 32a7 0bbc 2b8e d13c dc45 e7bc 5db8 3dbd
000002b0: 3d75 3abd e1fb 3ebd 3fd9 673c 1365 ef3c
000002c0: 16fd 153d d9b9 a6bc eb5a af3c 8a18 e3bb
000002d0: 5bcf 2dbd 2e54 1e3d 6767 b8bc b7d1 a43c
000002e0: ca8a 213d 7bfe fbbc d4ba adbc 0563 223d
000002f0: 5e76 8a3c c2e5 b3bc b2d5 34bd 93d2 1cbc
00000300: b572 1d3d da01 313d f1e3 3cbc 3b9e 993c
00000310: 1fb5 653c 9e12 af3c f603 973b 001c 143d
00000320: 18f6 863c 2026 14bd d49f 92bc 7216 063c
00000330: 24cf ce3b 834b 2a3c f1ee 68bc ed62 473c
00000340: a971 3f3c 56ff 0d3b 09c8 ca3c f0e4 523d
00000350: 37d1 83bb 3255 443d 5f40 a0bc b175 8b3c
00000360: 92bd 6c3a ca21 febc 15d0 29bd 22f0 cebc
00000370: 5721 50bd aa8b 71bc 4328 aa3c 608e b539
00000380: fd50 0cbd 48ce 7cbc 5c3a 7dbc 200b 063d
00000390: 796c 9ebc 7ad2 14bd 66de 85bc 52c2 523c
000003a0: ac5b 0a3d 216b 8c3c d322 193d 2f0b 853a
000003b0: 066b 27bc 0577 d73a 9c59 e7bc 4826 2d3c
000003c0: d575 803c 4416 1f3d 25a0 aabc c1bf 31ba
000003d0: a102 bdbb 4059 b2bb aa6a df3b 23c2 18bd
000003e0: 4582 b43c b872 8c3c 7ca1 36bd 40bc 473c
000003f0: c40f 37bd a71e 243d 8637 c73c 220d 4139
0.03657132 -0.0050334483 -0.038079794 0.037747364 0.00028126687 0.037733648 -0.025340999 0.043406557
-0.0126051605 -0.0021805838 0.013311494 0.022745337 -0.02328805 -0.036793187 -0.019871237 0.024854295
0.047391202 0.0038204384 0.0360275 0.024239544 0.053159103 -0.0058016772 0.020470189 -0.011975517
0.029281596 -0.016330067 0.005365101 -0.037358858 -0.012071039 -0.032420825 -0.0044735754 0.0039635757
-0.02527135 -0.03499695 0.003691323 -0.029224986 0.023068115 0.009000045 0.03125288 -0.012177702
-0.014816926 -0.041138913 0.021097302 0.010324494 -0.011940441 -0.03564842 0.035458624 -0.030381208
-0.026699396 6.8960326e-05 -0.01106446 0.041437786 0.0011529191 -0.030343506 0.040936355 -0.02770151
0.030161904 -0.03571435 0.014771611 0.026947226 -0.0065282653 -0.024668487 0.032023612 -0.0062416643
0.035317242 0.027030695 0.013205213 -0.038162842 -0.014079504 -0.019316511 0.032187216 -0.006962788
0.0002446387 -0.018830715 0.017325975 -0.05403761 -0.030021727 -0.028741732 0.021963445 0.010470263
-0.018428024 -0.014190114 -0.006291776 0.05390059 0.029632043 0.016199887 -0.015881373 0.015920497
-0.030614344 -0.010085773 0.01825734 -0.055249777 -0.034175385 -0.013854929 0.019823693 0.011785322
-0.013775664 0.037249994 -0.031205453 -0.018276012 0.014248354 0.010792661 0.02413418 -0.006466118
-0.008302123 -0.010886443 0.042786375 0.007879488 0.003322925 0.01501221 0.0104065025 0.0032263426
0.027500257 0.021022718 0.03903089 0.026897507 0.05269647 0.03864498 0.031252507 -0.027503094
-0.04221577 0.030625492 0.026566265 -0.04020084 -0.0035147853 -0.015844436 -0.027640983 0.031817656
0.0002255998 -0.014846915 -0.033055224 -0.03117631 -0.025369534 0.032041557 0.021891633 0.002772541
-0.005829495 -0.012335321 -0.0017491225 -0.014822244 -0.047321867 0.010059895 0.038071573 -0.026415208
0.0005476247 0.02891874 0.0097456975 0.0033127845 -0.003633957 -0.026989596 0.006222222 0.026793662
0.002401729 -0.0072281365 0.014041284 0.021983108 -0.034886613 -0.048614006 0.007685481 -0.01864597
-0.014856195 0.042004596 -0.0034377507 -0.024718478 0.0006962328 0.042787604 -0.00797695 -0.0024082286
-0.008523749 0.025580486 -0.028231554 -0.0463184 -0.045521963 -0.04662693 0.014150917 0.029223
0.036618315 -0.020352291 0.021405658 -0.0069304155 -0.042434078 0.0386545 -0.022510244 0.020119531
0.039439 -0.030760994 -0.02120725 0.039645214 0.016902145 -0.021960143 -0.04414911 -0.009571689
0.03843947 0.043214656 -0.011528955 0.018752208 0.014020233 0.021371182 0.0046086265 0.036159515
0.016474769 -0.03616917 -0.017898478 0.008184062 0.006311314 0.01039398 -0.014217124 0.012169582
0.011684814 0.0021667085 0.024753587 0.051487863 -0.004022743 0.04793281 -0.019561945 0.017023893
0.0009030934 -0.031021971 -0.041458208 -0.025260989 -0.050813045 -0.014742771 0.020771151 0.00034629088
-0.034256924 -0.015430041 -0.0154558085 0.032725453 -0.019338833 -0.03633354 -0.0163414 0.012863712
0.03377883 0.017140927 0.037386727 0.0010150428 -0.0102183875 0.0016438669 -0.028240971 0.010568209
0.015681187 0.038839594 -0.020828316 -0.0006780588 -0.0057681357 -0.0054427683 0.0068181353 -0.03729452
0.022034774 0.017144546 -0.044587597 0.012190878 -0.04469277 0.040068295 0.024318468 0.00018410807

bias f4 [150]
00000000: fb91 66bc c6ef 943c e80b 8cbd 81b6 4fbd
00000010: 4c61 2e3d 67a5 843c 5847 0abd 52fe afbc
00000020: 2d6b babc 64b7 44bc 0672 03bd f57c 0d3d
00000030: d624 003d 5965 34bd 7e3b 5dbc b7b5 03bd
00000040: 092b 4bbc 57e4 c2bb ae59 483d 456e 0dbc
00000050: 1ec9 adbc 3375 4ebd 87c1 66bc a187 5ebc
00000060: c9f0 c3bc 787a 5bbc 2778 4d3c d53c 413d
00000070: 97fc 6dbd 8ead b4bc 92d0 0a3c 10f5 ecbc
00000080: 89a7 bf3c f6be c13b ae60 8a3c e918 56bd
00000090: 5d6b 70bb a107 84bc 6499 a63b d7cf 733c
000000a0: a0ff ca3c 009c 183d 994c 11bd 5c8f 8c3d
000000b0: 1b98 5a3d 00db c9bb 8242 82bb 94c2 32bc
000000c0: b936 7f3d 230c 163d 4b08 96bc 2737 62bc
000000d0: 0aaa 4e3b 7747 14bb a9ba 673d 8f46 09bd
000000e0: 69f4 243c c746 333c 0b9c 52bd 9452 f43b
000000f0: 43a0 783c 21fc ef3c 6fc6 833d 13ce a9bc
00000100: a837 41bd c408 84bc 4e8f 493d af20 86bd
00000110: 9994 d9bc 5374 db3b 7fdb abbb 8eb6 383c
00000120: ed7c 11bd d674 4abd bdbe 60bc d372 8fbc
00000130: 6f31 853c 3ebd 993c 5087 583c b587 a63c
00000140: ba9c e1bc 2e36 4b3d 7fb5 91bc aa3b 813b
00000150: 826f c53c e0b9 2d3d 9011 db3c fbb1 153d
00000160: eecd 7e3c ef0b 893c af91 52bd 3413 763d
00000170: ab93 efbc 2aae a73c 3da1 08bd f2e1 2cbd
00000180: d30f f8bc 217b f73b 71e9 b8bc bcd7 583b
00000190: 90bb 53bc 266c 0fbb 4667 13bd fed8 dd3c
000001a0: 9ee4 143c 4635 863c e27e 0abc 7443 c4bb
000001b0: eb35 693d 9844 ee3c 0153 9b3c 0d6e 573d
000001c0: 1e44 2b3d 470d 5a3d d143 613d 658d c1bb
000001d0: fc73 d23b fd3a 57bb 0288 b9b8 e598 1fbd
000001e0: 6ea6 cc3c f56e 593c 0576 dfbc fe0f b73c
000001f0: 553d 963d c19e 8d3c 2ace 673d 3b4e f93b
00000200: 68f1 b2bc 8c30 7dbc 22b5 05bd 76e0 bc3c
00000210: 5f81 84bc 2ec9 5d3d 9477 8fbc d7d1 53bc
00000220: b5f3 1e3d 987a a9bc 95c7 dabc 8459 273b
00000230: d599 5dbc 48ee 98bb e30b c2bc ad70 9cb9
00000240: ec82 06bd 1336 f63b b817 c93c 1612 d9bc
00000250: 454b 123d e383 843c
-0.01407289 0.01818074 -0.068382084 -0.05071116 0.04257326 0.016192151 -0.033759445 -0.021483574
-0.022756184 -0.012006614 -0.032091163 0.034542996 0.03128513 -0.044041965 -0.013502954 -0.03215572
-0.012400397 -0.0059476304 0.04891365 -0.008632247 -0.021214064 -0.05040474 -0.014084226 -0.013582141
-0.023918526 -0.013395898 0.012540854 0.047177155 -0.058102217 -0.022055414 0.008472579 -0.028925449
0.023395317 0.005912657 0.016891804 -0.05226985 -0.0036685087 -0.016116919 0.0050842036 0.014881096
0.024780095 0.03725815 -0.03547344 0.06863281 0.053367715 -0.00616014 -0.0039752135 -0.010910649
0.062308047 0.03663267 -0.018314501 -0.013807095 0.0031534457 -0.0022625604 0.056574497 -0.033514556
0.010068038 0.010942168 -0.051418345 0.007456133 0.015174928 0.02929503 0.064343326 -0.020728147
-0.04717222 -0.016117461 0.04920893 -0.06549203 -0.026560115 0.0066972165 -0.005244672 0.011273993
-0.03551953 -0.04942783 -0.013717351 -0.017510807 0.016258923 0.018766996 0.013215855 0.020328382
-0.027540553 0.049612217 -0.01778674 0.00394388 0.024101023 0.042413592 0.026741773 0.03654669
0.015552027 0.016729323 -0.051408466 0.060076907 -0.029245218 0.02046879 -0.033356894 -0.042207666
-0.030280983 0.00755252 -0.022572251 0.0033087572 -0.012923136 -0.002188453 -0.03598716 0.027081009
0.00908771 0.016382825 -0.008453103 -0.0059894864 0.056936186 0.029085442 0.018960478 0.052595187
0.04181301 0.05323532 0.054996315 -0.005906748 0.006422518 -0.0032841556 -8.846821e-05 -0.03896417
0.024981704 0.013271083 -0.027277956 0.022346493 0.07335917 0.017287614 0.056593098 0.0076082028
-0.021843627 -0.015453469 -0.032643445 0.02305625 -0.01617497 0.054146938 -0.017513074 -0.012928448
0.038806636 -0.02068834 -0.026706496 0.0025535533 -0.013525446 -0.004667077 -0.023687309 -0.0002983859
-0.0328397 0.0075137704 0.024547443 -0.026497882 0.035716314 0.01617617

weight f4 [150, 150]
00000000: 5386 3dbd f70d 95bc 7b12 a8bd 1db9 863d
00000010: a508 9bbd 7a4c 823a 55fd 4cbc d76a 203d
00000020: 73a1 953d ad7d 983d 9eae e03b 0ad8 f5bc
00000030: 8eb6 45bc f74b 5fbd a243 77bd 5627 17bc
00000040: b505 a93b 12cb 313d 6a57 93b9 a485 663d
00000050: 8850 7ebc 7f01 9dbc f078 933d 8aa1 00bd
00000060: 345a 5bbc 19b5 92bd 0cfe 4fbd 8175 173c
00000070: 9bda 9b3d c8a7 9fbd a2e2 52bd 462d be3c
00000080: 480c 633c db95 8a3b 04c2 22bd 7ff9 943c
00000090: a209 91bc 8a36 96bd 9c5a 6fbd f2a2 563d
000000a0: 6d38 0b3d 9b03 953d e488 9a3d 83be afbc
000000b0: 1fc4 1cbd 5d5f 073d c0df 8b3d fae6 0ebc
000000c0: 6d1b 8dbd 3da4 dd3c 9cdd 0b3d c465 9b3d
000000d0: cf9e 333d 6c38 a0bd 45d2 033d d636 3ebd
000000e0: 0934 b23c 1282 ec3c 4f86 22bd 27a2 16bd
000000f0: 8d10 cdbc 79be d53c a7a5 9abc f75e 59ba
00000100: 002f 893c 3f14 863d db28 9f3d 8747 cc3a
00000110: fbb6 53bd 3821 d13c 279e c83c f3c9 8fbc
00000120: cf7d 90bd b8c1 863d d06b 273d da72 b2bc
00000130: a4b8 42b8 163f 41bd cf8b 3e3d ad4e 7b3d
00000140: e1c6 ddbc f9d1 45bb fe84 a7bc 7a11 363c
00000150: 5320 07bd fd5f 94bc a906 373d 0bed 10bd
00000160: dc56 bebc 08d1 77bd cadb 473d a57a 093b
00000170: d97b f9b8 6a9a 9e3d 786f 003c 1160 2a3d
00000180: cfe5 903c eb63 b53c 946d 933c 3a44 5a3d
00000190: a20b 18bd b692 61bd a890 87bc 8d57 943d
000001a0: f64b 463d 5041 80bd fbb9 24bc c6ac 883d
000001b0: 79f3 a83d 0ea1 d33c 455f 2b3d 5472 f93c
000001c0: befd a2bd dc63 90bd 62d7 32bd 06c7 9f3d
000001d0: f31d 5abc fd3a abbc 85b2 0a3b aa9e 32bc
000001e0: 66f9 463d 7b71 7ebd e195 89bb 9d4c 31bd
000001f0: 69f8 2cba aa53 31bd 2d7f 863d e83d 83bd
00000200: b300 943d 7e70 c03c 6f0c 023c 6cce f8bc
00000210: c377 a7bd f435 3d3d eda2 4e3d 9a21 00bc
00000220: e2b4 e03c 85d2 87bd 16a2 56bd 920a cf3c
00000230: 957b 7d3c 3533 093d 70a5 83bd 9904 213d
00000240: e10f 6cbd 8cd0 5e3d c9aa 8abc 21c9 2c3d
00000250: 8340 913c df85 8dbc ff2f 983d 2e83 093d
00000260: 59e2 01bc 2094 293d 5ac5 5a3d 3e31 14bd
00000270: da94 453b c38c d2bc bf1d c53c fdd9 d4bc
00000280: e08c eebc 293e 623d 2faa 24bc 1fa2 ffbb
00000290: 6c21 c0bb 8394 60bd 0afb 4bbd afcf 203c
000002a0: d261 a3bc a804 0bbd b3f4 ffbc 777c 163d
000002b0: 87a3 c13c 9194 5f3c 07ab 9fbd d74d 8cbc
000002c0: 54af 283c 37bd 88bd 968e 3fbd 5961 0dbc
000002d0: 49e8 55bd 8672 6abd e2c2 0bbd 86c9 ce3c
000002e0: d8c9 50bd 20c1 36bd c2ce c1bc a002 09bd
000002f0: 4615 8c3d 1d5c e4bc b0b2 5fbc b9c8 7d3d
00000300: 4da3 2cbd acce 0abd 2cad 223d d08a 613c
00000310: 3b4a 1ebd ff0c 11bc 4e98 b13d f7fd 2fbd
00000320: 109a 2d3d b97f e63c 0091 263d 0f0e 24bc
00000330: 826e 16bc 4200 c9bc c3a3 b1bc 63ab 4f3d
00000340: c265 6ebd a4d9 20bd 9716 3c3c 83ed 94bd
00000350: 3f78 a63b b325 98bc 7fb6 833d d8f0 24bd
00000360: 3d3c 2c3d b41c a5bc 9898 86bc 9090 dabc
00000370: 1773 81bd 3c31 08bd 8411 d13c a4e7 013d
00000380: ece8 083d c6a7 203d b30d 823d 34c7 243d
00000390: 5384 6cbd 3a1d edbc f8f0 07bd 739b 9a3d
000003a0: 1990 76bd 6828 173d 76b5 583d 6436 aa3b
000003b0: e930 4b3d 3930 903d bf4c 923d da64 133b
000003c0: dd0e bb3b 0b03 59bb 93a2 85bd fc62 573d
000003d0: 10f3 86bd 0cb6 513d bb8d c33c 10a0 d63c
000003e0: d04f b8bb 7409 273d e383 32bc 4666 6fbd
000003f0: 4c50 513b f669 0cbd 3713 20bd 67ed d43c
-0.04627068 -0.018195136 -0.0820665 0.06578276 -0.07570008 0.0009941005 -0.012511571 0.03916439
0.073061846 0.07445846 0.0068567535 -0.030010242 -0.01206745 -0.054515805 -0.060367234 -0.009225687
0.005158151 0.043406554 -0.00028103153 0.056279793 -0.01552213 -0.019165752 0.07200801 -0.031404056
-0.013388205 -0.07163448 -0.050779387 0.009244324 0.07610055 -0.077956736 -0.051485665 0.023214947
0.013857909 0.00422929 -0.03973581 0.018185375 -0.017704789 -0.07334621 -0.05843602 0.05240149
0.03398936 0.07276078 0.07545641 -0.021453148 -0.038272973 0.03304993 0.06829786 -0.008722061
-0.06889997 0.027055854 0.03414689 0.0758777 0.043852624 -0.078232616 0.03218295 -0.046439014
0.021753328 0.028870616 -0.039678868 -0.036775734 -0.025032306 0.026091801 -0.018877817 -0.0008292044
0.016746044 0.065468304 0.077714644 0.0015585282 -0.051688176 0.025528535 0.024489475 -0.017552352
-0.07055246 0.06579918 0.040874302 -0.021783281 -4.6425164e-05 -0.047179304 0.04652005 0.061354328
-0.027072372 -0.0030184968 -0.020449158 0.011112565 -0.03298981 -0.018112177 0.044684086 -0.03538231
-0.023234777 -0.060502082 0.04879359 0.0020977643 -0.00011896314 0.07744296 0.007839076 0.041595522
0.017687706 0.022142371 0.017996587 0.053287722 -0.03712047 -0.055071555 -0.01654847 0.072432615
0.048412286 -0.06262457 -0.010054107 0.06673579 0.08249564 0.025833633 0.041838903 0.030450024
-0.07958554 -0.07050297 -0.043662436 0.078016326 -0.0133128045 -0.020902151 0.0021163535 -0.010902086
0.04857769 -0.062119942 -0.004198775 -0.043285955 -0.00065982953 -0.04329268 0.065672256 -0.06408292
0.07226696 0.02349114 0.007937535 -0.030371867 -0.081771396 0.04619403 0.050448347 -0.007820511
0.027430002 -0.0663195 -0.05240067 0.025273595 0.015471359 0.0334961 -0.06428039 0.039311025
-0.05763233 0.054398105 -0.01692714 0.042184 0.017730957 -0.017275749 0.074310295 0.03357237
-0.007927501 0.04140103 0.053410865 -0.036179774 0.0030148537 -0.025701886 0.024062036 -0.025982851
-0.029119909 0.05523506 -0.010050341 -0.0078013088 -0.005863359 -0.05482913 -0.049799956 0.009815141
-0.019944105 -0.033939987 -0.031244611 0.036739793 0.023637546 0.013646261 -0.07796293 -0.01712696
0.010295708 -0.06676715 -0.04676684 -0.0086291665 -0.052223478 -0.057238124 -0.0341214 0.025242578
-0.050973743 -0.044617772 -0.02365816 -0.03344977 0.06839995 -0.027875954 -0.013653442 0.061959002
-0.042147923 -0.033888504 0.03971593 0.013766006 -0.03864501 -0.008853196 0.08671628 -0.04296681
0.042383254 0.028137075 0.040665627 -0.010013117 -0.009181621 -0.024536256 -0.021684533 0.050700556
-0.058202513 -0.03927006 0.011479995 -0.07271864 0.0050802524 -0.018572664 0.06431293 -0.04026875
0.042049635 -0.020155288 -0.016430184 -0.02668026 -0.0632078 -0.03325008 0.025521047 0.03171505
0.033425257 0.0392225 0.06350269 0.040229037 -0.05774338 -0.0289446 -0.03318879 0.07549181
-0.060196016 0.03690377 0.05290743 0.005194472 0.04960719 0.07040448 0.071435444 0.0022490532
0.005708559 -0.0033113386 -0.06525149 0.052584633 -0.06589329 0.051199004 0.023871293 0.02619937
-0.0056247488 0.0407805 -0.010895702 -0.058447145 0.003193873 -0.03428074 -0.039080825 0.025992109

bias f4 [150]
00000000: e1b7 81bd 591b 3bbd 8485 50bb 91dc 023c
00000010: 60b4 a6bc 6a76 81bd aa3b 9f3d 8a6f 58bd
00000020: 95f9 e4bc c95e 473c ef51 533d 4750 bfbc
00000030: 0705 193c d573 51bd 3cd3 753d 2163 793d
00000040: ae52 b73b d903 0c3d bcaf 9f3d 0b1f 81bd
00000050: 1077 993c ae8d 573d 3995 e13c b0fc 21bc
00000060: 38dc 013c 9082 543d 69c8 323d ee0a 73bd
00000070: 9656 7c3d bca2 733d b0a1 9dbb 9de2 b03d
00000080: a1e4 013d e67c 953d a083 883d c041 b2bc
00000090: f7be bd3c fe12 2cbd 6901 df3c 6229 733d
000000a0: 84f5 33bd 7a0f 92bd 39e9 823d cf3c a43d
000000b0: fe5d c3bc 48a0 02bd 8226 a23c 9ffd 04bd
000000c0: 2e45 1bbd f92a f43c c425 a43d b6d8 123b
000000d0: e63d bcbc c56f 103a 3787 523d 7755 33bd
000000e0: 910a 6ebc 3b52 353d 848c 743c 773d 15bd
000000f0: e91b fe3c b6e0 9bbd c6d0 57bd a6c4 61bc
00000100: 5aff 373c 4ad0 5fbd 74a6 4abd 7373 8e3d
00000110: 9a61 b13d c1ac 3d3d deda 1abd ce51 c1bc
00000120: c321 063d 33a1 dfbc 484d f13b 4989 acbc
00000130: f14d 193d 0218 a53b e118 233d b13a 2e3d
00000140: a6e1 723d 36c5 473d 8480 50bd 5f55 68bd
00000150: 5fac 43bc 3bb0 103d 780c 7d3d 1b94 d83c
00000160: 50a3 413c c38a a33c 364b d0bc 0e50 ed3c
00000170: 532c 4cbd cf90 b8bb a4ae 61bd f354 9a3d
00000180: c2fe 28bd 4282 443c 2754 9e3d 68cf 863c
00000190: 6a1d 963d cee4 9bbd a247 91bb 6761 063d
000001a0: f831 f83c 07f2 2d3c 85d4 89bc f1e5 d33c
000001b0: a0a1 51bd 4822 a83d 4010 cbbd 0860 08bd
000001c0: 883f b1bd fa30 4abd 26d6 473d cc0d 20bd
000001d0: d8a0 5b3c a22c 9cbd b8e6 81bd 5767 963d
000001e0: 53f1 8cbd 1fbe df3c 44a4 02bd 2dc5 303d
000001f0: 8090 713c 3d29 77bc 355f 953d c2fb a93d
00000200: 60f9 7ebc 29d4 233d ae23 a63c 7b98 babd
00000210: 97b0 8dba 3d5b 3cbd ca59 c4bc fa78 6fbd
00000220: a963 3bbd f034 143b 62b5 2abd a3f6 3b3d
00000230: e1ab 8cbd c848 4d3d 8e17 a43b 601f ef3c
00000240: 3ff9 01bd 300e 633d 34d1 7c3d a0a2 81bd
00000250: 4ad4 dabc 732c 8d3d
-0.063339 -0.045680378 -0.0031817863 0.007987157 -0.020349681 -0.06321414 0.07775052 -0.052840747
-0.027951041 0.012168595 0.05159181 -0.023353709 0.0093395775 -0.051135857 0.060015902 0.060885552
0.005594573 0.034183357 0.077971905 -0.06304749 0.018733531 0.05262535 0.027536975 -0.009886906
0.007926039 0.051882327 0.043648157 -0.059336595 0.061606012 0.059481367 -0.0048105344 0.08636973
0.03171218 0.07299213 0.066657305 -0.021759868 0.023162348 -0.0420103 0.027222352 0.059365638
-0.043935314 -0.07131858 0.0639214 0.08019411 -0.02384853 -0.031891137 0.019793753 -0.032468434
-0.03790777 0.029805647 0.08015016 0.0022407002 -0.022978734 0.0005509819 0.051398482 -0.043782678
-0.014528886 0.044267874 0.01492608 -0.03643557 0.031019168 -0.076112196 -0.052689336 -0.013779795
0.011230314 -0.054642 -0.04947515 0.06955614 0.08661194 0.04630733 -0.037806384 -0.023598578
0.03274704 -0.027298545 0.007363949 -0.021061556 0.037427846 0.0050382623 0.03981865 0.04253644
0.059297226 0.04877206 -0.050903812 -0.05672204 -0.011942952 0.035324316 0.06177947 0.02643781
0.011818722 0.019963628 -0.025426488 0.028968837 -0.04984696 -0.005632497 -0.05509819 0.07535734
-0.04125858 0.0119939465 0.077308945 0.01645632 0.07329829 -0.076120004 -0.004433588 0.032807734
0.030297264 0.010616786 -0.01682497 0.02586648 -0.05117953 0.08209664 -0.09915209 -0.033294708
-0.08654696 -0.049363114 0.048788212 -0.039075658 0.013405047 -0.076257005 -0.06342834 0.07343929
-0.068819664 0.027312336 -0.031894937 0.04315679 0.014743924 -0.015085516 0.0729355 0.08299972
-0.015562385 0.039997254 0.020280685 -0.091111146 -0.0010810074 -0.04598545 -0.023968596 -0.05846498
-0.04574934 0.002261456 -0.041676886 0.045889508 -0.06868721 0.050118238 0.0050076908 0.029189765
-0.03173184 0.055433452 0.06172295 -0.063298464 -0.026712555 0.06893244

weight f4 [150, 150]
00000000: e787 0c3d 4a3f 75bd ea4a aa3b ac03 3c3d
00000010: 5aed b2b9 3519 563c bdf6 30bb 4886 06bc
00000020: c3df a13d e197 a23c d2a0 93bd c8cf 8e3d
00000030: 669c 173d a398 143d e2ab c63c 959a 7cbd
00000040: 727c 3e3d fffd 11bd c440 bfbc 1897 12bd
00000050: 13e6 04bd ce4c 443d cfb3 4a3d c473 4fbd
00000060: 3c3c 9c3d 2e90 b53b 41fe 1dbc 1aa4 98bd
00000070: 5e2b da3b 681a 533d 0d14 0bbd 9ed1 a93d
00000080: 4ce4 743c 9981 8bbd 31b4 953c 1863 0fbc
00000090: 27f4 da3c 43fb 43bd a36d 963d a73a 183d
000000a0: 6b8c 783c d41c f23c bda2 803d 581d 99bd
000000b0: 3055 8c3d e430 993d dafb 97bd 25d3 5ebd
000000c0: 1f8e 51bd 9bb9 9c3d 1a64 a73d c7fc b23b
000000d0: ee8b 3dbd e9d9 5dbd b285 5dbd 86c8 08bd
000000e0: 8a00 353b d2bc 453d dab2 673d 07ea 3dbc
000000f0: 797d 903d 0ded d7bc a833 7bbd 1386 6a3d
00000100: dcf0 44bd 8219 453d be18 09bc c33c f33c
00000110: 4163 8b3d 1db3 813d 685d 0fbd 4a07 10bd
00000120: 97d9 843d b2bd 89bd 35ad 1b3c dd9d 753a
00000130: 82f1 86bd d3bf acbd 65cd 1dbd 83f1 073d
00000140: 8039 54bc a725 69bc 4354 79bb 17bb dabc
00000150: f0a3 86bc 3c93 1dbd f728 163d 8cd4 733c
00000160: c4c3 813d 63d3 5fbd 8a62 913d 8a6c b33b
00000170: 6423 a8bd c7fb d63c 5054 aabc c384 163d
00000180: 86c7 08bd 3e9f a73c 0ff2 83bd 1cfc 973d
00000190: a84d ac3c 33f1 aabd f70b 6abd 631e 93bd
000001a0: ebcf 3c3d 5c2c eebb 8b0d 9abd bfc3 933d
000001b0: 59e5 7f3d 3088 81bd 5a75 9638 f3d2 86bc
000001c0: b17b 973d 5110 80bd b84f 603c 8bd1 123d
000001d0: 2647 e2bc c30c 613d ed9f 313d 34a8 b03c
000001e0: 1ce6 163c 8d78 5abd 9bf7 85bd bfca e5bb
000001f0: b6ec 21bd 6033 363d 8fe5 8d3d f064 643d
00000200: d81b 9cbd ca6b e6bb ec75 eb3c aed2 6abd
00000210: 65e6 40bd f28c 49bb 8745 a03d 2eab a4bc
00000220: 7bb2 773d 9650 053d e423 763c 40a2 c03c
00000230: 35da 4d3d e771 9b3c b463 683d cc34 35bd
00000240: ffd3 96bb 817f fd3c 545c 9a3b 58a5 39bd
00000250: 208e 03bd 0ed4 b9bb bb8e 2e3c 7878 b93b
00000260: 0d10 8639 ed85 a1bd eff2 95bc 6742 48bd
00000270: 0618 76bc c6ac 443d 4f30 863d 47ae 6e3d
00000280: d3ed 3a3d 296b 463d 9d34 58bd 3b4d 913d
00000290: 2cf7 4c3c 3bcc 75bd 5c04 c3bc 4828 26bd
000002a0: c38d c53c 6786 a63d cdc8 923d 25ae 113d
000002b0: 2ae6 2dbd da12 65bd 68e0 993d fc04 86bd
000002c0: 37d0 37bd 84f4 973d 10db f33c 9f62 ddbc
000002d0: b503 463c ddda 4bbd bbc3 2dbd bdab 77bd
000002e0: f928 52bd cb35 90ba 75ac 033d a1a1 85bd
000002f0: fa47 2bbd c629 4bbd ce07 873d 9ab1 27bd
00000300: 3596 7cbd 8f68 143d 70d0 5abd 6cfb 90bd
00000310: f10e 893d 54c3 a03d ebe3 363d 8fd2 ebbc
00000320: a099 463c 4092 a13c 6e2c 38bd 8850 aa3b
00000330: 3c0c 34bd cd38 15bd 4d75 98bd 0bed 2c3b
00000340: d096 ab3c c77d 303d 07b2 45bd 5b57 18bc
00000350: bcc0 e0bc d95a a03d 23fc 61bd ccdc 7dbd
00000360: 5ab5 563c 1980 79bb 7375 963d ef38 a7bc
00000370: b62f 5d3d a5e9 9cbd a059 75bd 4b98 543d
00000380: cc29 5d3c 4490 253d 3060 fb3c 50a9 52bd
00000390: 7dcf 223d 2c07 573d 9a31 463c eb64 913d
000003a0: d47b dd3c 46e0 96bb b960 873d 094a 3bbd
000003b0: dc8a d33c b9ed 963c c4a1 8b3d 9c45 e63c
000003c0: ba30 863d 6321 8f3d 2358 733d a8af b33c
000003d0: 019c 3f3d 7a4c 863d 39de 333b 103d 95bd
000003e0: 0907 4d3d a4e3 62bd 4f7e 09bd b0a0 a5bd
000003f0: 7f46 66bd 534a c13c 11cf 6f3d c59e 653d
0.034309294 -0.05987481 0.0051969187 0.04590194 -0.00034127646 0.013067533 -0.0027002536 -0.008210726
0.07904007 0.019847812 -0.072084084 0.06973225 0.037014388 0.03627838 0.024251882 -0.06167086
0.0465054 -0.03564262 -0.023346312 -0.035788625 -0.03244598 0.04792481 0.049487885 -0.050647512
0.07628676 0.005540869 -0.009643138 -0.07453175 0.006658002 0.051538855 -0.03395467 0.082919344
0.014947008 -0.06811828 0.018274399 -0.008751653 0.026727749 -0.047847044 0.0734513 0.03716531
0.015170197 0.029554762 0.0628104 -0.074763 0.06852186 0.07480028 -0.07421084 -0.054400582
-0.051160928 0.07652589 0.0817339 0.0054622623 -0.046276025 -0.054162893 -0.05408258 -0.03339436
0.002761873 0.048275776 0.05656705 -0.011591441 0.07055182 -0.026358152 -0.06132856 0.05725677
-0.048081264 0.04812003 -0.008367715 0.02969206 0.068060406 0.06332991 -0.03500119 -0.0351632
0.064868145 -0.06725635 0.009501745 0.0009369532 -0.06589033 -0.08435025 -0.038525958 0.033189308
-0.012953162 -0.014230168 -0.0038044609 -0.02670054 -0.016435593 -0.03847049 0.03666016 0.014882218
0.063361675 -0.054644953 0.07098873 0.0054755853 -0.08209875 0.026243104 -0.020792156 0.036747705
-0.033393405 0.020461675 -0.064426534 0.07421133 0.021033123 -0.08346786 -0.057140317 -0.0718353
0.046096724 -0.0072684716 -0.07522114 0.0721507 0.062474582 -0.06324804 7.174416e-05 -0.01645801
0.07396639 -0.06253112 0.013690881 0.035844367 -0.027621817 0.05494381 0.043365408 0.02156458
0.009210136 -0.053337622 -0.065413676 -0.0070126946 -0.039532386 0.04448259 0.069285505 0.055760324
-0.07622498 -0.0070318924 0.028742753 -0.057329826 -0.04709472 -0.0030754176 0.07825761 -0.020101156
0.060472947 0.032547556 0.015023205 0.023514867 0.050256927 0.018975211 0.05673571 -0.044239804
-0.0046029086 0.030944588 0.0047107134 -0.0453237 -0.032117963 -0.005671031 0.010654147 0.005660113
0.0002557043 -0.078868724 -0.018304316 -0.04889145 -0.015020376 0.048016332 0.06552183 0.058271673
0.045636963 0.04844204 -0.05278455 0.07094809 0.012510102 -0.060009222 -0.02380579 -0.04056576
0.024115449 0.08131104 0.07167206 0.035566468 -0.04245583 -0.05592618 0.07513505 -0.065439194
-0.044876304 0.074196845 0.029767543 -0.027024565 0.012085845 -0.04976927 -0.04242299 -0.060466517
-0.051308606 -0.001100236 0.03214689 -0.06524969 -0.04181669 -0.049600385 0.065932855 -0.04094086
-0.061666686 0.036232527 -0.053421438 -0.07079205 0.06692303 0.07849756 0.044650953 -0.028786926
0.012121588 0.019723058 -0.044964246 0.0051975884 -0.04395698 -0.036431123 -0.07444248 0.0026386406
0.020945936 0.0430887 -0.048265483 -0.009298171 -0.027435653 0.07829828 -0.055172097 -0.061978146
0.013104761 -0.0038070737 0.073466204 -0.02041289 0.05400058 -0.07661752 -0.059899926 0.05190305
0.013498735 0.040420786 0.030685514 -0.051431 0.039748657 0.052497074 0.012096787 0.07099327
0.027036585 -0.004604372 0.06610245 -0.045724902 0.02582305 0.018423902 0.06817964 0.028109364
0.065522626 0.0698879 0.059410226 0.021934345 0.046779636 0.065575555 0.0027445687 -0.072870374
0.050055537 -0.055392876 -0.033567723 -0.08087289 -0.056219574 0.02359501 0.058547083 0.056059618

bias f4 [150]
00000000: 1176 953d 6718 2fbd 1b18 18bd 5c0d 82bd
00000010: 5733 513d b27f 21bc 5ce3 57ba c8ee 3bbc
00000020: 1467 86b9 46c3 85bc b6cf 00bc 4f5f 88bd
00000030: 67da cabb 695f 383d 9a4a 8fbd 202f 5f3c
00000040: b7c3 bd3d 2710 aa3d 6520 bd39 7018 69bd
00000050: 67df 3fbd bd53 4e3d 9e42 36bd 569f 893c
00000060: ed51 3c3d 6e92 203d 1513 b8bd f182 62bc
00000070: 514c 243d 12f4 903c 6ed0 31bd 28a6 2b3d
00000080: a091 8ebd 66aa 6f3d ea02 a7bc 97a9 12bd
00000090: 78fe 5cbd becd 773d 2c79 ddbc 960f 7cbd
000000a0: c95d 283d 55fd 34bb 4869 3abd 0db8 873d
000000b0: 93d7 f23c 794e 94bd 09db 04bd a1ae 27bd
000000c0: 0aa3 883c 9916 40bc bb71 82bd cd11 9c3d
000000d0: 2547 583d f492 163d 3da3 98bc ca8d 873c
000000e0: 0158 e7bb b1e7 7e3d 715e 2fbd d218 503d
000000f0: 104b 9bbd 7733 67bd ba9d 203d 7c31 8cbb
00000100: b9b1 133d 3d21 a13c 21b4 73bc 8b52 9f3d
00000110: fdc0 7d3c eaba 543d 37bc 13bd c505 a7bb
00000120: 5ff4 2ebd 2c67 e4bb d2b6 2f3d f982 9dba
00000130: 1229 26bc 9cc5 e3ba 5bcd a43b 0725 7f3c
00000140: 2329 173d be22 babd 0ebf 05bd 4465 193d
00000150: 861f 1c3d ff64 3d3d 0ee4 15bd dab5 953c
00000160: b0f4 89bd d845 d03c 0ec1 063d b968 87bd
00000170: 17d6 533d daf5 803d 1fb3 b3bc d755 00bd
00000180: 2749 a5bd 4f5f 5d3d 604e 353d 1604 953d
00000190: 9df6 aa3d 3cc0 21bd f6ce 24bd fc90 9bbc
000001a0: f0c6 513d 754f e0bb 1927 cabc 34db df3c
000001b0: da6d 453c 3c62 71bc 5a77 7c3d a712 afbd
000001c0: c674 b6bc d1b9 1fbd a521 dd3c bd10 4fbd
000001d0: 0d11 77bd 427f abbd 51d5 12bd a3cb d2bc
000001e0: 3168 803c 2198 bf3b 42db 993d fda7 4cbc
000001f0: 813b 8fbc 9507 f0bb 6ccf 21bd 139b 2d3d
00000200: 04e5 8fbb eb28 95bb 0ce5 9b3d 2812 e7bc
00000210: 1fcb fbbb 5e46 ffbc 6d30 0b3d e043 27bd
00000220: 0d34 c93c ce44 9cbd 10d5 513a d904 bd3c
00000230: caa1 eebc 1a31 ff3c ec01 743c 4cb7 e1bc
00000240: 8356 9d3d 6361 7a3d b657 0cbd d057 b2bd
00000250: c100 83bc 20a7 4a3c
0.0729791 -0.04274788 -0.037132364 -0.06350204 0.051074352 -0.009857105 -0.00082354783 -0.011470504
-0.0002563527 -0.016328465 -0.007862022 -0.06658804 -0.0061905864 0.045012865 -0.06996651 0.013622075
0.09265845 0.08303862 0.00036073025 -0.05690807 -0.046843912 0.050372828 -0.044497125 0.01679961
0.045976568 0.039202146 -0.089880146 -0.013825164 0.040111843 0.017694507 -0.043411665 0.041906506
-0.069613695 0.058512114 -0.020387132 -0.035806265 -0.053953618 0.060498945 -0.027035318 -0.0615383
0.041105065 -0.0027616818 -0.04551056 0.06626902 0.02964381 -0.0724153 -0.03243545 -0.040938023
0.016679306 -0.011724138 -0.063693486 0.07620583 0.052802224 0.03676124 -0.018632526 0.016547102
-0.0070600514 0.062232677 -0.042814676 0.05080492 -0.075826764 -0.056445565 0.03921292 -0.00427836
0.03605816 0.01966917 -0.014874489 0.07779416 0.0154879065 0.051936068 -0.036068168 -0.0050971233
-0.04271352 -0.006970307 0.04289896 -0.0012017182 -0.010141628 -0.0017377618 0.005029363 0.015572793
0.036904465 -0.09088658 -0.032652907 0.03745009 0.038116 0.046238896 -0.036594443 0.01827519
-0.067361236 0.02542393 0.032898955 -0.06611771 0.051717844 0.062968925 -0.021935998 -0.031331863
-0.08070593 0.05404597 0.044264197 0.0727617 0.08347819 -0.03948997 -0.040236436 -0.018990032
0.051215112 -0.0068454095 -0.024676846 0.027326204 0.012050116 -0.014732894 0.06163726 -0.085484795
-0.022272479 -0.038995568 0.026993582 -0.050553072 -0.060318995 -0.08373882 -0.035847966 -0.025731867
0.015674682 0.0058469926 0.07512523 -0.012491223 -0.017484428 -0.0073251226 -0.039504454 0.04238422
-0.0043913145 -0.004551997 0.076120466 -0.0282069 -0.007684126 -0.031161483 0.03398173 -0.040836215
0.024560953 -0.07630311 0.0008004466 0.0230736 -0.029129881 0.031151343 0.014893036 -0.027553223
0.076825164 0.06112803 -0.034263335 -0.08708155 -0.01599157 0.012368947
