Backgammon2/pub_stomper_repository/nn_pg_pgmodel.pt (torch_old, 66468 bytes, 3 tensors)

weight f4 [100, 150]
00000000: 01a4 2e3e 1a30 76be d4aa 2e3e 141f f6bd
00000010: 8398 88be 31ee 1cbc 039c bf3d bfec 7f3e
00000020: a62b 213e 91df 863e 123d 5b3e 025c 77be
00000030: 801d bf3a 3d14 86be b815 233e 723a eb3e
00000040: 6917 53be 629a a4bd 029e 1cbf bfe4 d93d
00000050: 0b64 873d 7bda 8c3d 6c2c 4fbd d991 9c3e
00000060: ebaa afbd 2e8d aabd 61a4 e8bd ba6f e3bd
00000070: 7711 0dbd 2c6e 3c3d c75c a2be 026d 073d
00000080: 25cd 9d3d 4157 293e 8a0d 05bb 6608 e9bc
00000090: 1ad6 5fbe 3c37 413c 71e7 04be f34f 8abe
000000a0: 31e0 a3be 09b7 203c 303d 32bd 7074 5e3e
000000b0: 94e5 b23a f939 8bbe 30a5 243d 0f08 9abe
000000c0: ca49 f63e c95e 0cbe 4b98 25be 3107 463e
000000d0: 4c3a b73e bba3 3d3e 18f3 f53c 809e 293d
000000e0: d050 0b3b b057 713e 6ca0 9c3d fb70 c23d
000000f0: ffa9 8a3d 83f5 44be 0f7b 5bbe 8ade 663e
00000100: 165c 2bbc c086 0b3f 99d3 833c cf5e 68be
00000110: 7aa5 dabc c4a2 33be bcc5 b63e 5210 f0bd
00000120: 34fb 7a3e 4b4a cd3e be1e e73d 389c 91bd
00000130: 4e79 7d3d 964c 8c3e e3aa 693e dc0f a13c
00000140: 57b3 753e 5a38 d13c 61a7 9dbe 3a57 cbbd
00000150: 40a1 b9be 85cc b3bd 8194 b43c 0151 23be
00000160: d9ad 72be bcba 803d 788a 213e 2d4e 0d3e
00000170: 6780 debd b2ff 313e 498a 4f3b a19e 753e
00000180: b1ad 8abd 2dc0 a2bd 53a7 26be ed31 9bbe
00000190: fd57 92bd 967b 3f3e 6b65 edbd 549e 033d
000001a0: e4a5 35bc 1812 653e ef66 89be c70e 9b3e
000001b0: 4d67 8bbe 00ab f3bd 1294 8d3e def2 d73d
000001c0: e532 b5bb a6e6 593c 568b 0a3c 5229 cdbd
000001d0: eba2 c43e 3280 88bd eae3 89be ca6a 1ebd
000001e0: d4ad a83e e0cd e3be 1acc 37bd a00a e6be
000001f0: b27b 123e b2b8 85be 6179 44be 349f 78be
00000200: 2ea8 92b9 2585 0abe dfc1 42be 4aff da3d
00000210: 3f11 e33c 415d 073e a681 18be b8cc 1c3e
00000220: ab6c 1d3e c782 88bc 11e1 d3bc fb94 993e
00000230: 2946 063e 05fb cc3d 661d 003e 428a 393d
00000240: 2919 98bd d4bd ba3d 18ce 853e ee6d d63d
00000250: 9bdc 57be e0b3 ff3b 1474 703e acb5 c1be
00000260: 0e41 aa3e 6850 86be a670 febe f6ce ebbb
00000270: bd1a 043e 066f b73e 938d 683e bba3 d83e
00000280: dbb7 bf3e d664 c1be 5250 283c 584e f5be
00000290: c452 4a3e 5cea 103f 2461 11bf 0164 58bd
000002a0: d41d 82bf 7539 1a3e 02c2 673e c73c f13d
000002b0: 3539 74bd cd93 d23e 020b 85bd 1411 38be
000002c0: db39 25be 3369 40be c508 8c3d 1055 8aba
000002d0: a2a5 17bf 3b25 e63c af3e 813e 52aa 8d3e
000002e0: 2d83 963d ae8e 6d3b 794d a5be 8e3b 033e
000002f0: fd27 15be 96a7 aebe fbf6 15bf 9803 7bbc
00000300: df52 d33c 130a c83e 3812 243e 67e0 dfbe
00000310: fca7 4d3c 6869 03bf 3a65 063f 672f 61be
00000320: 6d9a 86be 46b0 813e 239c e23e 72dc ef3e
00000330: d167 8f3d 994c 133e ea7a bebc a4a4 0f3f
00000340: fc9b 17bc 24bb 123d 428c 3c3e 6b3f 29be
00000350: 1e18 adbe cf73 843e 2027 23bd 870d 463f
00000360: 674e a1bd 9083 bbbe 396d 653d 5088 7abe
00000370: 2f49 c03e bf44 1cbd 56e5 0c3f 74a7 073f
00000380: 156c 1c3e 5178 3abd 2c18 8b3e 8354 cb3e
00000390: cfd5 d33e 9e6c 92bd d172 d23e ec0f 703e
000003a0: 27a5 f3be 67a6 19be 5fd3 f9be c501 ffbd
000003b0: b5ad b6bd 3f54 aebe 2390 b4be b0a9 ee3d
000003c0: d70b 623e fb23 453e 8af3 20be 8b86 803e
000003d0: 9eef 9c3d 4d07 b93e 0528 53be 43ec 94be
000003e0: 72a7 bfbd cc36 07bf d6a1 05be a478 c33d
000003f0: fa21 b3bb 9cfc a33c 22e8 bdbb 365d f93e
0.1705475 -0.24041787 0.17057353 -0.120176464 -0.26678857 -0.009578274 0.09355929 0.24992655
0.15739307 0.26342443 0.21410015 -0.24156192 0.0014580935 -0.26187316 0.15926254 0.45943028
-0.20614399 -0.08037259 -0.611786 0.10639333 0.066108786 0.06877609 -0.050579473 0.30580023
-0.08577522 -0.08327709 -0.11359478 -0.111052945 -0.034440484 0.046003506 -0.31711408 0.033062942
0.07705144 0.16537191 -0.002030226 -0.028446387 -0.21859017 0.011792954 -0.12978913 -0.2701412
-0.32006982 0.009809264 -0.043515384 0.21724105 0.0013648742 -0.27192667 0.040196598 -0.30084273
0.48103172 -0.13708033 -0.16171376 0.19338681 0.35786664 0.1851949 0.030023143 0.041410923
0.0021257885 0.23568606 0.076477855 0.094942056 0.067707054 -0.1923428 -0.21433662 0.2254583
-0.010458967 0.5450249 0.016092109 -0.22692417 -0.026690233 -0.17542559 0.35697734 -0.11721863
0.24509889 0.40095744 0.112851605 -0.071098745 0.061883263 0.2740218 0.22819094 0.019660883
0.23994194 0.025539566 -0.30791762 -0.099287465 -0.36255836 -0.087792434 0.022043468 -0.1594887
-0.2369913 0.06285617 0.15775478 0.13799353 -0.108643346 0.17382696 0.0031668118 0.23986293
-0.0677141 -0.07946811 -0.16274767 -0.30311528 -0.07145689 0.18699488 -0.115916096 0.032133415
-0.011086915 0.22370183 -0.26836345 0.30284712 -0.2722725 -0.1189785 0.2765203 0.1054437
-0.0055297487 0.01329962 0.008456072 -0.10017647 0.38405547 -0.06665076 -0.26931697 -0.03867606
0.3294512 -0.44493008 -0.04487238 -0.4492998 0.14304999 -0.26117474 -0.19186927 -0.24279481
-0.00027972594 -0.13527353 -0.19019268 0.10693224 0.027718185 0.13219167 -0.14893207 0.15312469
0.15373485 -0.016663922 -0.025864156 0.29996476 0.13112701 0.10008816 0.12511215 0.04529787
-0.07426674 0.09118238 0.261338 0.10470186 -0.21080248 0.007803425 0.2348178 -0.37833917
0.33252758 -0.2623322 -0.4969532 -0.0071963025 0.12900825 0.35826892 0.22710256 0.42312416
0.37444958 -0.37772244 0.010273056 -0.47911334 0.19758135 0.56607604 -0.5678885 -0.052829746
-1.0165353 0.1506098 0.22632602 0.117791705 -0.05962487 0.41128388 -0.0649624 -0.17975265
-0.16135351 -0.1879013 0.0683761 -0.0010553915 -0.5923711 0.028093925 0.25243136 0.27669007
0.073492385 0.0036248374 -0.3228567 0.12815687 -0.14566036 -0.34112233 -0.5857999 -0.015320681
0.025796352 0.39070186 0.16022575 -0.43725893 0.012552258 -0.5133271 0.5249821 -0.21990739
-0.26289693 0.25329798 0.44259748 0.46847874 0.07002223 0.14384688 -0.02325197 0.56110597
-0.009253498 0.035823002 0.18412879 -0.16528098 -0.33807462 0.25869605 -0.039832234 0.7736439
-0.07876282 -0.36623812 0.056012366 -0.24466062 0.37555835 -0.0381515 0.5503744 0.5298989
0.15275605 -0.0455249 0.2716688 0.39712915 0.4137406 -0.07149623 0.41103223 0.23443574
-0.4758694 -0.15004884 -0.48794076 -0.124515094 -0.08919851 -0.3404865 -0.35266218 0.11653459
0.22074829 0.19252007 -0.15717903 0.25102648 0.07662891 0.36138383 -0.20620735 -0.29086503
-0.093581095 -0.5281799 -0.13050017 0.09544495 -0.005466697 0.020017914 -0.0057954947 0.48703927

bias f4 [100]
00000000: 1a61 68bd 71db 5f3d e462 933c c189 6bbd
00000010: 50c6 c33c b91f 2b3c d7b9 a63d cec0 6cbd
00000020: 5cfd 44bd 6aec 903d 552f d13a 0da8 063d
00000030: 97ed 36bc a526 23bc 3483 7f3d cb82 773b
00000040: 973b 2fbd 1b29 0d3d ec97 27bc f67a 843d
00000050: 5334 5bbc 4ad3 3fbd 52e2 843d a0a5 0c3c
00000060: a9c4 56bc 695a 99bd 656c 663b f6cc 3c3b
00000070: 179f c33c b09b 923d dd4e 573d 6d0d c7bb
00000080: 1fc7 483d 64d4 923d ccf5 0f3c 7e5b 363c
00000090: e32e 5fbd 2613 9e3d 4cdc 1e3d 2d54 9e3d
000000a0: c0ff 203d 8a9d 933d 3d49 623a f1b6 0bbd
000000b0: 34e8 84bb d8eb 653d 1bd9 143d 51ff a63d
000000c0: 2c56 073d 21a5 ea3c a76a 883d 3274 8ebd
000000d0: bd30 a5bc 9e69 95bd 8a5a 9ebc 516e 683c
000000e0: 8f15 743d 6c74 35bd 8be3 87bd 099b a6bd
000000f0: 20ee 2f3c fcbb 8ebd 5fe5 2bbd ac40 65bd
00000100: b528 5a3c 1949 8dbd 5c57 743d 9c9a 983d
00000110: 016b cd3c 10f2 72bd 6273 c13c f837 753c
00000120: b60b 18bd 2715 9e3d 22fa e03c 04ea b8bb
00000130: 2876 dd3c e7ba 4cbb 5ecc 783d ef12 ca3c
00000140: 274d a63d 6353 13bd bf56 93bc b5f0 7ebd
00000150: d007 16bd 19ff 8abd 8840 323d ce5a 8e3d
00000160: 62d2 873c 8451 dabc 9631 813d ecd6 4fbd
00000170: ca65 6b3b dc40 02bb 476e 583d b895 a3bd
00000180: 21eb 01bd c4f8 93bc 49bb 9bbd aeaf eabc
-0.05673323 0.054652635 0.01799149 -0.05750442 0.023898274 0.010444575 0.08140915 -0.05780106
-0.048093185 0.070763424 0.0015959541 0.03287511 -0.011165044 -0.009957944 0.062380984 0.0037767168
-0.04278144 0.03446303 -0.010229092 0.064687654 -0.013379174 -0.04683236 0.0648848 0.00858441
-0.013108411 -0.074879475 0.0035159823 0.002880869 0.02387957 0.07158601 0.052565444 -0.0060745985
0.04901802 0.071694165 0.00878663 0.011130212 -0.054488074 0.07718496 0.03878431 0.07730899
0.039306402 0.072077826 0.0008632129 -0.034110013 -0.004056001 0.05613312 0.03633986 0.081541665
0.033041164 0.028643193 0.06660967 -0.06955756 -0.020164842 -0.072955355 -0.019330282 0.014186458
0.059590872 -0.04430048 -0.06635197 -0.08135039 0.010737926 -0.06969449 -0.041966792 -0.05596988
0.013315369 -0.06898708 0.059653625 0.074513644 0.025075438 -0.05931288 0.02361459 0.014966957
-0.037120543 0.07718878 0.027463023 -0.005643131 0.02703388 -0.0031239332 0.060741775 0.024667231
0.081201844 -0.035968196 -0.0179857 -0.062241275 -0.036628544 -0.06786937 0.043518573 0.06950913
0.01657981 -0.026650198 0.06308286 -0.050742075 0.0035918825 -0.0019875085 0.052839544 -0.07987541
-0.031718377 -0.018062957 -0.07604081 -0.028648224

weight f4 [1, 100]
00000000: e684 0a3f ad4c 613f a0b4 9bbe 0621 523f
00000010: 3a53 8f3f 2220 723f ba95 083f adfe c4bf
00000020: 17f0 88bf 2908 0fbf 30a9 29bf 2ea5 5ebf
00000030: 47ba 5fbe 3271 33bf 8b39 bfbf 7195 44bc
00000040: e90e 233f 1f15 61bd 28a6 4ebf 841d 5bbf
00000050: c5a6 8b3f 8bdd af3f 77d0 173e 1423 e3bf
00000060: 1df4 473f 25ac 133e 7140 d5bf 3333 b8bf
00000070: 9f4b aa3f 5662 98bd 78e7 253f a7cd b6bf
00000080: 8b8c bc3c 2f1d 61bf 2672 00c0 fcea 9fbf
00000090: 3ad7 183f 68f2 62bf 3072 e33e 2fa5 303f
000000a0: cdb4 ae3e eec6 b13f 3d20 4b3f f588 9dbe
000000b0: 5deb 1b3f ca0b 32bf 7f69 18bf 7423 fb3f
000000c0: f34f f23e 66ca 603f f13b 8a3f 28e6 f23f
000000d0: a470 ca3e e530 263e a57a 36bd dcd0 8abe
000000e0: 5270 133e 7583 5e3e 402e 2540 3ea4 af3f
000000f0: 0e2d 4d3e 2e1d 67bf 5a08 9c3f 5107 363e
00000100: e318 123e 1f6c e43e 85d1 0ebf 8a28 ac3e
00000110: 7c53 95bf 195d 7e3f 68e5 97bd c576 88bf
00000120: 25d8 4e40 a8fd fa3f 2063 8e3f 18d4 b33e
00000130: 96e1 aa3f 0cbd bc3f 6048 9ebf 38e4 d03e
00000140: 683f 9aba 0a9e 1740 6a8a 8fbe 483e 7d3e
00000150: fb91 16bf de87 c83e 9b84 4abf 4d07 883f
00000160: 21d5 10bf f3bb ebbd 2521 45bf 01c4 aa3e
00000170: 2c07 c7bf ef94 4bbf 22ed ef3c fe46 42c0
00000180: b262 f7bf 312f c2be ad18 853e 6559 99bf
0.54109037 0.8800762 -0.30411243 0.8208164 1.1197274 0.9458028 0.53353465 -1.5390221
-1.069827 -0.55871826 -0.66273785 -0.86970794 -0.21848403 -0.700946 -1.4939436 -0.01199852
0.63694626 -0.054951783 -0.80722284 -0.8559191 1.0910269 1.3739485 0.14825617 -1.774508
0.7810686 0.14421137 -1.6660291 -1.4390625 1.3304328 -0.07440631 0.6480632 -1.428151
0.023016235 -0.87935156 -2.006967 -1.2493587 0.5970341 -0.8865113 0.44423056 0.6900205
0.34122315 1.3888834 0.79346067 -0.30768552 0.6090601 -0.6954924 -0.59535974 1.9620194
0.4732662 0.87808836 1.0799543 1.8976488 0.39539063 0.1622959 -0.044550557 -0.27112472
0.14398316 0.21729834 2.5809479 1.3721998 0.20036718 -0.902789 1.2190049 0.17776228
0.14267306 0.4461374 -0.5578845 0.3362468 -1.1666102 0.99360806 -0.07416803 -1.0661246
3.2319424 1.960866 1.1124 0.35122752 1.3350093 1.4745193 -1.2365837 0.40799117
-0.0011768164 2.369021 -0.2803529 0.2473079 -0.588165 0.39166158 -0.7910859 1.0627228
-0.5657521 -0.11510458 -0.770037 0.33352664 -1.5549064 -0.7952413 0.029287878 -3.035583
-1.9326994 -0.3792663 0.2599539 -1.1980406
