Backgammon2/pub_stomper_repository/nn_pg_valuefunction.pt (torch_old, 6005 bytes, 1 tensors)

weight f4 [1, 150]
00000000: 1fb9 f4bd 3e71 83bd 51a7 be3d 17c4 1f3e
00000010: 9f45 c6bd a229 f6bd 5d2d 3fbc b287 cfbd
00000020: 62cc 8e3c 539d 853d 77f5 043e 31e4 09bd
00000030: 35d9 5fbd a910 2ebe 6927 f2bb 01cc 12bd
00000040: 4c8f 04be 2f45 95bd 124e 20be d9f2 b2bd
00000050: 578c 303e c8ca c63c 0f3a 03be 92bb 073d
00000060: fccd 5a3c 4423 0a3e 44bf f93d d9d4 54bd
00000070: fe31 a93d d8e0 b23d c298 153d 3626 883d
00000080: 4bb3 b9bc 9a5f 1bbe 8150 d83d e9ce eb3c
00000090: 9eec c3bb 7a1f 33bc fa9f 16be 1c8c 40bd
000000a0: 9722 8e3c e3dd 4d3d 9bfa dc3d 8b70 353d
000000b0: 7a56 533d 4aa4 e83c 5ce5 b53d 3630 8cbd
000000c0: 19b7 5d3d 9d20 ecbd 6c76 9c3d 7fb1 45bd
000000d0: 0e0b b23d 5e39 9b3d 33cb 0fbe 20ac a63d
000000e0: c4c6 9138 a9e1 fbbd 4207 c1bc c289 c5bd
000000f0: 99e7 833d de98 81bc 9c09 6fbd 16f0 b2bc
00000100: d214 61bd d730 593c 9093 adbb 0aee 28bd
00000110: 3ba5 4e3c 549f 3b3d 1a70 333c 6edf 1d3c
00000120: a950 dc3d b358 05be 3648 bebd e079 c53c
00000130: 9d29 b03d 7596 bebd 047e 0e3e df8f 8f3d
00000140: 2ac7 d43d 1f8c de3d 5207 10be 2cf1 c53d
00000150: 2696 053d 9ce3 8dbd d8be ee3d 17bf 0ebe
00000160: 1560 16bd d160 ccbd b516 b3bd 13d4 303b
00000170: a387 49bd fd0e ca3d a42b dabd e656 cc3c
00000180: 882b 863d 1408 b23d 6017 c43d a203 6fbc
00000190: b4c3 c3bd 80ea 06be 781f 8cbd d68a a6bc
000001a0: d3f0 203d b199 8abd e8c0 9dbd 6897 f1bd
000001b0: ff84 323d 5830 643d cf2b aabc 5338 a23d
000001c0: a930 10be 58a2 b53d 3ccb a9bd 6338 403b
000001d0: 40c1 043e f6fa 593d 334a 093e 6908 e4bd
000001e0: ea9e b33d 4509 013e a2d9 0bbe ffcf 813d
000001f0: b548 693c 373a a13c 96d7 c33c 2911 d43c
00000200: 6115 c03c d6fd e3bc df3b 53bd a632 24bd
00000210: 9bc0 883d 4a72 7bbd 72cf a43c 46c5 ed3c
00000220: 89e6 0ebe eb31 f83d 34e0 063e 362a 6b3c
00000230: 99b1 6b3c 8e7c 2d3e 5541 a73d 0a28 c23c
00000240: d6ac 8ebd bc28 723d dfa9 39bc 524c e83d
00000250: dbc9 a0bd 21b5 f6bd
-0.119493715 -0.064180836 0.09309257 0.15602146 -0.09681248 -0.120196596 -0.01166853 -0.10133304
0.017431442 0.06524148 0.12984262 -0.033664886 -0.054650504 -0.16998543 -0.007389952 -0.035839085
-0.12945288 -0.07288586 -0.15654781 -0.08737726 0.17241035 0.024266616 -0.12815116 0.033137865
0.013354775 0.13490015 0.12194684 -0.0519608 0.082614884 0.08734292 0.036522634 0.06647913
-0.022668501 -0.15173188 0.1056223 0.028785186 -0.0059791347 -0.010932798 -0.14709464 -0.04700862
0.017350478 0.050260436 0.10789987 0.044296782 0.051596142 0.028398652 0.088816375 -0.06845133
0.054129694 -0.11529658 0.07639775 -0.048264977 0.08693515 0.07579301 -0.14042358 0.08138299
6.951162e-05 -0.12298901 -0.023563031 -0.09645416 0.06440658 -0.015819963 -0.058358774 -0.021842998
-0.054951496 0.013256273 -0.005297132 -0.041242637 0.012612636 0.045806244 0.01095202 0.009635789
0.10757572 -0.13022117 -0.09291117 0.024105966 0.08601687 -0.09306041 0.13915259 0.07009863
0.1038955 0.1086657 -0.14065292 0.096651405 0.032613896 -0.06928179 0.11657494 -0.13940082
-0.036712725 -0.09979404 -0.087445654 0.0026981875 -0.04920162 0.0986614 -0.10652855 0.02494378
0.06551272 0.08692947 0.09574771 -0.0145882685 -0.09558812 -0.13175392 -0.0684194 -0.020329874
0.039292168 -0.067675956 -0.077028096 -0.117964566 0.043583866 0.055710167 -0.020772843 0.07920899
-0.14081062 0.08868855 -0.08290717 0.0029330484 0.12964344 0.05321785 0.13407211 -0.111344166
0.08770545 0.12601192 -0.13657239 0.063385 0.014238526 0.01968108 0.02390651 0.025887089
0.023447694 -0.027831 -0.05157077 -0.040087365 0.066773616 -0.06138829 0.020118449 0.029024731
-0.1395513 0.12118896 0.13171464 0.014353326 0.014385604 0.16942045 0.08166758 0.023700733
-0.069665596 0.05912088 -0.011332004 0.11342682 -0.07851001 -0.12046266
