Backgammon2/pub_stomper_repository/nn_pg_2_pgmodel.pt (torch_old, 86468 bytes, 3 tensors)

weight f4 [100, 200]
000000 e7 3a 0c 3e 72 12 55 ba 13 0c 09 bd 3c b4 d8 3b
       0.13694344 -0.0008128054 -0.03345878 0.0066132825
000010 8c 07 1a 3e 89 23 ed bc 0f ef 2a 3e 11 08 1e be
       0.15041941 -0.028947609 0.16692756 -0.15432765
000020 13 2e 71 3c db 63 9c 3c 84 3a 0e be a3 a1 ba 3d
       0.014720458 0.019090584 -0.1388951 0.09112861
000030 38 a1 68 3c 36 5a bc bd af 7b 29 bd 2e 48 0b bd
       0.014198594 -0.09196894 -0.04137772 -0.034004383
000040 cc 1d 6c 3e 5b 78 76 3d 41 d2 e9 3d 09 46 2a 3e
       0.23058242 0.060173374 0.11417056 0.16628279
000050 4e d6 88 be ec f1 86 3d f3 99 85 bd 96 cf 5d be
       -0.26726002 0.06589112 -0.06523504 -0.21661219
000060 4d ae 31 bd 3e c8 c8 3d 58 ec c2 bd 5f f9 28 3d
       -0.043379117 0.09803818 -0.09517735 0.041253444
000070 09 c6 d0 3d fe 2b 2e 3d 0c 99 5f 3d 15 c4 f3 3c
       0.10194022 0.042522423 0.054589316 0.029756585
000080 20 62 d4 3a e9 47 9a bd af f1 f9 3d e9 3e 44 3c
       0.001620356 -0.07533247 0.122043006 0.01197789
000090 e6 e8 0c 3d 5a 63 35 3e ee a2 7e bd 29 a5 30 be
       0.034401797 0.17713681 -0.0621671 -0.17250504
0000a0 74 68 70 3d d9 e5 45 bd 76 a8 5e bc 42 78 20 be
       0.058693364 -0.048314903 -0.013589969 -0.15670875
0000b0 c2 c4 18 bd d4 99 1a 3e c1 89 88 3d 33 83 49 bd
       -0.037297018 0.15097743 0.066668995 -0.049197387
0000c0 1e 98 2a 3d a5 0b d0 3d 0d 85 c3 be 77 26 c5 bd
       0.041648977 0.10158471 -0.38187447 -0.09626477
0000d0 a4 fa d3 3d 1c 09 93 3d 87 0e 1f be 6a 27 59 be
       0.1035054 0.07179472 -0.15532885 -0.21206442
0000e0 9c 9d dd 3d 9e 62 ea bd 52 66 8f 3e 8c e1 ec 3d
       0.10821077 -0.11444591 0.28007752 0.11566457
0000f0 03 06 f0 3d 4a bd b3 3d 44 98 44 bd 26 f4 00 bb
       0.11719897 0.087763384 -0.047996774 -0.0019676774
000100 26 20 f1 3c d5 c1 c0 3d 08 96 ed 3d e8 d3 e0 bd
       0.029434275 0.094119705 0.11600882 -0.10977918
000110 c7 34 b8 3c 87 ff 89 be 73 07 81 3a ec 2c 28 3d
       0.022486104 -0.26952764 0.0009844139 0.041058466
000120 67 98 6f be bd 33 3a 3d 93 b6 e9 3d 5d 94 f7 bd
       -0.2339798 0.045459498 0.114117764 -0.12088845
000130 44 0e 7c be 9a fb 44 bc 7a 82 a4 bd ba 5e aa bc
       -0.24614817 -0.012022877 -0.08032699 -0.020797122
000140 22 27 f0 bd 56 54 11 bd 79 62 4a 3e 09 2d 1f 3d
       -0.11726214 -0.03548082 0.19764127 0.03886131
000150 56 cf 14 bc a2 7f 54 3d 2d 1c ff bd 69 01 6e bd
       -0.009082636 0.051879533 -0.12456546 -0.058106814
000160 4d 86 90 bd 94 cf b0 3d 4c 09 81 bd 76 fa 43 be
       -0.07056866 0.086333424 -0.06300601 -0.19138512
000170 e0 e2 33 3e 12 0f f6 bc a1 36 34 be 23 fa 41 3d
       0.17567015 -0.030036483 -0.17598964 0.04735769
000180 5f a4 27 3e ab 3b d7 3d 83 da a8 bd 86 28 fd 3c
       0.16371296 0.10509428 -0.08244803 0.030903112
000190 07 f9 81 be 89 91 c7 bd 3f 6b 05 be ae 2a db 3d
       -0.25385305 -0.097445555 -0.13029192 0.107015
0001a0 f6 60 60 be bc 16 63 3d a1 72 db bc 6a 3f e9 bd
       -0.21911988 0.055441603 -0.026788058 -0.113890484
0001b0 92 3e 60 bd 5d b2 16 be 4c 04 9e 3d 53 bf b7 3d
       -0.05474717 -0.14716478 0.07715663 0.08972039
0001c0 0a 85 84 be 92 32 88 bd f9 7f 91 bd 0a 9b a7 bd
       -0.2588275 -0.066502705 -0.07104487 -0.08183868
0001d0 e1 1d 7a bc 8c e1 2f be 0b 4c 4b 3d 01 f2 08 3d
       -0.015265913 -0.17175883 0.049633067 0.033433918
0001e0 1a 1f b6 be c0 d1 52 3e 6f 23 5a 3e f0 a3 d6 3d
       -0.35570604 0.20587826 0.2130258 0.10480487
0001f0 08 f2 50 3d 4a d5 8c 3e d9 cc 99 3d 19 4b ca 3d
       0.05101207 0.27506477 0.07509775 0.09877605
000200 b1 ac af bd 33 c4 2a be a5 06 82 3c b0 3a a4 3d
       -0.0857786 -0.16676407 0.015872309 0.08019006
000210 eb 38 27 bd 27 6b 48 3e f3 99 27 3e 08 1b ba 3c
       -0.040825766 0.19572125 0.1636732 0.022717968
000220 8f 04 56 3e 11 40 b0 3b 35 71 e1 3d 93 c1 98 3d
       0.20900176 0.005378731 0.11007921 0.07458796
000230 e9 fc bb bd 08 b5 81 3d 3b c3 77 3e e7 90 16 bc
       -0.09179098 0.06333357 0.24195568 -0.009189821
000240 d5 fc 1d 3e 0f 48 a5 bd 94 09 fc 3d 3c 42 2f bb
       0.15428479 -0.08070385 0.123065144 -0.002674236
000250 b3 8b 3c 3e 49 9d 0c be bd b5 d0 bd 85 3c 87 3c
       0.18412666 -0.13731875 -0.10190914 0.01650835
000260 f2 11 04 bd 8b 2d 9e 3e e4 cf b3 bc 98 e0 88 3d
       -0.032243676 0.30894122 -0.021949716 0.06683463
000270 d6 3b 17 3e 2c c2 19 be 80 c4 16 be b7 f9 85 3d
       0.1476892 -0.15015477 -0.14723396 0.0654177
000280 68 84 b0 bd c3 65 46 be d1 3e 5a bd 4a b0 e1 bb
       -0.086190045 -0.19374757 -0.053282563 -0.0068874704
000290 25 70 95 3c 00 bf 10 3e fa 24 d3 3d 9e b1 4e be
       0.018241951 0.1413536 0.10309787 -0.20184943
0002a0 91 44 2f bd 8c 23 61 3e b1 b3 ad bd 7c e7 25 3e
       -0.04279 0.21986216 -0.08481539 0.16201586
0002b0 d8 6b e3 3d f2 2a 0d 3e 3b f5 12 3d 4b 88 00 be
       0.11104554 0.13785914 0.0358784 -0.12551992
0002c0 e8 8b 3c 3e f4 2a 28 3d 7e 40 92 3e 8d b1 33 3e
       0.18412745 0.04105659 0.2856483 0.17548199
0002d0 39 44 1e 3e 58 3e 5c bc 27 94 2f bd 47 ef 52 be
       0.15455712 -0.013442598 -0.0428659 -0.2059909
0002e0 f4 52 7c be 67 5b 8a bd 8b 7e 28 3e cc 7a f5 bd
       -0.24641019 -0.06755715 0.16454522 -0.11986312
0002f0 22 eb 0f be 5b de 31 be 04 79 c2 bd 86 8e 96 3d
       -0.1405454 -0.17369978 -0.09495738 0.07351403
000300 81 d8 d2 3b 7a f8 26 be 38 2b f6 bd 39 6b d5 bd
       0.0064345007 -0.16305724 -0.12019962 -0.10420842
000310 8e 22 ee bd 9d 29 38 3e f4 1b be bd 60 db 0a 3d
       -0.116276845 0.17984624 -0.092826754 0.03390062
000320 35 75 f3 bd b3 25 30 bd 67 63 a7 bd 7c c0 9a 3c
       -0.1188759 -0.043004703 -0.08173256 0.018890612
000330 f0 a9 6c be a0 1b 06 3d 56 d2 f9 bd e2 a1 fa 3d
       -0.23111701 0.03274119 -0.121983215 0.12237908
000340 ed 1a b6 bd 54 ef 6a bd c9 20 2a 3e e5 f8 aa bd
       -0.088918544 -0.057357147 0.16614069 -0.08348254
000350 1d c5 4e bd d1 68 7d 3d 51 d6 80 bb de a5 fc 3c
       -0.05048095 0.06186754 -0.0039317985 0.03084081
000360 3c c5 3a be ec 57 0c be 4f 46 41 be 9d 76 28 be
       -0.18239301 -0.13705415 -0.18874477 -0.16451497
000370 a3 19 9c 3e bb 85 c9 bd 1e 98 8f 3d cf c4 3e 3e
       0.3048831 -0.0983996 0.07011436 0.18629764
000380 5d 65 35 3b 82 19 cb 3c 3a 64 00 3e e8 16 51 bd
       0.0027678825 0.024792437 0.12538233 -0.051047236
000390 b1 92 14 bd 84 98 b4 3c 45 b1 e9 bd f2 68 39 3d
       -0.03627271 0.022045381 -0.114107646 0.0452661
0003a0 84 cc 9f bd 57 f6 0f 3e 1c df 0c be 1e 4b 50 3c
       -0.0780268 0.14058815 -0.13756984 0.012713222
0003b0 5e 61 01 39 51 c2 ad bd 8b f5 ce 3d 50 1b 47 3e
       0.00012338671 -0.084843285 0.10105427 0.19444013
0003c0 ab 79 04 bd ab eb 0c 3d 63 dd f0 3c 91 9a 19 3e
       -0.032342594 0.034404438 0.02940244 0.15000369
0003d0 57 92 c5 bc 80 53 1c be 20 96 0e be 34 79 e9 3d
       -0.024117632 -0.15266228 -0.13924456 0.11400071
0003e0 4b 92 11 bd 06 5a 01 be 3d f0 ab 3e 9d 34 dc 3d
       -0.035539906 -0.12631997 0.33581725 0.10752223
0003f0 14 bf 80 3a e9 0c 8a bc 91 81 14 3e 66 f4 21 3e
       0.0009822571 -0.01685186 0.1450255 0.15815887

bias f4 [100]
000000 5e ab 45 bd fb 0f fa bc 6d 81 8d 3d 1d 38 e1 bc
       -0.04825913 -0.030525198 0.06909452 -0.027492577
000010 4e af 20 3c bd 67 86 bd fa 1c b7 bc 19 92 53 bb
       0.009807421 -0.06562755 -0.022352684 -0.0032283126
000020 d2 01 8f bc 63 65 82 3d 13 4a 2b bc e4 ea f2 ba
       -0.017456923 0.06366994 -0.010454672 -0.0018533138
000030 21 e7 e7 bb c8 b8 3b bd b0 fd 00 3c 93 87 8c 3d
       -0.0070771133 -0.045830518 0.007872984 0.06861796
000040 bc 9c 0e 3d 80 08 29 bd 26 93 6f bc 7b 0e 8a bd
       0.034817442 -0.04126787 -0.014622485 -0.06741043
000050 d4 5f a3 bb 87 a0 8e 3d 92 38 84 bc dd ac 09 bd
       -0.004985789 0.06964212 -0.016140256 -0.03361212
000060 6b 1f 2c 3c f3 35 05 bc 87 84 75 3c 2f 16 0c bc
       0.0105055375 -0.008130538 0.01498521 -0.008550211
000070 00 2b a7 3c 9c 70 35 bd dc 56 b3 3a 78 2f 83 3c
       0.020406246 -0.044296846 0.0013682502 0.016013846
000080 94 61 10 3d 3e 35 44 bd 14 ef d4 3c f1 62 0a bd
       0.035249308 -0.04790234 0.025992908 -0.033785764
000090 95 23 16 3d 6e 45 18 3d 3e 79 d3 bb be 93 44 3b
       0.036655027 0.03717559 -0.006453662 0.0029995288
0000a0 30 59 3c 3c 5d 32 78 bd 08 61 cf 3c 12 6b ce 3c
       0.011495873 -0.060594905 0.025314823 0.02519754
0000b0 96 16 32 3d 48 2d c9 3b 02 c4 3d 3d 00 73 db bc
       0.04347857 0.006139431 0.046329506 -0.026788235
0000c0 e6 f6 a1 3c 48 5d 54 38 d8 a5 d3 3c 47 1e c0 3c
       0.01977105 5.0631614e-05 0.025835916 0.023451937
0000d0 5e ca da 3b 36 80 33 bc 72 5c fd bc f8 e9 69 3a
       0.006676956 -0.010955861 -0.03092787 0.00089231087
0000e0 fe 02 5c 3d 16 6d 9b bc d3 c7 17 bd 44 ee 51 bd
       0.05371379 -0.018972915 -0.0370558 -0.05125262
0000f0 20 d5 33 3d 8e 53 33 bd 08 a1 5f bc ce fb 85 bc
       0.043904424 -0.043780856 -0.013649233 -0.016355421
000100 14 45 c1 39 b5 41 e4 bc 7a 8f 8e bd 4b aa 15 bd
       0.00036863296 -0.027863363 -0.0696096 -0.036539357
000110 a7 20 cb bc 42 14 5e 3d 90 47 e8 3c f1 61 80 3d
       -0.024795843 0.054218538 0.028354436 0.06268681
000120 e8 78 05 3d bd 18 2e 3c fc 04 00 3d cb dc cf bb
       0.03258601 0.010626015 0.031254753 -0.0063434592
000130 1e cc 57 3d 04 56 1d bd 6f 3a 36 3b 2b 2e 08 bd
       0.052684896 -0.03841211 0.0027805825 -0.033247154
000140 dc 2a 81 bc 51 ab d3 3c 9c 4f 49 bc 52 4d c2 bc
       -0.015767507 0.025838526 -0.012287047 -0.02371851
000150 4a f3 40 3d 2a 68 53 bc 76 34 32 bb 78 02 90 bd
       0.04710702 -0.012903253 -0.0027191914 -0.07031721
000160 af f5 89 3d 8f ef 58 bd 2f 80 84 bd 89 31 72 bd
       0.067363136 -0.052962836 -0.064697616 -0.05912927
000170 4a 20 0b 3d 90 da 5f bd ee 91 f0 bc 98 68 57 bb
       0.03396634 -0.054651797 -0.02936646 -0.003286874
000180 79 4e ff bb be 1e 73 3d 02 53 36 3d ea 61 b4 bc
       -0.007791337 0.05935549 0.044512756 -0.022019345

weight f4 [1, 100]
000000 d8 2a 9d bf f5 7b 97 3f e4 30 bb 3f d0 d4 9e 3f
       -1.22787 1.1834704 1.4624295 1.2408695
000010 f4 af 83 bf e8 bc 7b bf 95 8b 7b 3f 02 0a 35 bf
       -1.0288072 -0.98335123 0.9825986 -0.70718396
000020 5e bc e0 3d 79 1b 0e bf 58 aa da 3e f5 3b 93 3c
       0.10973428 -0.5551067 0.42708087 0.017972926
000030 cb 66 aa 3e e9 b6 5e 3e ba a1 56 be 10 09 cf bd
       0.3328155 0.21749462 -0.20960131 -0.101091504
000040 19 f9 dc 3f d0 25 46 c0 43 44 fd 3f 02 f4 33 3f
       1.7263519 -3.096058 1.9786457 0.702942
000050 e2 11 e7 be 9b 41 8e 3f a4 ff 5e 3f a7 f8 c2 bf
       -0.4513083 1.1113771 0.87108827 -1.5232133
000060 1b 71 6c 3f b2 e8 e9 bf 2a a3 50 bf 07 6d 5b 3f
       0.92360085 -1.8274138 -0.8149897 0.8571324
000070 3a cb b4 be b6 df 8d 3b e0 c1 90 3f 0d 9b e1 be
       -0.353113 0.004329647 1.1309166 -0.44063607
000080 ab 10 0a 3f be b3 17 3f e7 44 33 be 5f 2d a4 3f
       0.53931683 0.5925864 -0.17506753 1.2826346
000090 58 83 e2 3f eb d9 60 3e f6 9c a4 bf 24 61 88 3e
       1.7696333 0.21958129 -1.2860401 0.26636612
0000a0 07 f7 bd bf 63 79 bf bd 65 24 85 3f a6 2d c0 bf
       -1.4841012 -0.093493246 1.0401732 -1.5013931
0000b0 36 ad 86 be 3e 96 5b bf 42 16 f6 3f ca 0f 96 be
       -0.26304024 -0.85776126 1.9225543 -0.2930892
0000c0 b9 6a 0c 3f d1 a8 83 bf fa d2 6b 3e a7 26 7e 3f
       0.54850346 -1.0285894 0.230297 0.9927773
0000d0 db 80 b9 3e e5 f8 06 3f 8d 87 09 40 0d 9f a4 bf
       0.3623112 0.5272353 2.1488984 -1.2861038
0000e0 51 8a 13 bf c4 22 70 3f 70 20 07 40 49 16 d9 be
       -0.5763293 0.9380305 2.1113548 -0.42399815
0000f0 ad 67 6d be f4 10 3b bf 34 4e f0 bf 54 6e b8 3e
       -0.2318408 -0.73072743 -1.8773866 0.36021674
000100 33 a6 df 3f 1a 4b 1a 3f 1a c8 c3 3e bb d2 d6 3e
       1.7472595 0.60270846 0.38238603 0.4195765
000110 c5 0f 87 bf c3 fd d5 bf f7 86 a4 3b 6b 29 f4 bf
       -1.0551687 -1.6718067 0.005020972 -1.907514
000120 70 1f 5c be a5 da eb 3f 2c d8 f9 bf 93 84 1f bf
       -0.21496367 1.84261 -1.9519095 -0.6231167
000130 2a 4b 0e 3f dc 8d b1 3e f4 4e ff 3e 4e 8d c9 bd
       0.5558344 0.34678543 0.49864924 -0.09841405
000140 e3 de 00 c0 e5 1c ff 3e 32 59 86 bf 7b bd 18 bf
       -2.013604 0.49826732 -1.049597 -0.59664124
000150 b5 06 15 bf 94 fe 4d 3f 03 fd 85 3f fc 93 cc bf
       -0.5821336 0.8046658 1.0467838 -1.5982661
000160 f0 8d 82 3e 31 e7 a0 3f 79 91 7d bf db fa fe 3f
       0.25498915 1.2570554 -0.990501 1.9920305
000170 0c db 6d 3f 94 ef 57 3f 1f 7a ec be df 82 eb 3e
       0.92912364 0.8434994 -0.4618692 0.45998284
000180 46 19 4d 3f 03 ac fc 3e 22 74 42 bf e1 2e 49 bf
       0.8011669 0.49349985 -0.75958455 -0.78587157
