Backgammon2/pub_stomper_repository/nn_pg_2_valuefunction.pt (torch_old, 6205 bytes, 1 tensors)

weight f4 [1, 200]
0	0xbd773ef3	-0.060362767
1	0xbd62eda6	-0.05540242
2	0xbc760819	-0.015016579
3	0x3dec5a48	0.11540657
4	0xbcdcd1dc	-0.026955537
5	0x3cdd1d33	0.026991462
6	0xbda6d047	-0.081451945
7	0x3b1d56d7	0.002400806
8	0xbc7282d1	-0.014801697
9	0xbd2cad34	-0.042157367
10	0xbd53fe49	-0.051756177
11	0xbd79e50d	-0.061009455
12	0x3d563c45	0.05230357
13	0x3de79933	0.11308517
14	0x3ce4519c	0.027870946
15	0x3cbb0592	0.022829805
16	0x3d880c08	0.0664292
17	0xbdc3b72d	-0.095564224
18	0x3db89eb0	0.09014642
19	0xbd847c19	-0.06468982
20	0xbb921c63	-0.0044589504
21	0xbd4a8112	-0.049439497
22	0x3d12ffc3	0.035888445
23	0x3d9f7484	0.077858955
24	0xbdc6d4ee	-0.09708582
25	0xbd718435	-0.058963973
26	0xbcdcea51	-0.0269672
27	0xbd84ca07	-0.06483846
28	0xbcc57470	-0.024103373
29	0x3ca6434b	0.02029576
30	0xbd6dbcf8	-0.058041543
31	0xbd05d0dc	-0.032669887
32	0xbbbc97ae	-0.0057553863
33	0x3d9fa8af	0.07795846
34	0xbc6c3191	-0.014416114
35	0xbc3ac67c	-0.011399861
36	0xbcd5d070	-0.026100367
37	0xbd4382da	-0.04773221
38	0x3d279f4b	0.040923398
39	0x3d924bf5	0.07143394
40	0xbd7b562f	-0.061361488
41	0x3b0185ea	0.0019763657
42	0x3d7eaaf5	0.062174756
43	0x3d2725ea	0.040807642
44	0xbd28b1ae	-0.041185074
45	0xbca1e864	-0.019764133
46	0xbc225d4e	-0.009909941
47	0xbc9b8ef5	-0.018989066
48	0x3b49dcac	0.0030801697
49	0xbddba57d	-0.10724924
50	0x3d937d17	0.07201593
51	0x3bea8cb8	0.0071578883
52	0x3b03a109	0.0020084998
53	0x3daf29bb	0.08552881
54	0xbd52077a	-0.05127666
55	0xbb2ed07c	-0.002667456
56	0xbd5a5424	-0.0533029
57	0x3d9caa55	0.07649676
58	0x3b8c7b37	0.0042871493
59	0xbcdf1b8c	-0.027234815
60	0x3cde6a3f	0.027150271
61	0x3ba32180	0.0049783587
62	0x3c29394f	0.010328605
63	0x3bb13e77	0.0054090577
64	0xbda8f87f	-0.08250522
65	0xbcaca9d6	-0.021077078
66	0x3d102a34	0.035196498
67	0xbbfc2ec5	-0.007696005
68	0xbcd04c6a	-0.025427062
69	0x3d854332	0.06506957
70	0x3b3c9597	0.0028775686
71	0x3dd075fb	0.10178753
72	0x3d40e738	0.047095507
73	0xbcae74d4	-0.021295942
74	0xbb170f5d	-0.0023049929
75	0xbb973677	-0.004614647
76	0x3d7fb47f	0.062427994
77	0xbd19a3bf	-0.037509676
78	0x3d8d3499	0.06894798
79	0xbcd76f16	-0.026298087
80	0x3ce4de23	0.027937954
81	0x3b03f464	0.0020134682
82	0xbc7362d9	-0.01485511
83	0x3c577908	0.013151415
84	0xbad1b2c4	-0.0015998711
85	0xbd316470	-0.043308675
86	0x3c08ea89	0.008356699
87	0xbdb8efeb	-0.09030136
88	0xbd092280	-0.033480167
89	0x3c1b9c34	0.009497691
90	0x3aa5499f	0.0012610442
91	0x3d914b9f	0.07094502
92	0xbcdcb35f	-0.026941
93	0x3ccbed10	0.024893314
94	0xbcfea4b1	-0.03108439
95	0x3d6b30b8	0.05741951
96	0xbd40eb2f	-0.04709929
97	0x3cddb88b	0.027065536
98	0x3b3cf5bc	0.0028832993
99	0xbcd3f33d	-0.025872821
100	0x3c5fcee2	0.013660165
101	0x3d9ab7bf	0.07554578
102	0x3ca55657	0.020182772
103	0xbaf8ea90	-0.0018990804
104	0x3dab28c4	0.08357385
105	0xbbfe94fc	-0.007769225
106	0x3d678d6d	0.05653136
107	0xbd26e104	-0.040741935
108	0xbd1f8ae1	-0.038950805
109	0x3dacd853	0.08439698
110	0xbd75b4bf	-0.059986826
111	0xbbce3f0b	-0.0062941364
112	0x3daa84c2	0.08326103
113	0x3c98fc77	0.018675072
114	0x3da6f0e8	0.08151418
115	0x3c8e9e49	0.01740946
116	0x3db1ddb0	0.08684862
117	0x3db01807	0.08598333
118	0xbd3ae04a	-0.045624055
119	0xbd8a00ba	-0.0673842
120	0x3ddcee71	0.107876666
121	0x3c2bc93e	0.010484992
122	0xbde5858b	-0.11207112
123	0xbd7ae2c5	-0.06125142
124	0xbd40ccf8	-0.047070473
125	0xbad46e0f	-0.0016207116
126	0xbc399b70	-0.011328563
127	0xbd39a9af	-0.04532784
128	0x3be26344	0.006908806
129	0x3d895de6	0.06707363
130	0x3ca8f6f5	0.02062557
131	0xbca01586	-0.019541513
132	0x3d05d784	0.032676235
133	0x3ca7a447	0.020464076
134	0xbbba3a92	-0.0056832517
135	0xbd6f79d7	-0.058465805
136	0xbd99971c	-0.07499525
137	0xbcb90be9	-0.022588687
138	0xbd87eb63	-0.06636693
139	0xbc1ccef6	-0.009570828
140	0x3cfba49b	0.030718138
141	0x3b729c64	0.0037019486
142	0xbdc0b8d5	-0.09410254
143	0xbc945775	-0.018108109
144	0x3c20dd87	0.009818441
145	0x3d37970c	0.044821784
146	0xbd956269	-0.07294161
147	0xbcbb98cc	-0.022900008
148	0xbd858225	-0.06518964
149	0xbd60cfd2	-0.054885693
150	0xbc18911b	-0.00931194
151	0xba8cf685	-0.0010754621
152	0xb9eb349a	-0.00044861884
153	0xbb6f0b87	-0.0036475377
154	0xbd45f13e	-0.04832577
155	0xbde3b4e3	-0.11118486
156	0xbd258f50	-0.040419877
157	0xbcee33a1	-0.029077353
158	0x3e0b62ce	0.1361191
159	0xbde43e2b	-0.1114467
160	0xbcdace02	-0.02670956
161	0x3d9c8821	0.07643152
162	0xbcca563d	-0.024699325
163	0x3d0486f1	0.032355253
164	0xbc74a0fe	-0.014930962
165	0x3d5cfaad	0.05395
166	0xbc364cbe	-0.011126695
167	0x3d5f2d16	0.054486357
168	0x3d911b06	0.070852324
169	0xbd7a89c9	-0.06116656
170	0x3d3c8921	0.046029214
171	0x3d1a7a2f	0.03771418
172	0xbdd6970a	-0.10478027
173	0xbd4fbe7b	-0.050718766
174	0xbd6951f5	-0.056962926
175	0xbd9ba162	-0.07599141
176	0xbdd35075	-0.1031808
177	0x3bbd9939	0.005786088
178	0x3a925e7f	0.0011167078
179	0xbdb4c336	-0.08826296
180	0x3c993440	0.018701673
181	0x3d948cbc	0.072534055
182	0x3deb1fcd	0.11480675
183	0x3d786ad7	0.060648765
184	0xbcfa86bf	-0.03058183
185	0x3d13c373	0.036075067
186	0xbd850ff4	-0.064971834
187	0xbd675109	-0.056473766
188	0xbd6126f0	-0.054968774
189	0x3b881abd	0.004153578
190	0x3dbbe7de	0.091750845
191	0xbd346ecc	-0.044050977
192	0x3c49d492	0.012318747
193	0x3c30e0f7	0.010795823
194	0x3d28ceca	0.041212834
195	0xbd70119d	-0.058610547
196	0x3cae652d	0.021288479
197	0x3d833403	0.06406405
198	0xbd422b56	-0.04740461
199	0x3dba0a43	0.090839885
