Backgammon2/pub_stomper_repository/nn_pg_3_pgmodel.pt (torch_old, 66468 bytes, 3 tensors)

weight f4 [100, 150]
0	0xbd76e34f	-0.060275372
1	0x3d6c2134	0.057648852
2	0xbda0d7dc	-0.07853672
3	0x3bb7e3da	0.005611879
4	0xbb467100	-0.0030279756
5	0x3d40f7f5	0.04711147
6	0x3d0509f0	0.03248018
7	0xbdca8b49	-0.09889848
8	0x3ce0ab34	0.027425386
9	0xbd82d23c	-0.06387755
10	0x3cbab942	0.022793416
11	0x3d186f84	0.037215725
12	0x3db87af7	0.09007829
13	0xbde64dac	-0.112452835
14	0xbc0e0c08	-0.008669861
15	0xbb12aabd	-0.00223796
16	0xbd8d9fff	-0.069152825
17	0x3d5594a6	0.052143715
18	0xbdad6168	-0.084658444
19	0x3d956ada	0.07295771
20	0x3d831e8c	0.06402311
21	0xbd555e7c	-0.05209206
22	0xbcab1f26	-0.020888876
23	0xbbaf1bd7	-0.005343895
24	0x3c92e6ad	0.01793226
25	0x3ca98ed2	0.020697985
26	0x3b9f9bf3	0.0048708855
27	0x3e2bfb22	0.16795018
28	0x3d3b8351	0.04577953
29	0x3d016873	0.03159375
30	0x3a73186e	0.00092733547
31	0x3dcb6eec	0.09933266
32	0xbd1d9da4	-0.038480416
33	0xbc808684	-0.015689142
34	0xbcc806fb	-0.024417391
35	0x3e0f04d0	0.1396668
36	0xbc22f7ec	-0.0099468045
37	0x3d354f6a	0.04426519
38	0xbd583ecc	-0.052794263
39	0xbc7897c2	-0.015172901
40	0xbd47089e	-0.048592202
41	0xbcc39ee2	-0.023879472
42	0x3b6df7de	0.003631107
43	0xbd8b6c7d	-0.06807802
44	0xbc444fa3	-0.0119818775
45	0x3d222766	0.039588355
46	0xbc3ac953	-0.0114005385
47	0x3d659fb9	0.056060527
48	0x3ce08d63	0.027411168
49	0x3e1c5730	0.15267634
50	0xbd0c0a2f	-0.0341894
51	0x3d2d6320	0.04233086
52	0x3bbea0f9	0.0058175293
53	0x3c0f64d3	0.008752066
54	0xbdc627b8	-0.096755445
55	0x3d5ef098	0.054428667
56	0x3d914e68	0.07095033
57	0x3de092ba	0.10965486
58	0xbcea167a	-0.02857517
59	0x3bd26c8a	0.0064216303
60	0xbda189c9	-0.078876086
61	0xbdda821f	-0.1066935
62	0x3d3e096b	0.0463957
63	0x3ce6dcf3	0.028181529
64	0x3df00636	0.11719935
65	0x3ac6092a	0.0015108932
66	0x3ccf46b7	0.025302274
67	0xbe055aa8	-0.13022864
68	0xbdb2bd3f	-0.08727502
69	0xbb0165fc	-0.0019744625
70	0xbd9a38fb	-0.075303994
71	0xbd2e8208	-0.042604476
72	0x3d7c2592	0.061559267
73	0xbd5d1363	-0.053973567
74	0xbdcdc0b4	-0.10046521
75	0xbc2d4fae	-0.010578079
76	0xbcfb8494	-0.030702867
77	0xbd7822b2	-0.060579963
78	0x3d2f7fbb	0.042846423
79	0xbd9554ff	-0.07291602
80	0x3d55f747	0.052237775
81	0x3d2b3889	0.041801963
82	0xbdd61e22	-0.10454966
83	0x3e21844a	0.1577312
84	0x3dc6a1d7	0.09698837
85	0x3e14ebe9	0.14543118
86	0x3d85d94f	0.06535589
87	0xbd201296	-0.039080225
88	0xbc4c1069	-0.012455084
89	0x3ded79c1	0.11595488
90	0x3cbf3a3c	0.023343198
91	0x3c269e2e	0.010169549
92	0xbc4fb270	-0.01267682
93	0x3d232397	0.039828863
94	0x3d67eb81	0.05662108
95	0x3c25d66e	0.010121925
96	0x3d36c52b	0.044621628
97	0x3d4b893e	0.04969143
98	0xbd382c2a	-0.044963993
99	0x3da486dd	0.08033536
100	0x3d2e3803	0.042533886
101	0x3e11265e	0.14174792
102	0x3d8b6b2e	0.06807552
103	0x3d2ebff2	0.042663522
104	0x3d2401ff	0.040040966
105	0x3d988a3a	0.074482396
106	0xbcd8ddca	-0.026472945
107	0xbd17603f	-0.03695702
108	0x3d9f9e8b	0.077939115
109	0x3b3fb8b9	0.002925439
110	0x3cc42f1d	0.023948247
111	0xbd05ae8c	-0.032637164
112	0xbd8b707b	-0.06808563
113	0xbc7879e4	-0.01516578
114	0x3d21c189	0.03949121
115	0x3cf581b1	0.029969068
116	0xbd42dccf	-0.04757386
117	0xbdf47ebc	-0.11938235
118	0x3c0d9f6f	0.008643969
119	0x3d602a40	0.054727793
120	0x3d82fa76	0.06395428
121	0x3cfb1eb7	0.030654294
122	0xbceaef4b	-0.028678557
123	0x3c6eebbb	0.01458257
124	0xbb37a0a2	-0.0028019329
125	0xbd710e99	-0.058851812
126	0x3d1464f1	0.036229078
127	0xbdb5bab0	-0.088734984
128	0x3e084fe4	0.13311726
129	0xbe0a3cc8	-0.13499749
130	0x3e1284ef	0.14308523
131	0x3c4abda6	0.012374317
132	0xbd2eaeea	-0.04264728
133	0xbe49fb2b	-0.19724719
134	0x3d9b5117	0.07583826
135	0x3d6846d6	0.05670818
136	0x3d4700fc	0.048584923
137	0xbd282b87	-0.041057136
138	0xbd6ae781	-0.057349686
139	0x3db27e5b	0.08715507
140	0x3d8391a8	0.06424266
141	0x3c9bdd9d	0.019026572
142	0xbbc0fada	-0.005889279
143	0x3d885d90	0.06658471
144	0xbd7d38da	-0.061821796
145	0xbd69c58a	-0.057073154
146	0x3dd0045c	0.101570815
147	0xbcf2ff35	-0.029662708
148	0xbe3fbd2d	-0.18724509
149	0xbde643e7	-0.1124342
150	0xbd7c0b49	-0.0615342
151	0x3d5ffa71	0.0546822
152	0xbd346d63	-0.04404963
153	0x3d8b7a58	0.068104446
154	0x3d69a6a8	0.0570437
155	0xbc89ae7b	-0.016806832
156	0xbb108472	-0.00220516
157	0x3c2e3def	0.010634883
158	0xbd45c76c	-0.048285887
159	0x3d1ad846	0.03780391
160	0x3dcdd2a1	0.1004994
161	0xbd938049	-0.07202203
162	0x3db58d83	0.08864882
163	0xbc458db4	-0.01205771
164	0x3d2526f0	0.040320337
165	0xbcb93d52	-0.022612248
166	0x3cfce8d6	0.030872744
167	0x3dd4c477	0.10389035
168	0xbb1e6960	-0.0024171695
169	0x3d4d0fa0	0.05006373
170	0xbcc1a061	-0.023636045
171	0xbcb53706	-0.022120964
172	0xbd254fa2	-0.040359147
173	0x3db795d8	0.08964127
174	0xbd7b117c	-0.06129597
175	0x3b462897	0.0030236596
176	0xbd976a87	-0.07393365
177	0x3def7aae	0.11693321
178	0x3ae8b503	0.0017754141
179	0xbc6d63b8	-0.014489107
180	0x3d020df0	0.031751573
181	0xbc2714b9	-0.010197812
182	0xbd8c047d	-0.068367936
183	0x3cf7cdee	0.030249562
184	0x3d1ad177	0.037797417
185	0x3e0ca9ed	0.13736697
186	0x3d606cae	0.054791145
187	0x3d65cdc6	0.056104444
188	0xbddbe401	-0.10736848
189	0x3cc2cda2	0.023779694
190	0xbc819409	-0.015817659
191	0x3db2e7ce	0.087356195
192	0x3d5660f5	0.05233856
193	0x3d9f879f	0.077895395
194	0x3d4954b9	0.049153063
195	0x3d8e798c	0.06956777
196	0x3d234ecd	0.039870072
197	0x3ddb83e3	0.10718515
198	0xbcef0d4d	-0.029181147
199	0x3bd0d684	0.0063732285
200	0x3d3ef70c	0.04662232
201	0x3d3e08e0	0.046395183
202	0x3d862dfc	0.065517396
203	0x3da1f5d8	0.07908219
204	0xbdb56736	-0.088575765
205	0xbba4bb20	-0.00502719
206	0xbd4fc3fd	-0.05072402
207	0x3da88045	0.082275905
208	0x3b642fe8	0.0034818593
209	0xbbc472dc	-0.0059951376
210	0xbdf8754c	-0.121317476
211	0xbd4f5697	-0.050619688
212	0xbc12b9a1	-0.00895539
213	0xbc764b9c	-0.015032675
214	0x3dad4ed5	0.08462302
215	0x3cd773b4	0.026300289
216	0x3d183914	0.03716381
217	0xbd7dd370	-0.06196922
218	0x3cfd841a	0.03094678
219	0xbc018e5e	-0.007907478
220	0xbd12f736	-0.03588029
221	0x3c977d30	0.018492311
222	0xbc5db22d	-0.01353125
223	0xbd2b786d	-0.041862894
224	0x3ca2b864	0.019863315
225	0x3c7a4923	0.015276226
226	0xbdbec8e1	-0.09315658
227	0xbdcfe347	-0.101507716
228	0x3d934040	0.07189989
229	0xbd96105c	-0.07327339
230	0xb9b0260b	-0.0003359768
231	0x3da7dacc	0.08196029
232	0xbdf977aa	-0.12181027
233	0x3c3de5fd	0.011590478
234	0x3d4ee0ad	0.050507236
235	0x3e1c41c4	0.15259463
236	0x3ddd4642	0.10804416
237	0xbd70c03e	-0.058777086
238	0x3d92efb9	0.0717463
239	0x3d2423e8	0.040073305
240	0x3d4ba8f2	0.049721666
241	0x3e0fc4f8	0.14039981
242	0x3dd4f25b	0.10397788
243	0x3d8617bc	0.06547496
244	0xbd38fc4f	-0.045162495
245	0xbd90527c	-0.07046983
246	0x3db3655d	0.08759568
247	0x3d1be103	0.038056385
248	0xbcd21869	-0.025646405
249	0x3c05400c	0.008132946
250	0xbc1f59dd	-0.009726015
251	0x3de16dc1	0.11007262
252	0x3d58b30b	0.052905124
253	0x3cf5cf06	0.030005943
254	0x3d8dcfe5	0.06924418
255	0xbd0a1199	-0.03370819

bias f4 [100]
0	0xbd99d327	-0.07510977
1	0x3d1516ca	0.036398686
2	0x3bd8813b	0.0066072023
3	0xbd43cecf	-0.04780465
4	0xbb367d1f	-0.0027845574
5	0x3d81bc10	0.06334698
6	0xbd13560d	-0.035970736
7	0xbc7bc5f8	-0.015367024
8	0xbd829bda	-0.063773826
9	0x3da37d6a	0.07982905
10	0xbd7c55fc	-0.06160544
11	0xbd882e3a	-0.06649442
12	0x3b13500c	0.0022478132
13	0xbd964b72	-0.07338609
14	0xbcc9a52d	-0.024614895
15	0x3c4a0c8c	0.012332093
16	0x3cdaa5f4	0.02669046
17	0xbda43b10	-0.08019078
18	0x3d9b4038	0.07580608
19	0x3d7cfdf4	0.061765626
20	0xbd3c1253	-0.045915913
21	0xbb83fb07	-0.0040277275
22	0xbd231638	-0.03981611
23	0xbd977cd4	-0.07396856
24	0x3d5f0f80	0.05445814
25	0x3d8cf040	0.068817616
26	0x3cbba32c	0.022904955
27	0xbd4606e6	-0.048346423
28	0x3d5d70e8	0.054062754
29	0xbbffe9df	-0.007809862
30	0xbca380c8	-0.019958869
31	0x3cf01dc4	0.029311068
32	0x3cdf035a	0.027223278
33	0x3d976a48	0.073933184
34	0x3c887dbc	0.016661517
35	0x3d6d99ec	0.05800812
36	0x3d789170	0.060685575
37	0xbd861066	-0.065460965
38	0x3ced86a2	0.028994862
39	0xbd900d83	-0.07033827
40	0xbd43b2dd	-0.047778
41	0xbd94a86c	-0.072586864
42	0xbd9a661c	-0.07539007
43	0xbd00d35c	-0.031451568
44	0x3b3d706c	0.002890612
45	0x3d88a328	0.066717446
46	0x3d9cab22	0.076498285
47	0x3ae3a3dd	0.0017367561
48	0x3c1e4a4c	0.009661268
49	0x3da56dfc	0.080776185
50	0xbd5724f9	-0.052525494
51	0xbd716c62	-0.058941253
52	0xbd95f59c	-0.07322237
53	0x3d62d522	0.05537904
54	0x3d498530	0.049199283
55	0x3d8b5da2	0.068049684
56	0x3d28e451	0.041233364
57	0x3d4643f6	0.048404656
58	0x3caeb8b0	0.0213283
59	0x3d4b66c0	0.049658537
60	0x3d50b8db	0.050957542
61	0xbc55f058	-0.013057791
62	0xbda64691	-0.08118928
63	0xbd18b79c	-0.03728448
64	0x3d14902a	0.036270298
65	0x3ca9600f	0.020675687
66	0xbc6b08e8	-0.014345385
67	0xbd756b7c	-0.05991696
68	0x3c3d8a80	0.0115686655
69	0x3b7dc3a6	0.0038721352
70	0x3b956bc5	0.0045599663
71	0xbd9cf5e5	-0.07664088
72	0xbc156a2f	-0.009119554
73	0x3d8df10e	0.06930743
74	0xbd9f9c02	-0.07793428
75	0x3cbc9640	0.023020864
76	0xbc348be8	-0.011019684
77	0x3d757c4b	0.059932988
78	0xbc8c5e97	-0.017134948
79	0xbd16db71	-0.03683037
80	0xbd2cec46	-0.042217515
81	0x3d8de82c	0.06929049
82	0x3cba5ffe	0.02275085
83	0x3d9d269e	0.07673381
84	0x3d7b3a18	0.0613347
85	0x3d36ad3c	0.044598803
86	0xbd322d48	-0.043500215
87	0x3ccdfdc9	0.025145428
88	0xbc3be13d	-0.011467275
89	0x3d778d1f	0.060437318
90	0x3d324ee4	0.043532267
91	0x3a8f3a09	0.001092733
92	0xbd4298d6	-0.047509037
93	0x3d940fea	0.07229598
94	0x3a1827db	0.0005804279
95	0xbd5e9371	-0.05433983
96	0xbd57e3fe	-0.052707665
97	0x3d3b34d8	0.045704693
98	0xbc9afc25	-0.01891906
99	0xbcbd5968	-0.023113921

weight f4 [1, 100]
0	0x3f0e2873	0.5553047
1	0x3ef9abfb	0.48764023
2	0xbfbd70c4	-1.4800038
3	0x3de07def	0.1096152
4	0x3eecb781	0.46233752
5	0x3fac61a1	1.3467294
6	0x3eecbc86	0.46237582
7	0xbf756ed0	-0.9587221
8	0xbf3b6de0	-0.7321453
9	0x3ee8e14b	0.45484385
10	0xbe9f58cd	-0.31122437
11	0xbd3d89df	-0.046274062
12	0x3f361d3e	0.7113837
13	0xbf51afe3	-0.81909007
14	0xc0020979	-2.0318282
15	0x4006b288	2.1046467
16	0xc01af30e	-2.421085
17	0x3dd0b5ac	0.10190901
18	0xbe3dac86	-0.18522844
19	0xbf167474	-0.58771443
20	0xbbb814b9	-0.0056177047
21	0xbe68afff	-0.22723387
22	0x3f0768d3	0.52894324
23	0xbe7f6ef8	-0.24944675
24	0x4001e678	2.0296917
25	0x3f61aa70	0.8815069
26	0xbf822420	-1.0167274
27	0x3f2cecea	0.67549
28	0x3e85826b	0.26076064
29	0xbe4aa1ba	-0.19788256
30	0xbe7c58d4	-0.2464326
31	0x3f52eab8	0.823894
32	0x3fb42c29	1.4075977
33	0xbd848f1c	-0.064726084
34	0xbef8a54f	-0.4856362
35	0x3f1b6931	0.60707384
36	0xbfb15679	-1.3854514
37	0xbfc3f7ad	-1.530996
38	0xbfb6d528	-1.42838
39	0x3f37e78a	0.71837676
40	0xbfd75c01	-1.6824952
41	0x3eaad4a3	0.33365354
42	0xbef7fbe4	-0.48434365
43	0x3fb685ab	1.4259542
44	0x40272c58	2.6120815
45	0xbfda285e	-1.7043569
46	0x3e0d49ea	0.13797727
47	0xbf4baf43	-0.79564303
48	0x3ea059cb	0.31318507
49	0xbfe18756	-1.7619426
50	0x3f8d00a0	1.1015816
51	0x3f280b65	0.65642387
52	0x3f8cb86c	1.0993781
53	0x3ffdd3ab	1.9830221
54	0xbfd5a788	-1.6691751
55	0x3fe84497	1.8145932
56	0x3fa18a83	1.2620395
57	0x3fc66501	1.5499574
58	0x3e92eef8	0.28697944
59	0xbf4764b7	-0.77888054
60	0x3fdc36d1	1.7204229
61	0x3fb4f9a1	1.4138681
62	0xbf1efa3d	-0.62100583
63	0x3fb9b53d	1.4508435
64	0x3f3fba23	0.748934
65	0x3f364912	0.71205246
66	0xbfce2de9	-1.6107761
67	0xbf8b5cb1	-1.0887662
68	0x3f824206	1.0176399
69	0xbf56a36a	-0.838431
70	0x3f351ddd	0.7074869
71	0xbf50a764	-0.8150542
72	0x3fc1f5f0	1.5153179
73	0xbf396b6e	-0.7242955
74	0x3fd4d207	1.6626595
75	0xbf7bf939	-0.9842716
76	0x3f2f1f53	0.6840717
77	0x3fa636e1	1.2985498
78	0xbf16177f	-0.586296
79	0x3f07b623	0.53012294
80	0xbf6c2fa7	-0.9226021
81	0x3f83c123	1.0293316
82	0xbf5436da	-0.82896197
83	0x3fd3d056	1.6547954
84	0x3f3c5e7d	0.7358168
85	0x3f71329e	0.9421786
86	0xbf87669e	-1.0578191
87	0x3fede2b4	1.8584809
88	0x3fd92d59	1.6966964
89	0xc0163020	-2.3466873
90	0xbe89f921	-0.26947883
91	0x3fb7224c	1.4307342
92	0x3e90f543	0.2831212
93	0xbef774fd	-0.48331442
94	0xbf18f17e	-0.5974349
95	0x3f140eb2	0.57834923
96	0xbe8eb310	-0.2787099
97	0xbe74297f	-0.23843955
98	0x4002c81d	2.043464
99	0x3e9f8467	0.31155702
